LeNet/epoch-24_loss-0.014346_error-4.92%.pth (torch, 42575 bytes, 8 tensors)

conv1.weight f4 [12, 1, 5, 5]
0	0x3d9b654f	0.075876825
1	0xbd6c6db0	-0.057721794
2	0xbe445414	-0.19172698
3	0xbdb0b44f	-0.08628141
4	0xbddf3808	-0.10899359
5	0x3b6fb598	0.0036576744
6	0xbe5b98ab	-0.21444957
7	0xbe9d15a6	-0.3068058
8	0xbe6fb523	-0.23408942
9	0xbe7c5148	-0.24640381
10	0x3daba8c2	0.083817974
11	0xbd861de2	-0.065486684
12	0xbe27bbca	-0.1638023
13	0xbe0f762e	-0.14009926
14	0xbe27e3c7	-0.16395484
15	0x3e7f1678	0.24910915
16	0x3e45cf7f	0.19317435
17	0x3de79a26	0.11308698
18	0x3dd47c94	0.10375324
19	0x3c4a4fc1	0.012348116
20	0x3e12d7bb	0.14340107
21	0x3e2383fc	0.15968317
22	0x3e1fc6d0	0.15603185
23	0x3e3cb2de	0.18427607
24	0x3dcaf7d2	0.09910549
25	0xbd1f5f69	-0.03890935
26	0xbe29a071	-0.1656511
27	0xbec21d1c	-0.37912834
28	0xbe6738c8	-0.22580254
29	0xbdd79ae0	-0.10527587
30	0xbd9eddf4	-0.07757178
31	0xbe69255e	-0.2276816
32	0xbed5fee0	-0.41796017
33	0xbe181acc	-0.14853972
34	0xbc4cf7f5	-0.012510289
35	0x3e011627	0.12606107
36	0x3d065176	0.03279253
37	0xbd8ea185	-0.06964401
38	0x3e507aa3	0.20359282
39	0x3e4b004e	0.19824335
40	0x3e9079d8	0.2821796
41	0x3e753bb8	0.23948562
42	0x3e59f40c	0.21284503
43	0x3eae1bf6	0.34005708
44	0x3e482f37	0.19549261
45	0x3e05e6f4	0.13076383
46	0x3db4b889	0.0882426
47	0x3dade971	0.08491791
48	0x3df9bd00	0.12194252
49	0x3c95f1b1	0.018303724
50	0xbc811806	-0.015758526
51	0x3d5c433a	0.05377505
52	0x3dc253fb	0.09488674
53	0x3d6e113d	0.05812191
54	0x3d34f119	0.04417524
55	0xbdaec439	-0.0853352
56	0x3d1ce9ea	0.038309015
57	0x3dba5fb9	0.09100289
58	0x3e07975b	0.13241331
59	0x3ddfee2c	0.109340996
60	0xbdb63fe0	-0.08898902
61	0x3d19056f	0.037358698
62	0x3e040edd	0.12896295
63	0x3e52fadf	0.20603512
64	0x3dea1777	0.11430257
65	0xbd1c5ad2	-0.03817255
66	0x3b17df60	0.0023173913
67	0x3d06bdd7	0.03289589
68	0x3e0c39fc	0.13693994
69	0x3db940d3	0.09045567
70	0xbddd2c81	-0.10799504
71	0xbdbd1ef4	-0.092344195
72	0xbd9922f5	-0.07477371
73	0xbce4ca8b	-0.027928611
74	0xbc6db910	-0.014509454
75	0x3e082ac7	0.13297568
76	0x3e829f1d	0.2551202
77	0x3e71082f	0.23538278
78	0x3e4899a1	0.19589855
79	0x3dfd8fc1	0.123809345
80	0x3e32946f	0.17439435
81	0x3e70bc48	0.23509324
82	0x3e63d422	0.22248891
83	0x3e8ad967	0.2711899
84	0x3e49a160	0.19690466
85	0x3bf9f8bc	0.0076285284
86	0xbcacd4c8	-0.021097556
87	0x3d7ec7e2	0.06220234
88	0x3de59938	0.11210865
89	0x3de968a1	0.113969095
90	0xbe82b26f	-0.2552676
91	0xbe979276	-0.29603928
92	0xbe5c3382	-0.21504024
93	0xbdbecd62	-0.093165174
94	0x3c51f74f	0.012815311
95	0xbe428500	-0.18996048
96	0xbe885ab1	-0.26631692
97	0xbe85c5cc	-0.2612747
98	0xbe0fbfda	-0.1403803
99	0xbccd3086	-0.025047552
100	0xbe272ce8	-0.16325724
101	0xbe36005b	-0.17773573
102	0xbe5c5bc9	-0.21519388
103	0xbd884438	-0.06653637
104	0x3da96f8e	0.082732305
105	0xbe4c5385	-0.19953735
106	0xbe432e76	-0.19060692
107	0xbe8ccf8e	-0.27502102
108	0xbdcdaafe	-0.1004238
109	0x3d9674c6	0.073464915
110	0xbce5863a	-0.028018106
111	0x3b55b258	0.0032607522
112	0xbd707a93	-0.058710646
113	0x3dde55ff	0.10856246
114	0x3e2fddcb	0.17174451
115	0x3e07b3da	0.13252202
116	0x3e3072d1	0.17231299
117	0x3e402ec7	0.18767844
118	0x3eb01e89	0.34398296
119	0x3e9c03dd	0.30471697
120	0xbceacbc3	-0.028661614
121	0x3cfb1192	0.030648027
122	0x3dd87f29	0.10571129
123	0x3e4295fa	0.19002524
124	0x3dc1055e	0.09424852
125	0xbcce298a	-0.025166292
126	0xbd64b6f7	-0.05583855
127	0x3d189721	0.037253503
128	0x3e86efaa	0.26354724
129	0x3eba9923	0.3644496
130	0xbb07132f	-0.00206108
131	0xbdb6a072	-0.08917321
132	0x3cbfa164	0.023392387
133	0x3e943767	0.2894852
134	0x3ec2ed9f	0.38071916
135	0xbe0fee3e	-0.14055726
136	0xbe82d63e	-0.2555408
137	0xbddd8f68	-0.10818368
138	0x3d3b4d3d	0.045727957
139	0x3e5f3404	0.21797186
140	0xbeb24b34	-0.34823
141	0xbeb5980a	-0.3546756
142	0xbe44f31d	-0.19233365
143	0xbe242ef7	-0.1603354
144	0xbc4215b1	-0.011845992
145	0xbe983d54	-0.2973429
146	0xbe3f1179	-0.18659009
147	0xbca05fe9	-0.019576984
148	0xbc9b75a1	-0.018976988
149	0x3ddaa8a9	0.106767006
150	0x3c4a87e0	0.012361497
151	0x3c656397	0.014000795
152	0xbd2f9c74	-0.042873815
153	0x3d148106	0.03625586
154	0x3da9cdc5	0.082912005
155	0x3c2d65aa	0.010583321
156	0x3c850c34	0.01624117
157	0xbd97ae0c	-0.07406244
158	0x3cd66881	0.026172878
159	0x3d765d85	0.06014778
160	0x3dd94489	0.10608775
161	0x3db6761c	0.08909246
162	0xbd02a220	-0.031892896
163	0x3d2103cd	0.039310265
164	0x3d17f6e5	0.03710069
165	0x3d42962a	0.04750649
166	0xbd4a8e08	-0.049451858
167	0xbe0afcf0	-0.1357305
168	0xbd85153d	-0.064981915
169	0xbb9210df	-0.0044575776
170	0xbd67cbdc	-0.0565909
171	0xbe2a3fea	-0.16625944
172	0xbe3bb904	-0.18332297
173	0xbd9db925	-0.07701329
174	0x3d163eba	0.036680914
175	0x3d648228	0.05578819
176	0x3d5307f4	0.051521257
177	0xbcdc88b7	-0.02692066
178	0xbcd75c26	-0.026289057
179	0x3d438dfc	0.04774283
180	0xbc2d81b2	-0.010590004
181	0xbde44629	-0.111461945
182	0xbe50dfa1	-0.20397808
183	0xbdce5f54	-0.10076776
184	0x3d5c4d97	0.053784933
185	0xbdda3cfe	-0.106561646
186	0xbe6992af	-0.22809862
187	0xbe7c5237	-0.24640737
188	0xbe0a189b	-0.13485949
189	0x3c9b0104	0.018921383
190	0xbe0c936c	-0.13728112
191	0xbdbda242	-0.09259464
192	0xbbf58056	-0.0074921055
193	0x3db052ba	0.08609529
194	0x3e105b98	0.1409744
195	0x3ca613ad	0.020273054
196	0x3e11d69d	0.14242025
197	0x3e846a47	0.25862333
198	0x3eb879bb	0.36030373
199	0x3e9f1414	0.31070006
200	0x3e30ab8d	0.17252941
201	0xbd011a9d	-0.03151952
202	0xbe3625e6	-0.17787895
203	0xbe277151	-0.1635182
204	0xbde60cd7	-0.11232918
205	0x3d0425aa	0.03226248
206	0xbe8af8e1	-0.27143005
207	0xbec94b7b	-0.393154
208	0xbe9f08d6	-0.3106143
209	0xbe1ca038	-0.15295494
210	0x3d07185f	0.032982226
211	0xbe831472	-0.25601536
212	0xbea44985	-0.3208734
213	0xbda07caf	-0.078362815
214	0x3dba4736	0.09095614
215	0x3d8b11e6	0.06790523
216	0xbd3fe25c	-0.046846732
217	0x3d934166	0.07190208
218	0x3e8f87e9	0.2803338
219	0x3e907c42	0.282198
220	0x3d912f5e	0.07089113
221	0x3e1a1ef5	0.15050872
222	0x3ea68b0e	0.32527965
223	0x3ec670dd	0.38757983
224	0x3e9080d7	0.28223297
225	0xbd1556c2	-0.03645969
226	0xbcbe607d	-0.023239369
227	0x3d646d4d	0.0557683
228	0x3da8acde	0.08236097
229	0x3dbe9723	0.09306171
230	0x3d049605	0.032369632
231	0x3c1a1f39	0.009406858
232	0x3d35c629	0.044378433
233	0x3d042155	0.03225835
234	0x3ce5cc54	0.028051533
235	0xbdcd457c	-0.10023019
236	0xbdf2d609	-0.1185723
237	0xbd94e88d	-0.07270918
238	0xbe092ff9	-0.13397206
239	0xbde46066	-0.11151199
240	0xbe16a7ae	-0.14712402
241	0xbdb0237a	-0.086005166
242	0xbd8d07f8	-0.068862855
243	0xbe448928	-0.19192946
244	0xbe444632	-0.19167402
245	0x3da9c383	0.08289244
246	0x3dfd208f	0.12359726
247	0x3d93dab1	0.072194465
248	0x3c63df6d	0.013908249
249	0x3bc7a3d0	0.006092526
250	0xb90be081	-0.00013339707
251	0xbad2cb11	-0.0016082247
252	0xbcd93fb3	-0.026519632
253	0x3d38cb69	0.045115862
254	0x3d928b78	0.07155508
255	0xbd5e3db5	-0.054258067

conv1.bias f4 [12]
0	0x3e3c4c24	0.1838842
1	0x3da1ea74	0.079060465
2	0xbd0b7ed2	-0.034056492
3	0xbd907bf3	-0.070548914
4	0x3e9f64cc	0.3113159
5	0xbe742cbb	-0.23845188
6	0xbd60367e	-0.054739468
7	0xbe1822a6	-0.14856967
8	0xbe50c9a4	-0.2038942
9	0xbc9cefab	-0.019157251
10	0x3ba165e7	0.004925478
11	0x3e2d68c6	0.16934499

conv2.weight f4 [12, 12, 5, 5]
0	0x3b855da2	0.00407
1	0x3ae1e4c7	0.0017234319
2	0xbd3430ac	-0.04399173
3	0xbd2ab5f9	-0.04167745
4	0x3cef79d1	0.029232891
5	0x3d92e69f	0.07172894
6	0x3d59fa42	0.05321718
7	0x3c36d5bc	0.011159357
8	0xbcaebe2b	-0.021330914
9	0x3d489e80	0.048979282
10	0xbb511ee0	-0.0031909272
11	0xbc5c1b0c	-0.013434183
12	0xbcd6a45a	-0.026201416
13	0xbca7153b	-0.020395866
14	0xbc2f065b	-0.010682668
15	0xbcea792f	-0.028622238
16	0x3c172ce5	0.009227012
17	0x3d8fe0c9	0.07025296
18	0x3be426e7	0.0069626453
19	0xbd26dace	-0.040736012
20	0x3b09124e	0.0020915451
21	0xbcb1e493	-0.021715438
22	0x3d2160c1	0.039398912
23	0x3cc586ff	0.024112223
24	0x3c304278	0.010758035
25	0xbd06976b	-0.032859247
26	0x3c86db89	0.016462104
27	0x3c7f73be	0.01559156
28	0xbd9ca67b	-0.07648941
29	0x3c3ef007	0.011653907
30	0x3c6a2777	0.014291636
31	0xbc748aaf	-0.014925643
32	0xbd97cddf	-0.07412314
33	0x3c157851	0.009122924
34	0x3d1834ca	0.03715972
35	0x3cd132a2	0.025536839
36	0x3dd37c0a	0.10326393
37	0xbc6f568b	-0.014608036
38	0x3c44197a	0.011968965
39	0x3d039380	0.03212309
40	0xbd20bc78	-0.039242238
41	0xbcbacb64	-0.022802062
42	0x3dd6e232	0.10492362
43	0x3bdf9e73	0.0068243085
44	0xbd5269a1	-0.051370267
45	0x3d281bf8	0.041042298
46	0x3dd28115	0.10278527
47	0x3d3fe629	0.046850357
48	0x3aad338d	0.0013214216
49	0xbc3fc64d	-0.011704993
50	0xbd0412d6	-0.032244526
51	0xbcdc7ce4	-0.026915021
52	0x3bf03fe2	0.007331834
53	0x3bd18ba5	0.0063948208
54	0xbd6979d6	-0.057000957
55	0xbd320866	-0.04346504
56	0xbd2938db	-0.041313987
57	0xbd539703	-0.051657688
58	0xbbebc98c	-0.007195657
59	0xbcd51b94	-0.026014127
60	0xbcb8fb64	-0.02258081
61	0xbb290ee4	-0.002579623
62	0xbd19749b	-0.03746472
63	0xbbd77900	-0.0065757036
64	0xbb96f9bc	-0.0046074074
65	0x3bf281c5	0.0074007236
66	0xbbcefee5	-0.006317007
67	0xbcd57fa4	-0.02606184
68	0xbcfad77c	-0.03062033
69	0xbc32c0f0	-0.010910258
70	0x3cadc38e	0.021211412
71	0x3d67892e	0.05652731
72	0x3c93c873	0.018039918
73	0xbc03e741	-0.008050741
74	0x3c0c92bd	0.008579907
75	0x3cfce9ea	0.030873258
76	0x382b7e34	4.0887113e-05
77	0x3cf0e76f	0.029407231
78	0x3cf97d65	0.0304553
79	0x3d067b37	0.03283235
80	0xbd851a59	-0.06499166
81	0xbd356588	-0.04428628
82	0x3cdc6786	0.026904833
83	0x3d3f19e3	0.046655547
84	0xbc920d9e	-0.017828759
85	0x3c70da96	0.014700552
86	0xbd3f8d17	-0.046765413
87	0xbbae8c7d	-0.005326806
88	0x3db76574	0.089548975
89	0x3d04a853	0.03238709
90	0xbc988312	-0.018617187
91	0xbc5c9188	-0.013462432
92	0xbd9d16d5	-0.076703705
93	0xbcc9b9fe	-0.02462482
94	0x3d78f368	0.060779005
95	0x3c479a47	0.012182779
96	0xbbc69522	-0.0060602585
97	0xbd5deb55	-0.05417951
98	0x3cd11354	0.025521912
99	0xbd2ea43f	-0.042637106
100	0xbd21ae71	-0.039473
101	0xbba10098	-0.004913401
102	0x3c106090	0.008812085
103	0xbd16d5e7	-0.036825087
104	0xbc65300a	-0.013988504
105	0xbb7f3b9f	-0.003894545
106	0x3cfdcd7c	0.030981772
107	0xbc908ed0	-0.017646223
108	0x3c1db6ef	0.009626134
109	0xbb065078	-0.002049474
110	0xbc278f5c	-0.010227051
111	0x3daf5802	0.08561708
112	0xb80983be	-3.278604e-05
113	0x3c83301c	0.016014151
114	0x3b59f595	0.003325795
115	0x3c55acdd	0.013041702
116	0xbc48b2bf	-0.012249648
117	0x3d41e3c5	0.04733636
118	0x3bb6b4f0	0.0055757686
119	0xbd603ced	-0.054745603
120	0x3d82fabd	0.06395481
121	0x3db68665	0.089123525
122	0x3c640b3b	0.013918693
123	0x3cfe7268	0.031060413
124	0xbadecfcd	-0.0016999185
125	0x3d341af0	0.043971002
126	0x3d6133d6	0.054981075
127	0x3d046c75	0.032329995
128	0xbb9520a9	-0.0045510125
129	0xbd58e064	-0.05294837
130	0xbd23efaf	-0.040023502
131	0x3d995613	0.074871205
132	0x3d3a83f2	0.04553599
133	0xbbf943ce	-0.00760696
134	0xbdaee39e	-0.08539508
135	0x3cde3b8b	0.027128002
136	0xbcc70edc	-0.024299078
137	0xbd4a6683	-0.04941417
138	0x3d8b0f10	0.06789982
139	0xbd1b38ff	-0.037896153
140	0x3d1f429f	0.038881894
141	0xbcc7cf55	-0.024390856
142	0x3c8ab202	0.016930584
143	0x3d665803	0.05623628
144	0x3d7b0566	0.061284445
145	0x3cf01679	0.02930759
146	0xbb9f6a07	-0.0048649344
147	0xbd8bf787	-0.068343215
148	0xbd60c2d9	-0.05487332
149	0x3d68cd5f	0.056836482
150	0x3c508e38	0.01272922
151	0x3c9b5a40	0.018963933
152	0x3d3092bc	0.043108687
153	0xbb8ec221	-0.004356638
154	0xbb9cad57	-0.004781406
155	0x3c965829	0.018352585
156	0xbc464745	-0.012101953
157	0xbcc1f84c	-0.023677967
158	0xbbd25682	-0.006419004
159	0x3c751b01	0.0149600515
160	0xbcac0640	-0.020999074
161	0x3b62e088	0.0034618694
162	0xbc5b729c	-0.013394024
163	0xbc23252b	-0.009957592
164	0x3c460855	0.012086947
165	0xbcdc8205	-0.026917467
166	0xbc27ec64	-0.010249231
167	0xbcd22392	-0.025651727
168	0xbac4e0a3	-0.001502056
169	0xbc0e2751	-0.008676366
170	0x3c650231	0.013977573
171	0xbc3f9a4e	-0.011694504
172	0xbc3f2083	-0.011665466
173	0x3d159d26	0.03652682
174	0xbc4a1968	-0.012335159
175	0x3c1f3478	0.009717099
176	0xbc1162b8	-0.008873634
177	0xbd7d7e99	-0.06188831
178	0xbd1c57b4	-0.038169578
179	0x3d043a13	0.032281946
180	0xbc6c279c	-0.0144137405
181	0x3d5ae7d1	0.053443734
182	0x3cc68b87	0.024236454
183	0x3cd9a18a	0.026566286
184	0xbcdf9056	-0.027290504
185	0x3d133f1a	0.03594885
186	0xbc8d54b1	-0.017252298
187	0xbcde64d5	-0.02714769
188	0x3c115cda	0.008872235
189	0xbcb697ff	-0.022289274
190	0x3bf1d4a6	0.007380086
191	0x3cee5cd4	0.029096998
192	0x3d0e02f7	0.034670796
193	0xbceb7b7b	-0.028745404
194	0xbd14421a	-0.03619585
195	0x3c95108a	0.018196363
196	0xbccfe2d2	-0.025376711
197	0xbdbf44ea	-0.09339316
198	0xbd07f49c	-0.033192262
199	0x3cfba206	0.030716907
200	0xbcea9025	-0.028633187
201	0xbc16f2d2	-0.009213166
202	0xbd3d8f83	-0.04627944
203	0xbd67decd	-0.056608964
204	0x3d317903	0.043328296
205	0xbc953cfd	-0.018217558
206	0x3c534c37	0.012896589
207	0xbd0fdfaa	-0.035125412
208	0x3ce05b4a	0.02738728
209	0xbcff2cdb	-0.031149318
210	0x3ccbd126	0.024880003
211	0xbc23aecf	-0.009990408
212	0xbd362f4c	-0.0444787
213	0x3d485953	0.04891331
214	0xbc061306	-0.0081832465
215	0xbcd5c2d7	-0.026093883
216	0x3ce18160	0.027527511
217	0x3da52ec9	0.08065564
218	0xbd279604	-0.04091455
219	0xbda1b312	-0.07895483
220	0x3d613c09	0.054988895
221	0x3d123896	0.035698496
222	0xbd221219	-0.03956804
223	0xbd249995	-0.04018553
224	0xbbd6f8f0	-0.0065604374
225	0x3cd38223	0.02581889
226	0xbcc1f71a	-0.023677398
227	0xbc3ba5c2	-0.011453094
228	0x3cea2d23	0.028585976
229	0x3b90c20d	0.004417664
230	0x3aff9920	0.0019500591
231	0x3d21037c	0.039309964
232	0x3d950a1f	0.07277321
233	0x3c16ba2a	0.009199658
234	0xbbc62d31	-0.0060478677
235	0x3c95542d	0.018228615
236	0xbc39869a	-0.011323595
237	0x3bfb47ce	0.007668472
238	0xbb1c9fb0	-0.0023898892
239	0xbd0761c2	-0.033052213
240	0x3cd79fe9	0.026321368
241	0x3c4ebaa2	0.012617739
242	0x3c7503e6	0.014954543
243	0x3ccb26c8	0.024798766
244	0xbafe2ca1	-0.0019391963
245	0xbcef262b	-0.029193005
246	0xbd3e1ef7	-0.04641625
247	0xbcf5242f	-0.02992448
248	0xbcd291d2	-0.025704298
249	0xba78d0d8	-0.00094915694
250	0xbc892725	-0.016742298
251	0xbb2e0db3	-0.0026558458
252	0x3c84216a	0.016129214
253	0xbcbc3e20	-0.022978842
254	0xbd39a3ce	-0.045322232
255	0xbccc0258	-0.024903461

conv2.bias f4 [12]
0	0x3df7ab0a	0.1209317
1	0x3d7e9ae5	0.062159438
2	0x3cd84c44	0.026403554
3	0x3de41984	0.11137679
4	0x3df33895	0.118760265
5	0x3c714f81	0.014728428
6	0xbdc6289f	-0.096757166
7	0xbd966f73	-0.07345476
8	0x3c029baf	0.007971688
9	0x3d89e171	0.06732453
10	0xbd5f8670	-0.05457157
11	0x3dcd6b4c	0.10030231

fc1.weight f4 [30, 192]
0	0xbdb228aa	-0.08699162
1	0x3c05c23a	0.008163983
2	0x3d8031b6	0.062594816
3	0xbd83b517	-0.064310245
4	0x3c65f8eb	0.014036397
5	0xbded292f	-0.11580121
6	0xbdab1b07	-0.083547644
7	0xbe10292c	-0.14078206
8	0xbd466c1f	-0.048442956
9	0xbc1d8410	-0.009614006
10	0x3d3af467	0.045643236
11	0xbd50467c	-0.05084847
12	0xbd5e9168	-0.05433789
13	0x3c0b21ed	0.008491975
14	0xbd0967ae	-0.033546142
15	0xbd70679b	-0.058692556
16	0x3bbc0ca1	0.00573881
17	0x3d0b9fc0	0.034087896
18	0x3cfb376e	0.03066608
19	0xbd227540	-0.0396626
20	0xbd8cc513	-0.068735264
21	0xbcf4dccf	-0.029890446
22	0x3d16ad96	0.03678664
23	0xbd938e67	-0.072048955
24	0xbd3824e7	-0.044957068
25	0x3c4b3c99	0.012404584
26	0x3b75aeaa	0.003748814
27	0xbccc148b	-0.02491214
28	0xbcbdb558	-0.02315776
29	0xbd4c571f	-0.049887773
30	0x3d1725ef	0.03690141
31	0x3c828bc9	0.015935795
32	0xbd06fcfc	-0.03295611
33	0xbdb55147	-0.08853393
34	0xbd99b4e6	-0.07505207
35	0xbd3f799d	-0.04674684
36	0x3c16e2aa	0.009209314
37	0xbd89bb54	-0.06725183
38	0xbc484175	-0.012222637
39	0xbd9dd689	-0.07706935
40	0xbb139711	-0.0022520463
41	0xbd4b528d	-0.049639273
42	0xbce7b9de	-0.02828687
43	0xbd188329	-0.03723446
44	0x3b785f9f	0.0037898791
45	0x3c7d0d9d	0.01544514
46	0x3dc9c73f	0.09852456
47	0xbd83673c	-0.06416175
48	0x3dcb866a	0.09937747
49	0xbcfcd147	-0.03086151
50	0xbd2929df	-0.041299697
51	0xbca8ace5	-0.020590255
52	0x3d530f5d	0.051528323
53	0xbd9e3abc	-0.077260464
54	0xbdb71454	-0.08939424
55	0x3c522db4	0.012828279
56	0xbcef159f	-0.029185114
57	0x3be064a4	0.006847935
58	0x3d8b4441	0.06800128
59	0x3d0a8868	0.033821493
60	0x3a438722	0.0007458796
61	0xbb8d7056	-0.00431637
62	0xbd6d907c	-0.05799912
63	0x3d482886	0.04886677
64	0xbd48dd84	-0.04903938
65	0x3ce8efaf	0.028434603
66	0xbd87a4fb	-0.066232644
67	0xbd48cce8	-0.04902354
68	0xbda8623b	-0.08221861
69	0x3d9da1a2	0.07696845
70	0xbd088993	-0.033334326
71	0xbd3c8600	-0.04602623
72	0x3d73d51e	0.059529416
73	0x3c95926a	0.018258292
74	0xbd7d34da	-0.06181798
75	0xbcf351a2	-0.029702011
76	0xbd056db7	-0.032575335
77	0xbc441d41	-0.011969865
78	0x3cb0c680	0.021579027
79	0xbd07a975	-0.03312059
80	0xbd075602	-0.033041008
81	0xbd04b7ad	-0.03240173
82	0xbd88639a	-0.066596225
83	0xbd9c4dfc	-0.07632062
84	0x3cb93b93	0.022611415
85	0x3d8e51e5	0.06949214
86	0x3d4d91d4	0.0501879
87	0x3d6baec1	0.057539705
88	0x3d8b3f7a	0.067992166
89	0x3d15e473	0.03659482
90	0x3d01854f	0.031621274
91	0xbd041547	-0.032246854
92	0x3d49fcf3	0.049313497
93	0xbdf673d5	-0.12033812
94	0xbbefc7bf	-0.0073175128
95	0xbd1ff4a8	-0.03905168
96	0x3db0adde	0.086269125
97	0x3cf4ceb2	0.029883716
98	0x3d4cd541	0.050008062
99	0x3d152cbb	0.03641961
100	0x3d38fcc8	0.045162946
101	0x3b1a2c39	0.0023524894
102	0xbcc5b8bf	-0.024135945
103	0x3bcebf38	0.006309416
104	0xbc0f16a7	-0.008733428
105	0xbd4d4237	-0.050111976
106	0xbd60e62c	-0.05490701
107	0xbd528da6	-0.051404618
108	0xbc998d88	-0.018744245
109	0x3cb43c29	0.022001343
110	0xbdca31e1	-0.09872795
111	0x3d23f3a6	0.040027283
112	0x3c31a079	0.010841482
113	0xbcfa8c2e	-0.030584421
114	0x3c699f1d	0.014259127
115	0xbcadc6bd	-0.02121293
116	0xbd2c1eb4	-0.04202147
117	0x3ca92d23	0.020651406
118	0xbd512d38	-0.051068515
119	0xbd9673b1	-0.07346285
120	0xbd36be57	-0.044615116
121	0xbc7bff43	-0.015380683
122	0xbc3928be	-0.011301218
123	0x3c8390de	0.016060289
124	0x3d843cdf	0.06456923
125	0xbc80b3a1	-0.015710654
126	0x3d2f2c39	0.042766783
127	0x3c83f5c3	0.0161084
128	0xbd9cb1ba	-0.07651086
129	0x3d0b01e6	0.033937357
130	0x3d985914	0.07438865
131	0x3b1639cc	0.0022922633
132	0xbc99f75e	-0.018794712
133	0xbc6df764	-0.014524315
134	0x3d7a9da5	0.061185498
135	0x3d90a166	0.07062034
136	0x3d9bce95	0.07607762
137	0xbd1509b3	-0.036386203
138	0xbcb0de86	-0.021590482
139	0x3c8643ec	0.01638981
140	0x3cb3da1c	0.021954589
141	0xbd8bc74a	-0.06825121
142	0x3d48b64d	0.04900198
143	0x3d405fac	0.04696624
144	0x3b46e8a6	0.0030351072
145	0xbcac844e	-0.021059182
146	0xbce60a6b	-0.02808114
147	0xbd211c22	-0.03933347
148	0xbd7f4993	-0.062326025
149	0xbc14d499	-0.00908389
150	0x3d33db53	0.043910336
151	0xbd2d6ff3	-0.04234309
152	0xbd32add9	-0.043622825
153	0xbcc0ca1d	-0.023533875
154	0x3da18fe6	0.078887746
155	0x3d980d24	0.074243814
156	0xbc1f0c18	-0.009707473
157	0x3ce6888e	0.028141286
158	0x3d56da25	0.052454133
159	0x3c187751	0.009305791
160	0x3c116b2e	0.008875651
161	0x3c0cd242	0.008595051
162	0x3d9c05f9	0.07618327
163	0x3d703780	0.05864668
164	0xbd3a5727	-0.04549327
165	0xb9b5ed74	-0.00034699927
166	0xbc35559d	-0.011067775
167	0xbd9403bb	-0.07227274
168	0xbdd4e59c	-0.10395357
169	0x3d76cfc1	0.060256723
170	0xbdb794a1	-0.089638956
171	0x3c6cf9d8	0.014463864
172	0x3d5f1842	0.054466493
173	0x3cca5313	0.024697816
174	0x3d0f5f76	0.035003148
175	0x3bd69b91	0.0065493067
176	0xbb8f5c85	-0.004375043
177	0xbd99746d	-0.074929096
178	0x3d9396c0	0.07206488
179	0x3b3d9847	0.0028929876
180	0xbcea2805	-0.028583536
181	0x3cf0ce82	0.029395346
182	0x3d31442c	0.043277904
183	0xbdb37656	-0.08762805
184	0xbd2ddc20	-0.042446256
185	0x3b665ec3	0.0035151697
186	0xbc617563	-0.013760897
187	0xbd6492d9	-0.055804107
188	0x3d5e6e10	0.054304183
189	0x3d5bc27e	0.05365228
190	0x3d3c9312	0.046038695
191	0xbd5c7a7c	-0.053827748
192	0x3da6b28e	0.08139525
193	0xbdac959a	-0.08426972
194	0xbd31713d	-0.043320883
195	0x3d52b5bf	0.051442858
196	0xbd492b40	-0.049113512
197	0x3cbd6136	0.023117643
198	0xbdca353c	-0.09873435
199	0xbdddbc66	-0.1082695
200	0x3d5a973e	0.053366892
201	0xbc4926c0	-0.012277305
202	0xbc0e0b3b	-0.00866967
203	0xbd5916e0	-0.05300033
204	0x3d113cd2	0.035458393
205	0x3c97e1f5	0.018540362
206	0xbd462820	-0.04837811
207	0xbced07c8	-0.028934374
208	0x3d94bb5f	0.07262301
209	0x3c48b1e3	0.012249443
210	0x3c96e6a4	0.018420525
211	0xbc7861e3	-0.015160057
212	0xbd0eecd3	-0.034893822
213	0xbc531dd4	-0.01288553
214	0x3d7ced18	0.061749548
215	0x3d48ff37	0.049071517
216	0xbd317fec	-0.043334886
217	0xbd81ffdb	-0.06347629
218	0x3cce7fdd	0.025207454
219	0x3d2d8eb4	0.04237242
220	0xbc203094	-0.009777207
221	0x3d225f47	0.039641645
222	0x37c60069	2.360363e-05
223	0xbb204b7a	-0.002445905
224	0x3d30fe4b	0.043211263
225	0x3c8b494f	0.01700273
226	0xbd5b6fa0	-0.05357325
227	0xbced9a6a	-0.029004294
228	0xbcd313b8	-0.025766239
229	0x3d8c145c	0.06839821
230	0xbd552a2f	-0.052042183
231	0xbd85cce1	-0.06533218
232	0xbd29e7e9	-0.041480932
233	0x3ce217ba	0.027599204
234	0xbca99d0c	-0.020704769
235	0xbd44a199	-0.048005674
236	0xbd4783ab	-0.048709553
237	0x3ca10812	0.019657169
238	0x3dafa4b7	0.08576339
239	0xbda081ad	-0.07837234
240	0x3cb6a0de	0.022293504
241	0x3da10d79	0.07863898
242	0x3d747100	0.059678078
243	0x3d29f998	0.041497797
244	0x3a462b58	0.00075595593
245	0xbdec969a	-0.115521625
246	0xbcdc8b51	-0.0269219
247	0x3d0adc1b	0.033901315
248	0xbdc1c3b3	-0.09461155
249	0xbcba5dff	-0.022749899
250	0x3bcbbb17	0.006217371
251	0xbd98284a	-0.074295595
252	0x3d96a5fe	0.07355879
253	0x3d371b1d	0.04470359
254	0x3cf53905	0.029934416
255	0x3b85bfa1	0.004081682

fc1.bias f4 [30]
0	0xbd9a2ade	-0.075277075
1	0xbcb8fc00	-0.0225811
2	0xbd77b35f	-0.060473796
3	0xbdb32557	-0.087473564
4	0x3d2afe18	0.04174623
5	0xbdc824b3	-0.09772625
6	0xbd8aee4d	-0.067837335
7	0x3d1b4757	0.03790983
8	0x3d7d5c9a	0.06185589
9	0x3bc9e775	0.006161625
10	0xbdb68b83	-0.089133285
11	0xbd468af2	-0.048472352
12	0x3d8e3b52	0.06944908
13	0x3d6caf5e	0.05778443
14	0xbd54952f	-0.051900085
15	0x3d331918	0.043725103
16	0xbd44792e	-0.04796713
17	0xbda5a22b	-0.08087572
18	0x3d08368a	0.033255138
19	0xbd16279c	-0.03665887
20	0xbd94959f	-0.072551005
21	0xbdd28ef3	-0.10281172
22	0xbcf36ae9	-0.029714065
23	0xbc417f93	-0.011810201
24	0x3c9c1356	0.019052189
25	0x3d01d0a5	0.03169312
26	0xbd8a46a3	-0.06751754
27	0x3aa0a461	0.001225602
28	0xbc84429e	-0.016145047
29	0x3d882a88	0.06648737

fc2.weight f4 [10, 30]
0	0xbe1554e2	-0.14583161
1	0x3de8c543	0.1136575
2	0xbdb8a832	-0.09016456
3	0xbe17fab1	-0.14841725
4	0xbd6650fb	-0.056229573
5	0xbcbbb02d	-0.022911156
6	0x3c534f39	0.012897306
7	0x3e07e6ce	0.13271639
8	0xbdc9b3bb	-0.09848734
9	0x3e11400e	0.14184591
10	0x3ebde99d	0.37092295
11	0x3de75fcd	0.112975694
12	0xbd2c8865	-0.042122263
13	0x3e113469	0.14180149
14	0x3dde87c6	0.108657405
15	0x3da2bfd9	0.07946748
16	0x3d1f0ffc	0.038833603
17	0xbd9faa44	-0.077961475
18	0xbc83b8a3	-0.016079253
19	0x3e0fad3f	0.14030932
20	0xbdc15c02	-0.09441377
21	0xbd686fbf	-0.056747194
22	0xbd6f3703	-0.058402073
23	0xbcaef357	-0.021356268
24	0xbe0e96cd	-0.13924713
25	0xbdb6d555	-0.089274086
26	0x3d56f5c7	0.052480485
27	0x3cd5f99a	0.026119996
28	0x3cb3f989	0.021969574
29	0x3d689109	0.05677894
30	0x3d6f99d4	0.05849631
31	0xbdbc4d15	-0.0919439
32	0xbe06fbc7	-0.13181983
33	0x3ef10813	0.47076473
34	0xbda387ae	-0.07984863
35	0xbe50c129	-0.20386185
36	0xbd00a351	-0.03140575
37	0x3dff13b1	0.12454928
38	0xbe18b713	-0.14913587
39	0x3e24a29a	0.16077653
40	0xbccfa3c7	-0.02534665
41	0x3d97000a	0.07373054
42	0xbdc73616	-0.09727113
43	0xbcfc13f8	-0.03077124
44	0xbd8df06f	-0.06930625
45	0x3e98fb9a	0.29879457
46	0x3d9059de	0.07048391
47	0xbce7c934	-0.028294183
48	0x3e2af7f9	0.16696157
49	0x3c2f95a1	0.010716827
50	0xbbe2a9f8	-0.0069172345
51	0xbe9b999a	-0.30390626
52	0x3d068e1e	0.032850377
53	0x3cd34850	0.025791317
54	0x3b24ef4a	0.0025167041
55	0x3e022809	0.12710585
56	0x3dd2be7d	0.10290239
57	0xbce75f79	-0.028243767
58	0xbd91a2ad	-0.07111106
59	0xbd092854	-0.033485726
60	0x3d200f3d	0.039077032
61	0x3d5a40fa	0.053284623
62	0xbe01c7f9	-0.1267394
63	0xbd34456e	-0.044011526
64	0xbd0a6c02	-0.03379441
65	0x3d90732e	0.07053219
66	0xbd4c6030	-0.04989642
67	0xbe25fe3a	-0.16210261
68	0x3e9f7596	0.31144398
69	0x3ce4dd71	0.027937623
70	0x3c425e30	0.011863276
71	0x3d36ec85	0.044659156
72	0xbbb0f086	-0.0053997664
73	0x3e314832	0.17312697
74	0xbda7c46a	-0.0819176
75	0xbbe20ae0	-0.006898269
76	0xbe84804a	-0.25879127
77	0x3eba2c1a	0.36361772
78	0x3e366403	0.17811589
79	0xbe20e581	-0.15712549
80	0xbe7a1014	-0.24420196
81	0xbe04e0a0	-0.12976313
82	0xbd14204d	-0.036163617
83	0xbdadc163	-0.08484151
84	0xbbd40274	-0.006470019
85	0x3c2eb7dd	0.010663954
86	0x3cb62183	0.022232777
87	0xbdc65e00	-0.09685898
88	0x3e24e3de	0.1610255
89	0xbe57b99f	-0.21066903
90	0x3ceeb35e	0.029138263
91	0x3e4726f7	0.19448458
92	0x3e0538f2	0.13010004
93	0x3dd79345	0.10526136
94	0xbdf2f6b0	-0.11863458
95	0xbe5c625b	-0.21521895
96	0xbe875258	-0.2643001
97	0x3dd8e5ba	0.10590692
98	0xbe457e30	-0.19286418
99	0xbe305b22	-0.17222264
100	0xba78d360	-0.00094919465
101	0xbe778793	-0.24172811
102	0x3df1a3c7	0.11798816
103	0xbdd87502	-0.105691925
104	0x3e4f3fa9	0.20239128
105	0xbe481cdd	-0.1954226
106	0xbe0b0a78	-0.13578212
107	0xbda7fad9	-0.08202142
108	0xbd9008d2	-0.07032932
109	0x3d81ae2f	0.06332051
110	0x3dd5a725	0.10432271
111	0xbe66bb1b	-0.22532313
112	0x3e3de57e	0.18544576
113	0x3cafb9ba	0.021450866
114	0x3d29c9b8	0.04145214
115	0xbd8cc089	-0.06872661
116	0xbe816b6d	-0.25277272
117	0xbca18529	-0.019716816
118	0x3d3d8991	0.04627377
119	0x3e0c80c0	0.13720989
120	0x3cbfbec6	0.023406398
121	0xbe15520b	-0.14582078
122	0xbd727fd0	-0.059203923
123	0x3e6cf50a	0.2314035
124	0x3d59c88d	0.053169776
125	0x3e563558	0.20918787
126	0xbd6e1b6a	-0.058131613
127	0x3c0b23c8	0.008492418
128	0x3dd4c754	0.10389581
129	0xbe0c7101	-0.13714983
130	0xbccf38bb	-0.025295606
131	0x3d68d7b3	0.05684633
132	0x3e834d83	0.25645074
133	0xbdb4bef5	-0.08825485
134	0xbe5fd5ed	-0.2185895
135	0xbe49a8eb	-0.19693343
136	0xbd125208	-0.035722762
137	0xbda3c413	-0.079963826
138	0x3d2e3a93	0.04253633
139	0xbe356e0c	-0.17717761
140	0x3de11f7f	0.109923355
141	0x3ea398b9	0.31952456
142	0x3d852162	0.06500508
143	0xbae665a9	-0.0017577905
144	0xbe8f9acb	-0.28047785
145	0xbe90fbb4	-0.28317034
146	0x3e370fb7	0.17877088
147	0xbe14a33b	-0.14515392
148	0x3cdb0126	0.026733946
149	0x3d6ed87a	0.058311917
150	0xbe179845	-0.1480418
151	0xbeaaffd0	-0.33398294
152	0xbe018f7a	-0.12652388
153	0xbe14a735	-0.1451691
154	0xbd798031	-0.06091327
155	0x3dd8a140	0.10577631
156	0x3e175e76	0.14782128
157	0xbea9fb65	-0.3319961
158	0x3dbb534e	0.091467485
159	0xbe86b7d0	-0.26312113
160	0xbe17093a	-0.14749613
161	0xbe4028fb	-0.18765633
162	0xbe15721d	-0.14594312
163	0x3d454b53	0.048167538
164	0x3d29fdc3	0.04150177
165	0x3e38cf15	0.18047746
166	0x3d04e5df	0.032445785
167	0x3e10a999	0.14127196
168	0xbd1fad11	-0.03898341
169	0x3d91bfc7	0.07116657
170	0x3d9bd26a	0.07608493
171	0xbe5d9ea3	-0.21642546
172	0xbe860f7b	-0.26183686
173	0xbcee7cbc	-0.029112212
174	0xbe3dd686	-0.18538865
175	0x3d1fef8d	0.039046813
176	0x3e186b7c	0.14884752
177	0x3db789c7	0.08961826
178	0xbc7bd8bf	-0.0153715005
179	0x3e3809d3	0.17972498
180	0xbe291fac	-0.16515988
181	0x3e333acb	0.17502896
182	0x3c9396e9	0.018016296
183	0xbdb9bfc6	-0.09069781
184	0x3c17ecc7	0.009272761
185	0xbdce5481	-0.100747116
186	0x3bbbbf65	0.005729603
187	0xbe0d09f4	-0.13773328
188	0x3daebc50	0.085320115
189	0x3e383bcb	0.17991559
190	0xbce71c91	-0.028211864
191	0x3e7327f8	0.23745716
192	0x3d716880	0.05893755
193	0xbe194cff	-0.14970778
194	0xbd443dac	-0.047910377
195	0xbd21306a	-0.039352812
196	0x3e8b6bda	0.27230722
197	0xbd8cb294	-0.068699986
198	0xbce90738	-0.028445825
199	0xbd938c0b	-0.072044455
200	0x3da666d9	0.081250854
201	0xbc7ac5d6	-0.015305957
202	0x3da61268	0.081089795
203	0xbce9714e	-0.02849641
204	0xbe0c7903	-0.13718037
205	0x3d616f8a	0.055038013
206	0xbc53bc5c	-0.012923326
207	0x3ec9e47b	0.3943213
208	0xbd63f1ea	-0.05565063
209	0xbc2a1f98	-0.010383509
210	0xbdfc3311	-0.12314428
211	0xbc816840	-0.01579678
212	0xbd5522c6	-0.052035116
213	0xbd87b749	-0.06626756
214	0x3ec883c8	0.3916304
215	0x3cdf231a	0.027238417
216	0x3d98b86a	0.07457049
217	0x3d1abab9	0.03777573
218	0x3cce0ee5	0.025153587
219	0xb9aa4b5e	-0.0003248108
220	0xbcda99bb	-0.026684633
221	0xbd3ddced	-0.04635327
222	0x3cb3a96b	0.02193137
223	0xbd89813b	-0.06714102
224	0x3dce2ce5	0.10067157
225	0x3d1a9fb0	0.037749946
226	0x3e2c1d3b	0.16808026
227	0xbd18d0ac	-0.03730838
228	0xbe6e3db8	-0.23265731
229	0x3c6fd10e	0.014637245
230	0x3bf64741	0.0075158183
231	0x3ca6e099	0.020370768
232	0x3d648286	0.05578854
233	0x3e789ae9	0.24277844
234	0x3e34efe0	0.1766963
235	0xbdc9b640	-0.098492146
236	0xbde654b1	-0.11246622
237	0xbd77ffcf	-0.060546692
238	0x3d9b494e	0.07582341
239	0x3dff0f1f	0.12454056
240	0x3e7766e9	0.24160351
241	0x3dcbb250	0.0994612
242	0x3e930472	0.2871433
243	0xbe019d90	-0.12657762
244	0x3cde9db8	0.027174816
245	0x3d6a1c7c	0.05715607
246	0x3e5de215	0.21668275
247	0x3e960c1a	0.29306108
248	0xbdc6b0a7	-0.097016625
249	0x3d56e47d	0.052463997
250	0xbdb73cb2	-0.089471236
251	0x3da84f5a	0.0821826
252	0xbc9be005	-0.01902772
253	0x3d7c1568	0.061543852
254	0xbe7ef2dc	-0.24897331
255	0xbe69b4ab	-0.22822826

fc2.bias f4 [10]
0	0xbd1dd444	-0.03853251
1	0xbc2738b6	-0.010206392
2	0x3cbcb5e0	0.023035944
3	0x3d19e6f3	0.037573766
4	0xbd4e6163	-0.050385844
5	0x3e04d23e	0.12970826
6	0xbd5672bb	-0.05235551
7	0x3e680a60	0.22660208
8	0xbd41a2a4	-0.047274247
9	0x3defaf92	0.11703409
