LeNet/epoch-16_loss-0.017643_error-5.90%.pth (torch, 42575 bytes, 8 tensors)

conv1.weight f4 [12, 1, 5, 5]
000000 d7 e3 61 3d ed bd 86 bd 18 cd 34 be d2 37 a6 bd
       0.055148926 -0.06579194 -0.17656362 -0.08116116
000010 4c 2f bd bd 7b 70 90 bb 5c 2c 43 be 48 d1 8d be
       -0.09237537 -0.00440794 -0.1905989 -0.2769873
000020 4d 07 64 be 48 ae 66 be 20 0a bb 3d dd 54 4a bd
       -0.2226841 -0.2252742 0.091327906 -0.04939734
000030 9a 54 0b be 25 49 e7 bd b1 61 0c be ed e0 56 3e
       -0.13606492 -0.11293248 -0.13709141 0.2098424
000040 02 8e 15 3e 34 76 b9 3d 5e 32 b3 3d 1d a8 ed 3b
       0.14604953 0.090557486 0.08749841 0.0072527067
000050 1d c8 09 3e 42 fc 10 3e 16 44 0b 3e ae 28 28 3e
       0.13455243 0.14158729 0.13600191 0.16421768
000060 57 24 d6 3d d5 c8 1f bd e1 16 0c be 2a 2e a8 be
       0.1045615 -0.039009888 -0.13680603 -0.3284772
000070 82 7d 36 be c7 5e 98 bd ba 45 96 bd 84 ca 4b be
       -0.17821315 -0.07439952 -0.07337518 -0.19901472
000080 9a 56 c0 be 6b af 08 be e2 83 e4 bc c6 2c e2 3d
       -0.37566072 -0.13348167 -0.027894918 0.11043696
000090 fa 73 ae 3c 37 8e c4 bd 19 64 2b 3e 05 85 1c 3e
       0.021295536 -0.09597438 0.16737403 0.15285118
0000a0 31 da 80 3e 37 0e 4e 3e b5 55 30 3e 59 eb 9f 3e
       0.25166467 0.2012261 0.17220195 0.31234244
0000b0 e5 53 26 3e 15 37 ee 3d bd 5e 96 3d 20 6e ac 3d
       0.1624294 0.116316 0.07342289 0.08419442
0000c0 12 94 07 3e b6 e8 04 3d db 1a 6a bc 4e 9a 67 3d
       0.13240078 0.032448493 -0.014288629 0.05654364
0000d0 19 86 af 3d 88 cc 64 3d f6 8f 4b 3d 40 93 84 bd
       0.08570499 0.05585912 0.04969784 -0.06473398
0000e0 96 a8 41 3d f7 a8 a8 3d 3f d8 05 3e 51 cf d7 3d
       0.047279917 0.082353525 0.13070773 0.10537589
0000f0 84 ea 8d bd 2f 90 3e 3d fd c8 e8 3d b2 c4 3e 3e
       -0.06929496 0.046524223 0.113664605 0.18629721
000100 44 d2 d5 3d 16 df 96 bc 57 a2 76 3c 31 f3 f5 3c
       0.104404956 -0.018416923 0.015053353 0.03002319
000110 d6 7a 04 3e 30 12 b0 3d fd 74 c3 bd a0 41 a5 bd
       0.12937483 0.08597219 -0.09543798 -0.080691576
000120 fb 68 87 bd 2c a0 d1 bc 4e a6 85 bc 66 6b f1 3d
       -0.0661182 -0.025589071 -0.016314652 0.11788063
000130 f6 d6 65 3e 22 4e 4f 3e b7 00 33 3e 8f d5 d3 3d
       0.22445282 0.20244649 0.17480741 0.103434674
000140 c2 38 1c 3e 4c 16 51 3e 8d 2c 4a 3e 1c eb 80 3e
       0.15256026 0.20418662 0.19743557 0.25179374
000150 04 21 31 3e e1 1a 13 bc f7 69 c6 bc 56 5c 61 3d
       0.1729775 -0.008978576 -0.02422045 0.0550197
000160 8c bf be 3d b2 f5 aa 3d 5a b4 56 be 90 62 6e be
       0.093138784 0.08347644 -0.20967236 -0.23279786
000170 e6 37 2d be 54 a0 a2 bd 25 1e c5 3b e3 73 2b be
       -0.16915855 -0.079407364 0.0060155564 -0.16743426
000180 1c 4a 6e be 93 a6 6c be ec b9 08 be e9 de 08 bd
       -0.23270458 -0.23110418 -0.13352174 -0.03341571
000190 b6 90 0b be 89 bc 19 be 7d 6a 3a be 16 69 61 bd
       -0.13629422 -0.15013327 -0.18204685 -0.05503186
0001a0 d4 5b a3 3d 11 0f 36 be 55 dd 2c be eb a6 7b be
       0.07976499 -0.17779185 -0.16881306 -0.24575393
0001b0 fe 24 d2 bd fe 88 34 3d ca 5e a1 bc db fb 4f 3c
       -0.10260962 0.04407596 -0.01969852 0.012694324
0001c0 82 43 73 bd 5e c9 bd 3d d1 0e 09 3e 8b c8 0c 3e
       -0.059390552 0.09266923 0.13384558 0.13748376
0001d0 51 e1 27 3e 2d 18 26 3e 2f 37 9d 3e b3 0c 82 3e
       0.16394545 0.1622016 0.30706164 0.25400314
0001e0 e3 7c a0 bb cc 26 05 3d 1e c4 ba 3d 19 e4 30 3e
       -0.0048977 0.032507703 0.09119438 0.17274512
0001f0 be 70 c1 3d 92 f7 3e bd a2 b3 6a bd 86 f1 14 3d
       0.09445332 -0.04662282 -0.057300217 0.036363147
000200 ba 49 72 3e 8c 22 97 3e 2b db 79 bb de 45 63 bd
       0.23660937 0.29518545 -0.003812502 -0.055486552
000210 bd 31 29 3d 82 8e 83 3e 74 8a 9f 3e f9 d6 ef bd
       0.0413072 0.25694662 0.3116032 -0.11710925
000220 b4 7f 49 be b2 ed b4 bd 24 b8 01 3d 07 fc 32 3e
       -0.19677621 -0.08834399 0.03166975 0.17478953
000230 37 c7 99 be 27 27 96 be d5 22 31 be f2 c1 26 be
       -0.300348 -0.29326746 -0.17298444 -0.16284922
000240 93 c1 c8 bc aa c5 83 be 28 44 19 be 43 8c 4c bc
       -0.024506366 -0.25736743 -0.14967406 -0.012484613
000250 5a 7d d3 bc 8b 7c bf 3d 45 8a 43 3c 97 ea 2d 3c
       -0.025816608 0.093499266 0.0119348215 0.010615013
000260 85 41 15 bd a9 d1 17 3d e6 43 8c 3d 6f 52 4a 3c
       -0.036439437 0.037065182 0.06848888 0.012348755
000270 c0 37 8f 3c 01 f2 65 bd dc 14 12 3d 30 56 61 3d
       0.017482638 -0.056138996 0.035664424 0.055013835
000280 47 65 b2 3d 4f 33 8d 3d 6c 61 14 bd 2a 09 18 3d
       0.08710723 0.06894552 -0.03622572 0.037118115
000290 c8 80 02 3d c6 7f 0f 3d 25 04 2b bd e5 e2 f3 bd
       0.031861097 0.035033964 -0.041752 -0.11908511
0002a0 0f e4 69 bd 54 d9 0f bc d7 72 37 bd e5 af 0b be
       -0.05710226 -0.008779842 -0.044787254 -0.13641317
0002b0 4c 3f 21 be 80 0c 88 bd 53 be 00 3d c8 04 08 3d
       -0.15746802 -0.06643009 0.031431507 0.033207685
0002c0 01 c6 06 3d 45 7c 02 bd 1c 59 00 bd 5d be 05 3d
       0.032903675 -0.031856794 -0.03133498 0.032652248
0002d0 d8 7a 45 bc 67 9a ce bd 24 e3 3d be fc b7 c2 bd
       -0.012053214 -0.10088044 -0.18543679 -0.095077485
0002e0 07 82 10 3d 09 98 9c bd 03 db 43 be bd dc 5d be
       0.035280254 -0.07646186 -0.19126515 -0.21666236
0002f0 a2 af e0 bd b5 0b 90 3c a0 c9 e6 bd 5a ad 9a bd
       -0.10970999 0.017583707 -0.11268926 -0.075525954
000300 ae 43 2c 3b 44 f3 a6 3d be 3c f6 3d d4 20 5b 3c
       0.0026285457 0.08151868 0.120233044 0.013374526
000310 c0 a2 01 3e e7 b7 6d 3e a3 b2 a0 3e 0f ef 8d 3e
       0.1265974 0.23214684 0.3138629 0.2772145
000320 0d fd ec 3d 6f 9f 33 bd e0 72 2a be 0a a0 14 be
       0.11571703 -0.04385322 -0.16645384 -0.14514175
000330 66 93 c6 bd 1d f3 91 3c 3e c0 6e be 29 e8 b0 be
       -0.09696083 0.01781612 -0.23315522 -0.34552124
000340 ab b1 83 be 78 16 01 be 61 4b 5d 3d 4a 87 53 be
       -0.25721487 -0.12606227 0.054026965 -0.20657077
000350 e7 99 8f be 73 72 68 bd 75 38 a7 3d ed 4e 9d 3d
       -0.28047106 -0.056749772 0.08165065 0.076810695
000360 b6 b6 fd bc 5a ef 8a 3d ca 2a 7a 3e 38 68 6c 3e
       -0.030970912 0.06783934 0.24430385 0.23086631
000370 18 a3 78 3d 9c ea 09 3e 35 e3 92 3e c4 5c b0 3e
       0.060702413 0.13468403 0.2868897 0.34445775
000380 ae 31 84 3e fc 8d f8 bc a4 8e d2 bc 03 2e 38 3d
       0.25819153 -0.03034114 -0.025702782 0.044965755
000390 d5 37 84 3d b7 dd 8b 3d f7 24 ee 3c b4 df e0 39
       0.064559616 0.06829398 0.02907036 0.0004289128
0003a0 8e 9d 18 3d 43 b0 85 3c 0a b4 93 3c 87 22 ae bd
       0.03725963 0.0163194 0.018030185 -0.08502679
0003b0 c8 e7 d7 bd d7 1a 80 bd a2 32 06 be 4d b5 c6 bd
       -0.10542256 -0.06255119 -0.13105252 -0.09702549
0003c0 57 92 08 be 52 6e ae bd ae 26 8b bd 82 4e 3a be
       -0.13337074 -0.08517136 -0.06794487 -0.18194011
0003d0 57 f8 27 be 0d 0f 87 3d 7a 29 ca 3d fa 0a 7a 3d
       -0.16403328 0.065946676 0.09871192 0.061045624
0003e0 44 06 61 3c 1e 85 93 3b 9a 81 31 ba 2c 18 10 bb
       0.013734404 0.004501953 -0.00067713263 -0.0021987064
0003f0 87 7e cd bc 22 86 3c 3d c3 57 93 3d 67 3f 3e bd
       -0.025084747 0.046026357 0.071944736 -0.046447184

conv1.bias f4 [12]
000000 76 15 2d 3e 0a c0 a3 3d 2b 1a c5 bc c4 1f 7b bd
       0.16902718 0.07995613 -0.02406033 -0.06130959
000010 df 46 8b 3e 98 83 55 be 47 f0 45 bd 10 73 f7 bd
       0.27202508 -0.2085098 -0.04832485 -0.12082493
000020 7f d6 20 be d6 4c ec bc 5a bd 9e 3b 8f b8 0a 3e
       -0.15706824 -0.028845232 0.00484435 0.13546966

conv2.weight f4 [12, 12, 5, 5]
000000 0a a4 8b bb 3f 23 06 bc 50 95 1c bd c0 5f fc bc
       -0.0042614983 -0.008187114 -0.038228333 -0.030807376
000010 ff d5 03 3d 1b 91 8b 3d 3c 9a 41 3d 33 1b a7 3b
       0.032186504 0.06814786 0.04726623 0.005099678
000020 83 32 3b bc 77 68 04 3d b4 71 20 bb 42 04 06 bb
       -0.011425617 0.032326188 -0.0024481835 -0.0020449315
000030 e4 e2 9c bc f1 6d 72 bc 98 53 d7 bb 88 c7 8e bc
       -0.019151159 -0.01479672 -0.0065712444 -0.017429128
000040 24 08 bb 3b 9b b8 8d 3d 2f d6 2c 3b 16 25 02 bd
       0.0057077575 0.06919976 0.002637278 -0.03177365
000050 01 36 b1 ba fc 47 52 bc 34 79 da 3c 92 e1 84 3b
       -0.0013520123 -0.012834545 0.026669122 0.0040552104
000060 f4 ae fb ba 64 4f de bc e1 b8 9c 3b 10 de e0 b9
       -0.001920192 -0.027137466 0.0047827815 -0.0004289006
000070 62 cb 8a bd a8 a9 89 3c e0 8d 65 3c d3 e1 3d bc
       -0.067770734 0.016804531 0.014010876 -0.011589485
000080 47 9c 9c bd fe 70 63 3c 9c e1 c7 3c f9 98 68 3c
       -0.07646995 0.01388192 0.024399571 0.014196628
000090 3a 14 b3 3d 46 1e af bc de c9 15 bc 60 bc 01 3d
       0.08744092 -0.02137674 -0.009142367 0.03167379
0000a0 2d 10 df bc 20 eb bc bc a8 87 a6 3d dd 15 0b 3a
       -0.027229393 -0.023061335 0.08131343 0.0005305687
0000b0 8d d6 4e bd c2 6c 0e 3d 7a 2f 94 3d 4a 2c 1c 3d
       -0.05049758 0.03477169 0.07235618 0.038128175
0000c0 33 fc 8b bc fe e7 b1 bc a9 c3 07 bd 3a 49 70 bc
       -0.017088031 -0.021717068 -0.03314558 -0.014665896
0000d0 31 87 5a 3b 87 ac 2b 39 d5 02 37 bd 2f 37 2f bd
       0.003334474 0.00016372102 -0.044680435 -0.042777237
0000e0 cd 53 04 bd 95 08 35 bd 5e 9c 83 bb ca ac 8c bc
       -0.03230648 -0.044197638 -0.004016443 -0.017172236
0000f0 80 f4 b7 bc 58 ba 29 bc eb 4e 13 bd eb 69 bc bb
       -0.022455454 -0.010359369 -0.035963934 -0.005749931
000100 76 b6 22 bc 10 45 72 3b 5f 20 4d bc 0b d7 cf bc
       -0.009931197 0.0036967434 -0.012519925 -0.025371095
000110 0f 9c de bc 7b 14 78 bc 0c 44 c0 3c ba 45 35 3d
       -0.027174024 -0.015141602 0.023469947 0.04425595
000120 3c c0 a5 3c fc f3 9f bb 00 2e 33 3c 1c b0 11 3d
       0.020233266 -0.00488138 0.01093626 0.03556834
000130 7b a3 49 3c 17 64 d0 3c c5 5d bc 3c 56 ce b3 3c
       0.012307043 0.025438352 0.022993932 0.021948975
000140 d2 7b 7f bd cb 81 f9 bc b3 65 ca 3c 01 87 e6 3c
       -0.062373944 -0.030457398 0.024706697 0.028140547
000150 f8 79 53 bc 9c 7b 7e 3b eb cc 22 bd 47 16 d2 bb
       -0.012907498 0.0038831 -0.039746206 -0.006411347
000160 66 32 ac 3d 17 3b bf 3c 2d a1 a4 bc 67 81 3e bc
       0.0840805 0.023343606 -0.020096386 -0.011627532
000170 ca f0 95 bd 48 e2 b7 bc 28 a7 5a 3d 25 89 a9 3c
       -0.073213175 -0.022446766 0.05338207 0.020695278
000180 bd 28 6d bc 7b f6 1a bd 1f 77 0b 3d dc be 98 bc
       -0.014475045 -0.03783272 0.03404915 -0.018645696
000190 0c 9e 0e bd cc d4 76 bc 0e 69 a5 bb 27 93 18 bd
       -0.034818694 -0.015065383 -0.005047924 -0.03724971
0001a0 d0 29 56 bc 74 82 69 bb 7c d3 b5 3c 75 8f ef bc
       -0.013071492 -0.0035630735 0.02219557 -0.02924321
0001b0 68 6e 57 3b fa ef 3a 3a fd 03 73 bc 4c 06 8a 3d
       0.0032872204 0.0007131096 -0.014832494 0.06739482
0001c0 0b 05 0b bc bc 4c a1 bb e3 99 70 3c 5c 48 a0 3b
       -0.008485089 -0.0049224775 0.014685127 0.0048914384
0001d0 66 ae 83 bc 6b 47 19 3d 22 61 67 3b 2f 7a 31 bd
       -0.01607437 0.037421625 0.0035305698 -0.043329414
0001e0 ac 74 35 3d 8a 8e 79 3d cc d0 40 ba 6a 4b 8c 3c
       0.04430072 0.06092695 -0.0007355332 0.017125804
0001f0 54 83 8d bb 3b 49 40 3d 24 68 6a 3d 61 0f 14 3d
       -0.004318634 0.046944838 0.057228222 0.03614748
000200 98 1a 2b 3b c4 d2 f4 bc 47 3f 36 bd 69 72 a2 3d
       0.002610838 -0.029885657 -0.04449394 0.07931978
000210 c8 1c 4a 3d 76 7f 22 bc 1a ef 5a bd 49 8e be 3c
       0.049343854 -0.009918084 -0.05345068 0.023261206
000220 6d 8e 83 bc bf 2c f9 bc ef 8f 98 3d 5f 52 89 bc
       -0.016059125 -0.030416844 0.07449328 -0.01676291
000230 16 ec 1d 3d 9b 5a 0a bc 96 b7 45 3c 6e 04 79 3d
       0.038555227 -0.008444454 0.012067696 0.06079524
000240 15 99 80 3d c7 0e f8 3c 98 16 5c bc ef c0 69 bd
       0.06279198 0.030280484 -0.013433121 -0.05706876
000250 be c3 f5 bc fd 1a 42 3d bb dc 71 3c 0e 4f 78 3c
       -0.030000564 0.04738902 0.014762099 0.015155567
000260 d9 35 12 3d f7 6a e3 bb 4e ab d0 bb 73 a8 5f 3c
       0.035695884 -0.0069402414 -0.0063680774 0.013651001
000270 1e a6 06 3b 40 d6 a5 bc f1 86 a3 bb 2d 02 b4 3c
       0.002054579 -0.020243764 -0.0049904515 0.021973694
000280 15 21 af bc 0f d7 25 3b 73 34 fa bb a1 4c 1a bb
       -0.02137808 0.0025305187 -0.007635647 -0.002354421
000290 76 d1 f1 3b 20 55 a7 bc 7e bc 0e bc a8 c2 a4 bc
       0.007379706 -0.020426333 -0.008711932 -0.02011235
0002a0 ec e2 aa bb 2c 82 4f 39 60 dc 95 3c d5 ce 4e bc
       -0.0052150395 0.00019789551 0.01829356 -0.012622555
0002b0 2d 49 c8 bb 95 04 2e 3d 55 5b 58 bc e0 e0 0a 3c
       -0.006112239 0.04248484 -0.013205369 0.008476466
0002c0 21 cd 82 bb f7 da 6f bd 83 57 c3 bc 12 25 0e 3d
       -0.0039917384 -0.05855843 -0.02384544 0.03470332
0002d0 ee 69 95 bc 19 35 02 3d 4e 69 a3 3c 90 cb ad 3c
       -0.018238988 0.03178892 0.019947674 0.02121523
0002e0 54 2f e9 bc c0 28 0f 3d 65 1a 53 bc 89 84 e7 bc
       -0.02846495 0.03495097 -0.012884711 -0.02826144
0002f0 e4 7c 84 3c 72 35 3c bb 7d 82 0b 3c 04 cb 98 3c
       0.016172834 -0.002871838 0.008514998 0.018651493
000300 32 5f 34 3d fe 40 92 bc ad 1b bc bc 64 10 86 3c
       0.044036098 -0.017853256 -0.022962416 0.016365238
000310 e1 63 a7 bc 09 89 aa bd 58 93 c8 bc 2e d2 12 3d
       -0.020433368 -0.08326919 -0.024484321 0.035844974
000320 a0 0f e7 bc 90 35 37 bc b7 3b 48 bd b0 69 4e bd
       -0.028205693 -0.011182204 -0.048885074 -0.05039376
000330 ea 5a 23 3d 23 08 5f bc ac 6e 93 3b 48 8e 03 bd
       0.039881624 -0.01361278 0.004499277 -0.03211811
000340 b9 97 15 3d 68 a6 f8 bc 79 c3 cb 3c 2d b6 09 3c
       0.036521647 -0.030352786 0.024873482 0.0084052505
000350 64 42 0d bd 5a 64 31 3d 88 d5 7b ba 13 b3 12 bc
       -0.034487143 0.043308593 -0.0009606709 -0.008953827
000360 b0 a9 2c 3c 0e 98 9a 3d b4 4a b8 bc 8f 98 67 bd
       0.0105385035 0.075485334 -0.022496559 -0.056541976
000370 da c4 3d 3d 58 42 03 3d 92 66 10 bd 4a ae 0a bd
       0.04633031 0.032045692 -0.03525407 -0.03385762
000380 a9 93 f7 3b ae c3 f1 3c 20 d5 82 bc ad 35 03 bb
       0.0075554443 0.029512253 -0.015970767 -0.0020021007
000390 37 d3 eb 3c d8 96 93 3b b3 fe 04 3c c7 95 13 3d
       0.028787239 0.004504066 0.008117366 0.03603151
0003a0 f1 e9 73 3d cb 57 53 3b 29 dc 00 bc 9e 12 94 3c
       0.059549276 0.0032248374 -0.00786499 0.018075284
0003b0 a9 8f 9b bb b0 8f 6b 3c d4 72 81 b9 f4 eb ac bc
       -0.0047473502 0.0143775195 -0.0002469035 -0.021108605
0003c0 57 89 c1 3c 79 0e b8 3c c3 a8 90 3c fa d0 d0 3c
       0.023625059 0.022467839 0.017658597 0.025490273
0003d0 fe 94 a8 3a 68 49 ed bc 5f 06 19 bd f2 38 9f bc
       0.0012861786 -0.028965667 -0.03735959 -0.019436333
0003e0 45 c5 68 bc e8 ef 4a bb f1 5b be bc 03 3d f8 3a
       -0.014207189 -0.003096575 -0.0232372 0.0018939081
0003f0 c6 d1 c1 3b 3c 2f d1 bc d7 b8 f2 bc 2e 27 bb bc
       0.0059148995 -0.025535218 -0.029629154 -0.02284583

conv2.bias f4 [12]
000000 55 83 d0 3d 38 e0 74 3d 75 96 cc 3c c9 c5 c0 3d
       0.101812996 0.059784144 0.024974087 0.094127245
000010 25 d4 e4 3d 29 5f 42 3c 85 83 c0 bd 85 ff 5d bd
       0.11173276 0.011863508 -0.09400085 -0.05419876
000020 18 41 7b 3c d8 5b 64 3d f8 ad 55 bd 1e 25 c1 3d
       0.015335344 0.05575165 -0.052167863 0.09430908

fc1.weight f4 [30, 192]
000000 46 23 a8 bd 0c c7 0e 3c 52 b7 8d 3d ba 77 84 bd
       -0.08209853 0.008714449 0.06919731 -0.064681485
000010 ce f3 9f 3c 92 cd d2 bd 58 ff ab bd cf f0 ff bd
       0.019525435 -0.10293116 -0.08398312 -0.124971025
000020 42 fb 34 bd 43 cd 85 bc 8e 34 44 3d 5e 60 47 bd
       -0.04418493 -0.016333228 0.047901683 -0.048675887
000030 37 16 40 bd 00 7d 62 3c fa 26 d0 bc c6 b1 81 bd
       -0.046896186 0.013823748 -0.02540921 -0.06332736
000040 c8 7e 9e 3b fe 94 e3 3c 4d aa a9 3c ce 69 2c bd
       0.004836891 0.027781006 0.020711089 -0.04209309
000050 4a b8 8e bd 85 24 97 bc c3 1e 43 3d 16 cf 8e bd
       -0.06968744 -0.018450031 0.04763676 -0.06973092
000060 26 bc 4d bd e8 8d 78 3c ff a8 60 3b 3d 80 de bc
       -0.05022826 0.015170552 0.0034280417 -0.027160758
000070 6f 1b 41 bc 32 fd 55 bd 3b d5 f9 3c ae 14 49 3c
       -0.011786326 -0.05224342 0.030497184 0.012272997
000080 67 1b c4 bc 0a 30 9f bd 31 63 85 bd cb 8f 23 bd
       -0.023938848 -0.077728346 -0.0651306 -0.039932054
000090 ee 35 8d 3c 20 f2 99 bd ba ec 23 3a 99 c5 9c bd
       0.01723763 -0.07516885 0.00062532315 -0.07654876
0000a0 e3 f7 29 bc af c7 3c bd 3f 40 b7 ba 75 ed 4f bd
       -0.010374042 -0.04608887 -0.0013980939 -0.050763566
0000b0 82 d7 fd 3b 68 88 83 3c 6a d4 a9 3d 4c 6e 82 bd
       0.007746638 0.016056255 0.08292468 -0.06368694
0000c0 9e 8f b6 3d 3c a5 13 bd 5e 72 48 bd b9 0a ae bc
       0.089141116 -0.03604625 -0.048937194 -0.021245347
0000d0 45 b2 52 3d dc c4 85 bd b4 5d ad bd a0 86 72 3b
       0.051439542 -0.065316886 -0.08465138 0.0037006512
0000e0 fc 92 eb bc 72 50 3c 3c 68 8e 89 3d 24 07 2c 3d
       -0.028756611 0.011493789 0.06716615 0.041998997
0000f0 de c8 8f 3a dc 0a 1b 3c 49 2d 84 bd fb 41 1c 3d
       0.0010969897 0.009463038 -0.0645395 0.03814886
000100 ec a7 22 bd 52 10 f4 3c 62 53 6a bd c9 81 66 bd
       -0.039710924 0.029792938 -0.057208426 -0.056276117
000110 6e 82 8f bd 2e de 97 3d a6 1c d2 bc 11 0e 0b bd
       -0.07007299 0.07415424 -0.025648426 -0.03394896
000120 3c 36 80 3d 62 fa a3 3c c1 c3 71 bd 5d cc d1 bc
       0.062603444 0.020016853 -0.059024576 -0.025610143
000130 59 6b e8 bc 1a 0f 3e bc ac cb f5 3c 89 cb 55 bd
       -0.0283715 -0.01160028 0.030004345 -0.05219606
000140 2e 83 12 bd 30 7c f2 bc a4 72 8a bd bc 22 90 bd
       -0.035769634 -0.029600233 -0.06760147 -0.07037875
000150 50 dd c0 3c 90 50 92 3d 01 05 4f 3d a4 ca 2d 3d
       0.02354303 0.07144272 0.05054188 0.04242958
000160 72 69 89 3d 57 ec f5 3c 3b 4d f2 3c a1 c2 f5 bc
       0.06709565 0.030019922 0.029577842 -0.030000033
000170 60 2e 44 3d b2 7c f0 bd 01 1e 52 bb b8 9c 20 bd
       0.04789579 -0.11742534 -0.003206134 -0.03921196
000180 f9 9d 90 3d 26 41 d5 3c 00 e0 22 3d 38 6c 1e 3d
       0.07061381 0.026032042 0.039764404 0.038677424
000190 24 1a 11 3d 60 27 47 3c 3e d8 1c bd 38 ae b2 3c
       0.03542532 0.012155384 -0.038292162 0.02181159
0001a0 51 e4 5e bc 36 3f 4a bd da 91 6c bd f1 9a 3f bd
       -0.01360424 -0.04937669 -0.057756282 -0.046778623
0001b0 76 2b 8a bc ea 85 02 3d 32 95 ab bd 1a 12 a9 3c
       -0.016866427 0.03186599 -0.08378066 0.020638514
0001c0 49 fd 6b 3c 50 a3 dc bc 05 20 d1 3b 85 84 9d bc
       0.01440365 -0.026933342 0.006381991 -0.01922823
0001d0 93 d2 55 bd 5e bc 8e 3c 64 41 38 bd c5 16 9a bd
       -0.052202772 0.017423805 -0.044984236 -0.07523874
0001e0 a8 8b 27 bd 2a 87 bd bb ac ec d5 3a d2 98 a9 3c
       -0.04090467 -0.005783935 0.0016321144 0.020702753
0001f0 45 9e 57 3d be 26 de bc d3 84 6b 3d fc 55 20 3c
       0.052641172 -0.027118083 0.057499718 0.009786125
000200 db 55 ab bd 94 6e 0d 3d ad 37 96 3d fe f0 44 bb
       -0.08365985 0.034529284 0.07334838 -0.003005087
000210 d8 c0 a2 bc 00 bd 85 39 86 48 96 3d 21 bd ab 3d
       -0.019867346 0.00025508553 0.073380515 0.08385683
000220 81 e5 96 3d 10 d7 c1 bc da a2 03 bd b7 d2 88 3c
       0.07367993 -0.02366212 -0.03213773 0.01670204
000230 aa 05 bd 3c e9 98 45 bd 24 06 0c 3d 65 d2 17 3d
       0.02307399 -0.04824153 0.034185544 0.037065882
000240 51 2e 21 3c d6 f7 a7 bc 00 7e bc bc 90 e9 44 bd
       0.009837703 -0.02050392 -0.0230093 -0.048074305
000250 d6 b1 6c bd 8c 70 2d bc 3e 2a 37 3d f8 a0 1b bd
       -0.057786785 -0.010585915 0.04471802 -0.03799531
000260 ab d5 14 bd e2 eb c9 bc 8a c0 86 3d 09 4b 8f 3d
       -0.036336582 -0.02464861 0.06579693 0.06996734
000270 60 96 1c bc ff 43 f7 3c a1 78 6d 3d 57 dc bc 3b
       -0.009557337 0.03018379 0.05797637 0.0057635712
000280 80 c7 a3 3c 91 22 fe 3b d0 05 aa 3d 6a 3a 6b 3d
       0.01999259 0.0077555855 0.0830189 0.057428755
000290 b8 11 55 bd 01 f3 9b 3b 4e 41 ba bc e8 99 a5 bd
       -0.05201885 0.004759193 -0.022736218 -0.08085996
0002a0 95 c7 d8 bd d5 ba 8b 3d 9c a9 bf bd ef 35 b9 3c
       -0.10584942 0.06822745 -0.09358522 0.022608725
0002b0 01 b3 46 3d 35 56 fe 3c 1c 00 d8 3c e2 3a 7e 3b
       0.048510555 0.031046966 0.02636724 0.003879242
0002c0 ac 1f 01 bc 88 57 a1 bd 93 b3 89 3d a6 85 15 bb
       -0.007881086 -0.078780234 0.06723704 -0.0022815256
0002d0 59 93 e0 bc 84 56 e9 3c ec 38 49 3d a1 2f a8 bd
       -0.02741401 0.028483637 0.04912655 -0.082122095
0002e0 aa 16 27 bd fb 22 f7 bb 97 fe 66 bc 85 4b 33 bd
       -0.0407931 -0.007542012 -0.014098785 -0.043773193
0002f0 2d 12 65 3d f0 c6 45 3d 29 27 02 3d cc 08 61 bd
       0.055925537 0.048285425 0.031775627 -0.05494003
000300 25 d8 a5 3d 03 10 a4 bd 5c c3 00 bd 39 5d 7f 3d
       0.08097867 -0.080108665 -0.03143631 0.062344763
000310 26 c9 3c bd 9d 14 78 3c a2 9f af bd 2e 23 c9 bd
       -0.046090268 0.015141633 -0.085753694 -0.09821163
000320 a3 c3 64 3d 01 22 7e bc 0f 70 4d 39 73 70 84 bd
       0.055850636 -0.015511037 0.00019592069 -0.064667605
000330 f9 cb 14 3d f3 b5 83 3c 83 02 6a bd f8 55 1d bd
       0.036327336 0.016077971 -0.0571313 -0.038412064
000340 09 36 91 3d ad fd a7 3c 67 70 87 3c e9 ce b0 bb
       0.070903845 0.020506704 0.01653309 -0.0053957594
000350 d5 aa 1b bd f0 4d 0d 3c 41 78 35 3d 1a 92 60 3d
       -0.038004715 0.008624539 0.044304136 0.054826833
000360 13 34 66 bd 59 f5 87 bd 52 fc 84 3c 2e 9f 1d 3d
       -0.056202006 -0.06638593 0.016233597 0.038481884
000370 25 23 60 bc ff 0d 54 3d e1 1a a7 3b 0b 0d ce ba
       -0.013680254 0.05177116 0.0050996398 -0.001572044
000380 77 ce 4d 3d c5 c2 fe 3c b5 bd 71 bd b8 dd 9d bc
       0.05024573 0.031098733 -0.05901881 -0.019270763
000390 3a 5f 7b bc ad 69 83 3d a3 14 76 bd a7 08 79 bd
       -0.015342528 0.064166404 -0.060078274 -0.060799267
0003a0 b2 6a 1a bd 86 c0 20 3b fb e5 29 bd 7b b6 29 bd
       -0.03769941 0.0024528815 -0.041479092 -0.041433793
0003b0 aa 41 65 bd f6 01 e8 3c ad 0b b8 3d 1e d3 a5 bd
       -0.055970825 0.028321248 0.08986602 -0.08096908
0003c0 30 81 b4 3c 72 d6 96 3d cb 95 7f 3d 9d 1f 1e 3d
       0.022034258 0.07365121 0.062398713 0.038604368
0003d0 06 69 a6 bb 59 85 e9 bd b2 51 08 bc aa 4b 06 3d
       -0.0050784377 -0.11402387 -0.008320259 0.032787003
0003e0 a6 42 b1 bd 92 f8 fd bb 1e d4 3c 3c ff e4 b2 bd
       -0.0865529 -0.007750579 0.011525182 -0.08735084
0003f0 05 54 8e 3d b4 42 e5 3c f3 bf 8a 3c b5 5b 49 3c
       0.06949619 0.027985908 0.016937232 0.012289931

fc1.bias f4 [30]
000000 86 45 8a bd 77 e9 aa bc 74 3e 55 bd 56 6c a9 bd
       -0.06751542 -0.020863278 -0.052061513 -0.082726166
000010 75 3c 32 3d 70 37 c4 bd 42 3e 7b bd 7d 02 0c 3d
       0.043514688 -0.09580886 -0.06133867 0.03418206
000020 01 5a 73 3d 8d 52 01 3c b5 8a 9e bd 22 b3 53 bd
       0.059412006 0.007893217 -0.077413 -0.051684506
000030 5c 05 94 3d f9 65 70 3d ae cd 66 bd da 53 31 3d
       0.07227585 0.058691 -0.056348495 0.043292858
000040 bf 33 4c bd fa 5c a0 bd 2c c1 f2 3c d8 a0 0d bd
       -0.049854036 -0.07830234 0.029633127 -0.03457722
000050 cd 2a 98 bd b6 47 bf bd d3 cf 06 bd 84 73 1a bc
       -0.074300386 -0.0933985 -0.03291304 -0.009426955
000060 e9 26 87 3c bb 2b 28 3d ab 5d 85 bd cf 34 34 3c
       0.016498046 0.04105733 -0.06512006 0.010998919
000070 ab de 9e bc 4d b7 7b 3d
       -0.019393286 0.061454106

fc2.weight f4 [10, 30]
000000 ba 20 06 be 07 96 0d 3e 96 c7 93 bd 24 e7 18 be
       -0.13098422 0.13826762 -0.07215802 -0.14931923
000010 87 3b ac bd eb 38 10 bd 88 7f 78 3c 4b c0 2e 3e
       -0.084097914 -0.03521053 0.015167125 0.17065541
000020 80 f0 ca bd 64 32 1b 3e 63 9e c8 3e 06 fe 28 3e
       -0.09909153 0.15155941 0.3918334 0.16503152
000030 d6 e8 21 bd 6f e5 17 3e dc c6 1f 3e 2d 4b c7 3d
       -0.03952869 0.14833616 0.15603203 0.097311355
000040 92 a9 37 3d 81 7d bf bd 03 05 02 bd 1f 55 4d 3e
       0.04483945 -0.0935011 -0.03174306 0.20052002
000050 10 dc 0e be d3 7d 51 bd ce a7 9e bd ae ea c4 bc
       -0.13951135 -0.051145386 -0.0774685 -0.024037685
000060 38 7a 32 be 34 df 25 be 29 12 48 3d ac 8d 6f 3d
       -0.17429435 -0.16198426 0.048845444 0.05848472
000070 45 96 ac bb a9 6d a3 3d 48 c4 93 3d a0 f4 ba bd
       -0.005266937 0.079799004 0.07215172 -0.0912869
000080 ae dc fc bd bf e6 dc 3e d9 33 e3 bd dc 4f 60 be
       -0.12346779 0.43144795 -0.110938735 -0.21905464
000090 0c ff 23 bc 5a 4b 24 3e 3a fc 29 be 1a 8d 2e 3e
       -0.010009538 0.1604437 -0.16600123 0.17046013
0000a0 87 5f e0 bc 78 49 06 3e d8 df 12 be e9 0f 75 bd
       -0.027389301 0.13113964 -0.14343202 -0.059829626
0000b0 bc cd f3 bd 7b c5 b1 3e e5 45 7e 3d 6d da 6c bc
       -0.11904475 0.34720978 0.062078375 -0.014456374
0000c0 f7 0d 42 3e 62 c4 03 3d c3 8a 33 bd df 3e 9e be
       0.1895064 0.032169707 -0.043833505 -0.30907342
0000d0 3c c8 f3 3c 6d d4 1f 3c c8 b0 da 3c 68 c3 16 3e
       0.029758565 0.009755236 0.026695624 0.14722979
0000e0 aa 6d ea 3d 7f 20 c7 bb 37 01 ca bd b5 e9 63 bd
       0.11446698 -0.006076872 -0.09863513 -0.055642802
0000f0 b6 f7 14 3d 5a 18 8f 3d 45 8d 1f be a8 d4 91 bd
       0.036369048 0.069870666 -0.15581234 -0.07120639
000100 ce 75 b5 bb a7 3a b1 3d 31 35 b3 bd 45 dc 3b be
       -0.005537725 0.08653765 -0.0875038 -0.18345745
000110 88 f8 a3 3e dc ed 51 3d b7 52 8b 3d 4b 06 b0 3c
       0.32025552 0.05125223 0.06802886 0.021487376
000120 38 7a ad bc 9f dd 47 3e 57 2e bc bd 3e 1d fc bc
       -0.021176443 0.19518135 -0.09188526 -0.030775663
000130 15 48 87 be 90 25 b4 3e 1d d9 24 3e de e2 07 be
       -0.26422182 0.35184908 0.16098447 -0.13270137
000140 57 2c 79 be 5d d4 22 be e8 7d 81 bd 8f 7b 98 bd
       -0.2433332 -0.15901323 -0.06322843 -0.07445442
000150 0b 98 d3 ba 0d 50 e4 bb 34 8f 26 3d 94 a9 f7 bd
       -0.0016143335 -0.0069675506 0.040663913 -0.12092891
000160 4b be 21 3e 1c 7a 6e be 35 c0 19 3d 95 9d 46 3e
       0.15795247 -0.23288769 0.03753682 0.1939605
000170 ab ab bc 3d 8e db 19 3e 32 a1 e9 bd 5d bb 73 be
       0.092124306 0.1502516 -0.11407699 -0.23801942
000180 24 54 93 be 04 62 e6 3d 44 4c 49 be d0 8c 22 be
       -0.28775132 0.11249164 -0.19658 -0.15874028
000190 3b 43 83 bd ea 62 65 be f5 e2 10 3e e5 f7 b0 bd
       -0.064093076 -0.22401014 0.14149077 -0.08641032
0001a0 27 47 5c 3e e9 e3 40 be ce ef 02 be a5 28 99 bd
       0.21511517 -0.18836941 -0.1278679 -0.074784555
0001b0 b1 ba 87 bd b7 7a be 3d e9 a3 17 3e 31 c5 4c be
       -0.066274054 0.0930075 0.1480862 -0.19997098
0001c0 a5 c9 2d 3e dc a7 4c 3c f3 88 10 3d 40 ee 35 bc
       0.16971453 0.012491193 0.035286855 -0.0111041665
0001d0 4e a3 77 be 69 31 30 bd ce 4c c9 3c cc b9 0e 3e
       -0.2418339 -0.04301587 0.024572756 0.13938063
0001e0 4f 7c 20 3c ff ae 46 be ed 44 98 bd 43 cb 81 3e
       0.0097952625 -0.19402693 -0.074350215 0.2535039
0001f0 fc 39 e9 3d e5 7d 6d 3e 8c d4 08 bd aa 5c 62 3c
       0.11388013 0.23192556 -0.033405825 0.013816038
000200 2f 4b ce 3d 77 cb 28 be 42 71 3d bc ac 53 9a 3d
       0.10072934 -0.16483866 -0.011562647 0.075354904
000210 6f 04 91 3e f0 f0 82 bd 25 5a 62 be b8 b5 29 be
       0.28323695 -0.063936114 -0.221047 -0.16573226
000220 56 4b 2b bd a9 bc dc bd bd 25 6f 3d 28 ad 32 be
       -0.041819893 -0.107781716 0.0583856 -0.17448866
000230 9f 92 03 3e 46 ee 8c 3e 7e 1f 9d 3d 80 a5 0f 3d
       0.128489 0.27525538 0.07672022 0.035069942
000240 d4 c0 92 be 72 f1 7c be 4b 94 3f 3e 8d 74 2d be
       -0.2866274 -0.24701479 0.18708913 -0.16938992
000250 c9 98 2e 3d e8 6b 4c 3d a1 54 03 be b1 a4 9a be
       0.042626176 0.049907595 -0.12825252 -0.30203775
000260 51 12 fb bd e7 d8 16 be a7 22 bc bd ba ed e3 3d
       -0.12259353 -0.14731179 -0.09186297 0.11129327
000270 2d 43 00 3e e7 66 9a be e9 57 c5 3d 28 87 93 be
       0.12525626 -0.30156633 0.09635908 -0.28814054
000280 80 ce 01 be 59 87 1e be ec 21 3c be 76 69 28 3d
       -0.1267643 -0.15481319 -0.18372315 0.0411162
000290 d6 69 de 3c de 7e 1b 3e 37 7c 53 3d 45 18 36 3e
       0.027150076 0.15185115 0.051632132 0.17782696
0002a0 fa b3 6d bc c9 c5 e3 3c 53 86 bf 3d f5 fd 4e be
       -0.014508242 0.027804272 0.09351792 -0.20214064
0002b0 f7 8f 82 be 36 29 ea bc e5 96 45 be 3e 65 74 3d
       -0.2550046 -0.028584104 -0.19295843 0.059666865
0002c0 1c 93 32 3e c1 d2 0e 3e 22 b9 9c bb 66 19 40 3e
       0.1743893 0.13947584 -0.0047828117 0.18759689
0002d0 7d 6d 26 be 6f cd 2e 3e 9c ac 6e 3c 38 b5 03 be
       -0.16252704 0.17070554 0.0145675205 -0.12862098
0002e0 e5 17 2a 3d 23 74 dc bd 45 c3 07 bc d9 09 29 be
       0.041526694 -0.10764339 -0.008286302 -0.16507663
0002f0 bc d8 bb 3d 62 af 41 3e cc 44 20 bd 2e c6 83 3e
       0.09172198 0.1891456 -0.03912811 0.25737137
000300 7c 90 91 3d 3c 64 47 be e0 ee b0 bd 91 ec ac bd
       0.07107636 -0.1947183 -0.08639312 -0.08443559
000310 b7 9b 79 3e a0 ce 01 be c7 89 fd bc a3 cc bf bd
       0.24375807 -0.12676477 -0.030949486 -0.09365203
000320 44 c6 b4 3d cf 3f c8 bc cd 5d 99 3d 40 28 74 3a
       0.08826879 -0.024444489 0.07488594 0.0009313859
000330 ab 4a 06 be 26 91 b9 3d e5 14 21 bd e7 46 ba 3e
       -0.13114421 0.09060888 -0.039326567 0.3638222
000340 3f 69 d4 bd ac 59 bd 3c 8c 35 de bd e0 94 6d bc
       -0.103716366 0.023114048 -0.10850057 -0.014500827
000350 02 a6 3e bd 89 6b 41 bd b9 2f c5 3e 6b a4 54 3b
       -0.046545036 -0.047221694 0.38512972 0.0032446634
000360 86 c2 00 3e 47 6f c4 3c 6b 10 86 3b ea e6 d3 3c
       0.12574205 0.023978842 0.0040913126 0.025866944
000370 2b 29 74 bd f5 43 ad bd 2d 92 ab 3c 41 18 8e bd
       -0.059609573 -0.084602274 0.020943725 -0.0693822
000380 ad 83 c3 3d b7 13 88 3d 6f b1 3b 3e 33 7d 26 bd
       0.095465995 0.06644385 0.18329404 -0.040646743
000390 9f 3e 75 be 30 e4 c9 3c 60 a3 93 3c 5d 6e 84 3c
       -0.2394967 0.024644941 0.01802224 0.016165907
0003a0 02 1d a3 3d 77 c2 64 3e 23 ba 24 3e 5c 86 10 be
       0.07964517 0.22339807 0.1608663 -0.14113754
0003b0 46 c9 06 be d5 54 fb bd 52 2e 9d 3d 59 cc 0b 3e
       -0.13162717 -0.1227204 0.076748505 0.13652171
0003c0 4f e5 71 3e 44 c7 c3 3d 98 90 85 3e 1b 13 ff bd
       0.2362263 0.09559491 0.2608688 -0.12454816
0003d0 49 a3 89 3d d3 7f 85 3d 39 aa 66 3e 5e a2 86 3e
       0.06720597 0.06518521 0.22525872 0.2629575
0003e0 a6 72 02 be 4c 1c 01 3d d4 06 c3 bd 2a 2b 9c 3d
       -0.12739047 0.031521127 -0.09522787 0.076254204
0003f0 fd 29 f0 bc 7e 4c 1f 3d ce a5 88 be db 1c 76 be
       -0.029316897 0.038891308 -0.26689 -0.24034445

fc2.bias f4 [10]
000000 18 07 7d bd 96 ed e6 bc 7f cc 2d 3c 44 be ee 3c
       -0.061774343 -0.028189462 0.010607838 0.02914346
000010 a9 ab 2c bd a9 85 04 3e 0d cf 57 bd 91 74 51 3e
       -0.042155895 0.12941612 -0.052687693 0.20454623
000020 63 86 09 bd a7 85 ed 3d
       -0.033575427 0.11597758
