LeNet/epoch-32_loss-0.012264_error-4.37%.pth (torch, 42575 bytes, 8 tensors)

conv1.weight f4 [12, 1, 5, 5]
0.09679946 -0.04015137 -0.1900647 -0.08518131 -0.11891489 0.010573012 -0.23332454 -0.33341116
-0.24596627 -0.25880334 0.06974831 -0.08319308 -0.18892114 -0.16592336 -0.18319426 0.27663678
0.23626201 0.13718258 0.11845393 0.018800532 0.14663081 0.17728207 0.17343932 0.19970101
0.09783796 -0.03286872 -0.18819052 -0.41948536 -0.26662496 -0.1334367 -0.0776538 -0.2549753
-0.45786875 -0.16488619 0.00086717895 0.14098951 0.041015543 -0.04834777 0.23022392 0.23257932
0.30622992 0.26993218 0.24714957 0.3606287 0.21653867 0.14375275 0.102622956 0.088225424
0.11331573 0.0026469908 -0.015690118 0.051511772 0.10116358 0.061978467 0.03839594 -0.10074856
0.029633563 0.09728325 0.13546021 0.10821104 -0.10242437 0.025916353 0.13974003 0.22680812
0.11921033 -0.052178517 -0.0110247675 0.03530576 0.14630564 0.09074873 -0.116161734 -0.10357621
-0.08331174 -0.027217276 -0.01514039 0.1397129 0.2750726 0.25581154 0.20891017 0.13592166
0.19112274 0.2610585 0.24713868 0.28646082 0.20849937 0.019101053 -0.020587252 0.06730457
0.123745516 0.13038294 -0.29098955 -0.34949902 -0.25428727 -0.10587192 0.017529918 -0.197657
-0.28762725 -0.28187767 -0.1461871 -0.020489022 -0.18089369 -0.19674872 -0.23933408 -0.07164472
0.08857947 -0.2155994 -0.21060398 -0.30503443 -0.100051455 0.097518384 -0.03460956 -0.006217226
-0.06050067 0.1226748 0.20390904 0.1274292 0.17572439 0.20550032 0.37618586 0.34401876
-0.04556666 0.029333107 0.12090441 0.20737717 0.09162794 -0.0016559003 -0.058411755 0.036741182
0.28375566 0.4074789 0.0036352985 -0.12344515 0.00925779 0.31672207 0.42860806 -0.16016482
-0.3153661 -0.12775205 0.062138256 0.25372782 -0.3815752 -0.41023698 -0.20617744 -0.1461098
0.00033753447 -0.32537395 -0.22069836 -0.02477566 -0.007770057 0.10919597 0.011262248 0.015146447
-0.047278646 0.035767693 0.09443354 0.009317533 0.014803319 -0.08771969 0.019623255 0.06628573
0.121358894 0.10736938 -0.025531124 0.040943865 0.040981427 0.05942268 -0.05509734 -0.14728224
-0.07135919 -0.0024272357 -0.06445801 -0.19107102 -0.20074366 -0.085788585 0.038161255 0.07799176
0.068068616 -0.020458914 -0.018155847 0.0616948 -0.007554994 -0.121558465 -0.21911891 -0.108288236
0.06665681 -0.13519457 -0.26492417 -0.27425396 -0.16008238 0.017684234 -0.15786083 -0.112062305
-0.019377284 0.09232217 0.15743057 0.031612977 0.1525579 0.2763174 0.39666587 0.33362395
0.21976274 -0.013951725 -0.18124022 -0.17305636 -0.12620139 0.04369004 -0.30284682 -0.42895854
-0.35485652 -0.17806286 0.015787235 -0.29851797 -0.35207385 -0.10014287 0.09366912 0.058745097
-0.063904464 0.074291125 0.30934507 0.31974047 0.07928946 0.1603373 0.35407627 0.42033195
0.29361767 -0.039130606 -0.02281598 0.0644655 0.097774334 0.11263267 0.036053017 0.01874485
0.05277922 0.045691743 0.037931506 -0.113092154 -0.12820016 -0.08021374 -0.13539231 -0.11809601
-0.15920807 -0.08662548 -0.07179083 -0.20348096 -0.2140386 0.09642183 0.14837916 0.08140411
0.010666582 0.0069260346 0.0025876649 0.00045476752 -0.027885314 0.04764704 0.073726684 -0.05765167
00000000: cc3e c63d c375 24bd 52a0 42be 8a73 aebd
00000010: a689 f3bd 6d3a 2d3c a1ec 6ebe deb4 aabe
00000020: 95de 7bbe df81 84be 34d8 8e3d 2261 aabd
00000030: 8b74 41be d0e7 29be 4797 3bbe 56a3 8d3e
00000040: abee 713e 9779 0c3e f997 f23d 9303 9a3c
00000050: 6326 163e 6e89 353e 149a 313e 6c7e 4c3e
00000060: 455f c83d 5aa1 06bd 04b5 40be c9c6 d6be
00000070: 1183 88be a1a3 08be f508 9fbd 1f8c 82be
00000080: c66d eabe edd7 28be 6553 633a 8e5f 103e
00000090: eaff 273d 5008 46bd d2bf 6b3e 4629 6e3e
000000a0: 2bca 9c3e 8d34 8a3e c714 7d3e 53a4 b83e
000000b0: 50bc 5d3e ec33 133e fc2b d23d 88af b43d
000000c0: 1412 e83d 2379 2d3b 9088 80bc 02fe 523d
000000d0: da2e cf3d 22dd 7d3d 1045 1d3d 4355 cebd
000000e0: 16c2 f23c 713c c73d 15b6 0a3e c09d dd3d
000000f0: dec3 d1bd 884e d43c 0318 0f3e 6340 683e
00000100: 8c24 f43d 24b9 55bd 3aa1 34bc c69c 103d
00000110: 25d1 153e 78da b93d 34e6 edbd c41f d4bd
00000120: 589f aabd c4f6 debc 660f 78bc e610 0f3e
00000130: 51d6 8c3e bbf9 823e 8cec 553e 0c2f 0b3e
00000140: aeb5 433e 76a9 853e ec11 7d3e feaa 923e
00000150: dc80 553e d079 9c3c 99a6 a8bc fad6 893d
00000160: 4a6e fd3d 1b83 053e 95fc 94be 89f1 b2be
00000170: f131 82be 61d3 d8bd e79a 8f3c 9966 4abe
00000180: e143 93be 4552 90be 12b2 15be 98d8 a7bc
00000190: 323c 39be 7f78 49be fe13 75be 78ba 92bd
000001a0: 2769 b53d 17c6 5cbe 92a8 57be 792d 9cbe
000001b0: c7e7 ccbd b8b7 c73d c1c2 0dbd dfb9 cbbb
000001c0: 8dcf 77bd ed3c fb3d 88cd 503e cd7c 023e
000001d0: 18f1 333e ad6e 523e 6f9b c03e 3a23 b03e
000001e0: 1ba4 3abd fc4b f03c bb9c f73d ae5a 543e
000001f0: 6ea7 bb3d cb0a d9ba 2a41 6fbd ec7d 163d
00000200: 6c48 913e 13a1 d03e 303e 6e3b d0d0 fcbd
00000210: fcad 173c 6529 a23e 8472 db3e 3f02 24be
00000220: aa77 a1be 6fd1 02be af84 7e3d 9de8 813e
00000230: d35d c3be 950a d2be 2e20 53be cf9d 15be
00000240: 1cf7 b039 6a97 a6be c0fe 61be 53f6 cabc
00000250: f69b febb 23a2 df3d 4b85 383c ce28 783c
00000260: 41a7 41bd 2581 123d 5f66 c13d 91a8 183c
00000270: 9f89 723c 61a6 b3bd f3c0 a03c d0c0 873d
00000280: 038b f83d 7ae4 db3d a626 d1bc c1b4 273d
00000290: 24dc 273d 3265 733d c0ad 61bd 28d1 16be
000002a0: c424 92bd 4212 1fbb 9002 84bd 1fa8 43be
000002b0: bf8f 4dbe edb1 afbd fa4e 1c3d 25ba 9f3d
000002c0: 8f67 8b3d 7499 a7bc 92bb 94bc b0b3 7c3d
000002d0: e28f f7bb a5f3 f8bd b560 60be 39c6 ddbd
000002e0: 5e83 883d 7270 0abe 24a4 87be 046b 8cbe
000002f0: a3ec 23be 87de 903c 45a6 21be ec80 e5bd
00000300: 1cbd 9ebc 6813 bd3d 7b35 213e 9c7c 013d
00000310: 2338 1c3e 7979 8d3e ca17 cb3e c2d0 aa3e
00000320: 7c09 613e c795 64bc 0997 39be b035 31be
00000330: f03a 01be 54f4 323d bd0e 9bbe 74a0 dbbe
00000340: c1af b5be 1c56 36be 3b54 813c 59d7 98be
00000350: 0643 b4be b417 cdbd 98d5 bf3d b39e 703d
00000360: 58e0 82bd f225 983d 7a62 9e3e 06b5 a33e
00000370: 8362 a23d 762f 243e 7c49 b53e c035 d73e
00000380: 0e55 963e 6a47 20bd 94e8 babc 7d06 843d
00000390: e93d c83d f5ab e63d 54ac 133d cd8e 993c
000003a0: 062f 583d 4427 3b3d 115e 1b3d dc9c e7bd
000003b0: e746 03be 1a47 a4bd 48a4 0abe 52dc f1bd
000003c0: 7107 23be b368 b1bd 1207 93bd 505d 50be
000003d0: ef2c 5bbe cf78 c53d b5f0 173e 33b7 a63d
000003e0: e3c2 2e3c caf3 e23b d095 293b dd6d ee39
000003f0: be6f e4bc 8b29 433d 04fe 963d 2824 6cbd

conv1.bias f4 [12]
0.1994775 0.07799447 -0.043898154 -0.0794646 0.3448981 -0.26315323 -0.062434595 -0.17128684
-0.24195097 -0.007495667 0.0033947388 0.20272887
00000000: d443 4c3e 91bb 9f3d 8dce 33bd 56be a2bd
00000010: 7c96 b03e 05bc 86be 6bbb 7fbd d165 2fbe
00000020: ffc1 77be 369e f5bb 447a 5e3b 2898 4f3e

conv2.weight f4 [12, 12, 5, 5]
0.0082969405 0.007685157 -0.046686683 -0.05141156 0.027620545 0.07259686 0.056383442 0.014685161
-0.035111796 0.05924057 -0.0036130056 -0.019386088 -0.028070295 -0.024157217 -0.01084219 -0.03816833
0.009879104 0.07280619 0.013789776 -0.04676952 0.006524245 -0.028462667 0.051624585 0.04230025
0.017825529 -0.03912114 0.01648842 0.028208839 -0.08553207 0.0013338467 0.010504876 -0.015315008
-0.0641513 0.0063304114 0.045637142 0.03224229 0.1083784 -0.016119547 0.025844637 0.039431117
-0.047867205 -0.019836318 0.12397844 0.0047186115 -0.053897556 0.048176307 0.120552234 0.057726867
0.015337921 -0.00863131 -0.029411929 -0.036457065 0.009430704 0.010447548 -0.067587815 -0.043661747
-0.047275376 -0.052584417 -0.008708137 -0.031318717 -0.023158956 0.0010214641 -0.040990423 -0.005216157
-0.0007422788 0.008408645 -0.0009221956 -0.030896217 -0.03226724 -0.0031339726 0.02146954 0.06449878
0.013768982 -0.013644739 0.011736814 0.031455215 -0.0032824704 0.036060125 0.04001219 0.042712986
-0.06321765 -0.055595625 0.026082613 0.06664079 -0.01849153 0.023077378 -0.05412623 -0.0022339036
0.09065941 0.031369995 -0.01747519 -0.018213367 -0.07637027 -0.027373016 0.062307917 0.0074850474
0.0024085848 -0.06554767 0.016060863 -0.05369219 -0.043277726 -0.00091818545 0.022315927 -0.036198456
-0.013244448 -0.0069592753 0.036340073 -0.0059884274 0.01727774 -0.008427398 -0.013810711 0.09630107
-0.00017940927 0.031601544 -0.0065692347 0.016439296 -0.0063228053 0.04899617 0.0045561017 -0.06780424
0.08048633 0.10804713 0.02717699 0.04211855 0.0024522478 0.041336495 0.04551051 0.028614288
-0.012033142 -0.075294234 -0.039923057 0.079887 0.037429474 -0.0068969927 -0.11329726 0.029113978
-0.030714719 -0.06333838 0.064880446 -0.055902593 0.03599345 -0.033903133 0.018675813 0.055927962
0.06602878 0.025828015 0.005001168 -0.07236879 -0.06428723 0.06422567 0.008696814 0.022490628
0.043950815 -0.0043739122 -0.0053647673 0.022961535 -0.022163963 -0.0227769 -0.006304504 0.010231849
-0.021727856 0.003261261 -0.016384035 -0.01688718 0.0135314055 -0.027606007 -0.014064716 -0.027944017
0.0025517968 -0.015953075 0.008373208 -0.009037194 -0.015158302 0.030855179 -0.012755017 0.011164328
-0.008432433 -0.054546654 -0.047666486 0.028498454 -0.016700981 0.06659285 0.02291994 0.02813466
-0.03187422 0.033614904 -0.016681759 -0.027720425 0.0027947999 -0.03662807 0.0068722307 0.035397947
0.024741016 -0.037360217 -0.04926956 0.02291075 -0.034617826 -0.097087406 -0.04151542 0.029720355
-0.033443745 -0.0033574 -0.03640514 -0.06251634 0.042271692 -0.02665864 0.02212056 -0.042916425
0.01563431 -0.036283165 0.022436332 -0.025624773 -0.05119934 0.04971837 -0.0030600869 -0.040670745
0.036499992 0.079594165 -0.05597458 -0.10018646 0.066040196 0.027810277 -0.0404764 -0.051669497
-0.015611724 0.02499607 -0.030515628 -0.01736413 0.03072826 0.003467997 -0.005009816 0.04040949
0.07825154 0.01107105 -0.005461026 0.020656293 -0.010941737 0.005945918 -0.0026440045 -0.042641047
0.027024064 0.002879298 0.013805865 0.024021631 -0.004691505 -0.031960312 -0.05182361 -0.0385899
-0.030003918 -0.0006771676 -0.009546051 -0.008117657 0.02469226 -0.021213757 -0.058322866 -0.02895635
00000000: e4ef 073c c5d3 fb3b 893a 3fbd ee94 52bd
00000010: 7b44 e23c aaad 943d 53f2 663d 089a 703c
00000020: 63d1 0fbd 3da6 723d 2dc8 6cbb 93cf 9ebc
00000030: adf3 e5bc 5be5 c5bc 71a3 31bc 6556 1cbd
00000040: f7db 213c 691b 953d 83ee 613c 6591 3fbd
00000050: 55c9 d53b 8a2a e9bc 4d74 533d 0743 2d3d
00000060: d806 923c 7d3d 20bd b912 873c 3916 e73c
00000070: 702b afbd 78d4 ae3a a51c 2c3c cdeb 7abc
00000080: c261 83bd 576f cf3b 03ee 3a3d 7e10 043d
00000090: 7ff5 dd3d 240d 84bc 22b8 d33c 8682 213d
000000a0: 6710 44bd c67f a2bc 69e8 fd3d 959e 9a3b
000000b0: afc3 5cbd 8554 453d 17e4 f63d 0273 6c3d
000000c0: e74b 7b3c 576a 0dbc 49f1 f0bc 0154 15bd
000000d0: 3d83 1a3c 312c 2b3c 7b6b 8abd a9d6 32bd
000000e0: d3a3 41bd c262 57bd 93ac 0ebc 0e48 00bd
000000f0: dab7 bdbc a6e2 853a 93e5 27bd 4cec aabb
00000100: 7d95 42ba 6ac4 093c 80bf 71ba 101a fdbc
00000110: a72a 04bd 5663 4dbb e4e0 af3c f017 843d
00000120: 4c97 613c 2f8e 5fbc c44b 403c 2fd7 003d
00000130: b71e 57bb c8b3 133d d2e3 233d d0f3 2e3d
00000140: 4178 81bd 3db8 63bd 34ab d53c f77a 883d
00000150: 8d7b 97bc c50c bd3c 77b3 5dbd af66 12bb
00000160: a4ab b93d d37d 003d 2128 8fbc 3334 95bc
00000170: 0468 9cbd 603d e0bc 9636 7f3d 2145 f53b
00000180: 59d9 1d3b db3d 86bd 1292 833c 58ec 5bbd
00000190: fc43 31bd 62b2 70ba e4cf b63c d544 14bd
000001a0: 3eff 58bc a20a e4bb 54d9 143d 923a c4bb
000001b0: 0c8a 8d3c 1213 0abc 5246 62bc 7f39 c53d
000001c0: cf1f 3cb9 9f70 013d bc42 d7bb b4ab 863c
000001d0: 892f cfbb 35b0 483d 5a4b 953b f3dc 8abd
000001e0: 04d6 a43d d047 dd3d 47a2 de3c 8084 2c3d
000001f0: e4b5 203b 7550 293d 3b69 3a3d 8368 ea3c
00000200: a826 45bc dd33 9abd 5c86 23bd cc9b a33d
00000210: a64f 193d 2b00 e2bb 6508 e8bd 7080 ee3c
00000220: 6f9d fbbc 8db7 81bd 0ae0 843d 1efa 64bd
00000230: de6d 133d 03de 0abd 05fe 983c b814 653d
00000240: 193a 873d 4695 d33c d7e0 a33b 1736 94bd
00000250: 06a9 83bd c088 833d 157d 0e3c 443e b83c
00000260: c505 343d 0953 8fbb eeca afbb d419 bc3c
00000270: 3391 b5bc 9f96 babc 0396 cebb 7ca3 273c
00000280: 9efe b1bc e1ba 553b d037 86bc fc56 8abc
00000290: d4b2 5d3c fe25 e2bc b26f 66bc daea e4bc
000002a0: 0c3c 273b 06b0 82bc c82f 093c bd10 14bc
000002b0: 875a 78bc 00c4 fc3c 6bfa 50bc 96ea 363c
000002c0: 3028 0abc 506c 5fbd ef3d 43bd 9775 e93c
000002d0: 7fd0 88bc d561 883d 99c2 bb3c a97a e63c
000002e0: 8b8e 02bd c8af 093d 2fa8 88bc f215 e3bc
000002f0: f628 373b 5107 16bd 7330 e13b 70fd 103d
00000300: acad ca3c 0707 19bd e1ce 49bd 53af bb3c
00000310: 6ccb 0dbd c3d5 c6bd 130c 2abd 1a78 f33c
00000320: 4ffc 08bd d307 5cbb 8e1d 15bd 9108 80bd
00000330: 1525 2d3d 3863 dabc 2d36 b53c 22c9 2fbd
00000340: 8613 803c a89d 14bd 66cc b73c 0beb d1bc
00000350: 66b6 51bd 7da5 4b3d bd8b 48bb 5e96 26bd
00000360: 0481 153d 4402 a33d 9a45 65bd 8f2e cdbd
00000370: 1540 873d 61d2 e33c 95ca 25bd 65a3 53bd
00000380: 51c8 7fbc 8fc4 cc3c e9fb f9bc 383f 8ebc
00000390: d5b9 fb3c 5647 633b 6229 a4bb 6c84 253d
000003a0: 5842 a03d 5963 353c 68f2 b2bb 6337 a93c
000003b0: f944 33bc fad5 c23b 0947 2dbb 61a8 2ebd
000003c0: 9261 dd3c 9bb2 3c3b ff31 623c 03c9 c43c
000003d0: 32bb 99bb d1e8 02bd fe44 54bd 7110 1ebd
000003e0: c7ca f5bc f383 31ba 0a67 1cbc ecff 04bc
000003f0: 6c47 ca3c 79c8 adbc f5e3 6ebd de35 edbc

conv2.bias f4 [12]
0.1357551 0.06388182 0.029032148 0.12123815 0.1275621 0.016259955 -0.10242043 -0.09086632
0.0045514856 0.07713043 -0.051847916 0.10219766
00000000: 6303 0b3e 79d4 823d d4d4 ed3c b54b f83d
00000010: a49f 023e 9933 853c cdc1 d1bd 1f18 babd
00000020: a124 953b 8ff6 9d3d 7b5e 54bd 024d d13d

fc1.weight f4 [30, 192]
-0.08822385 0.007730454 0.05954241 -0.06397843 0.010460997 -0.12200029 -0.08352311 -0.14515492
-0.052747328 -0.0063639837 0.048044983 -0.05149621 -0.058649015 0.006845005 -0.037563577 -0.054944456
0.0059454422 0.037726235 0.03627655 -0.03634317 -0.0680286 -0.029930329 0.029559182 -0.07508089
-0.044820555 0.008602474 0.011291293 -0.022574492 -0.029932005 -0.045304175 0.0400108 0.017253928
-0.039023824 -0.09565434 -0.082019925 -0.050615985 0.005029419 -0.06539169 -0.021210391 -0.0808967
0.0034264205 -0.05281342 -0.04496124 -0.027210942 0.0006648689 0.011808384 0.103333555 -0.06830971
0.10488945 -0.025552865 -0.03321268 -0.01902568 0.05712628 -0.083410166 -0.09202557 0.017126866
-0.029074283 0.001913531 0.07470178 0.035101127 -0.003128707 -0.010029481 -0.050753966 0.054727025
-0.055579744 0.02912019 -0.064645275 -0.04236732 -0.08848282 0.07798299 -0.03883867 -0.05254614
0.059358094 0.01647565 -0.06854655 -0.0329543 -0.034397945 -0.010795122 0.013441123 -0.018622303
-0.034099292 -0.03896362 -0.06767587 -0.0756737 0.022827543 0.069455914 0.050211355 0.06520248
0.07103839 0.042618275 0.031694245 -0.040055882 0.05017788 -0.12260678 -0.010508376 -0.036897667
0.09752471 0.030642433 0.05637678 0.040398408 0.049863864 -0.0025396105 -0.00882595 -0.008086174
-0.0058116303 -0.044763114 -0.056952417 -0.05051163 -0.023352727 0.01651764 -0.104676545 0.052836563
0.008643105 -0.03073505 0.020084152 -0.02851696 -0.03612251 0.018791452 -0.055600513 -0.06575202
-0.046658326 -0.021479538 -0.017201483 0.009754282 0.07107495 -0.00368263 0.04181522 0.01881967
-0.06833724 0.03435751 0.07497003 0.0034888315 -0.019890347 -0.022801243 0.056901317 0.06321259
0.07661865 -0.045380972 -0.025066167 0.018575033 0.01991509 -0.0746115 0.06367604 0.047731828
-0.000777338 -0.020885708 -0.029740475 -0.035998337 -0.06574885 -0.009355883 0.042484656 -0.04821076
-0.04559873 -0.02344182 0.07683429 0.07965395 -0.008687307 0.02658668 0.047078475 0.009584706
0.0026015893 0.011087862 0.07180084 0.058310144 -0.04047682 -0.0021187994 -0.0036367455 -0.0640131
-0.09835941 0.054083258 -0.081470765 0.010608302 0.05887669 0.015188526 0.04446229 0.008551171
-0.0048287613 -0.074147694 0.071880214 0.005710655 -0.029184965 0.027342541 0.044902343 -0.08754199
-0.043356102 0.009645596 -0.020149266 -0.061153933 0.052355964 0.060244944 0.06263075 -0.05415893
0.08174812 -0.08435292 -0.047106083 0.041049313 -0.052198634 0.027618494 -0.10052249 -0.11120163
0.04699118 -0.009663992 -0.0036358875 -0.05586756 0.0373574 0.022604333 -0.044861175 -0.01851498
0.07323133 0.0095357625 0.025044693 -0.026343789 -0.030521646 -0.02506707 0.064870395 0.03675552
-0.03488447 -0.06203938 0.03685672 0.048130736 -0.007652583 0.036388073 -0.00041912906 -0.0029023788
0.0403851 0.0064622858 -0.05315379 -0.03707701 -0.03437919 0.0701585 -0.041058034 -0.06430098
-0.04809482 0.041397687 -0.019106144 -0.037148185 -0.041212186 0.014794343 0.07826107 -0.07485632
0.02318115 0.080135606 0.05939592 0.04339054 0.0039302325 -0.11193712 -0.04612014 0.027119232
-0.09832336 -0.028929302 0.007363065 -0.05493739 0.0791984 0.055028893 0.044986594 0.0039949105
00000000: b5ae b4bd c04f fd3b bee2 733d 2007 83bd
00000010: 9a64 2b3c 4adb f9bd 2a0e abbd 7ea3 14be
00000020: 950d 58bd f788 d0bb d1ca 443d b1ed 52bd
00000030: f339 70bd 104c e03b 44dc 19bd 700d 61bd
00000040: fcd1 c23b d386 1a3d b896 143d 93dc 14bd
00000050: 9452 8bbd 7330 f5bc 1926 f23c 02c4 99bd
00000060: c295 37bd 64f1 0c3c 1eff 383c 24ee b8bc
00000070: f733 f5bc df90 39bd 5de2 233d 1c58 8d3c
00000080: 72d7 1fbd 6ce6 c3bd 10fa a7bd b552 4fbd
00000090: d3cd a43b 14ec 85bd 6ac1 adbc 2bad a5bd
000000a0: cc8d 603b e252 58bd 4729 38bd 7be9 debc
000000b0: 994a 2e3a f477 413c 8ba0 d33d f6e5 8bbd
000000c0: 48d0 d63d 3e54 d1bc 050a 08bd bedb 9bbc
000000d0: 3ffd 693d f3d2 aabd e777 bcbd a44d 8c3c
000000e0: 312d eebc 72cf fa3a 3ffd 983d 33c6 0f3d
000000f0: fe0a 4dbb b152 24bc 64e3 4fbd 7229 603d
00000100: 96a7 63bd 778d ee3c be64 84bd 5b89 2dbd
00000110: 7b36 b5bd 8cb5 9f3d 4c15 1fbd 9f3a 57bd
00000120: 7921 733d f1f7 863c 2262 8cbd 17fb 06bd
00000130: dce4 0cbd 06de 30bc 2838 5c3c cd8d 98bc
00000140: b3ab 0bbd 5198 1fbd a699 8abd d0fa 9abd
00000150: d400 bb3c e73e 8e3d 6caa 4d3d e188 853d
00000160: 937c 913d 8090 2e3d d3d1 013d a311 24bd
00000170: 5287 4d3d 4319 fbbd 532b 2cbc 0222 17bd
00000180: 09bb c73d d705 fb3c 57eb 663d cd78 253d
00000190: 0d3e 4c3d 986f 26bb b89a 10bc df7b 04bc
000001a0: 7d6f bebb 8759 37bd f046 69bd 48e5 4ebd
000001b0: 384e bfbc 0050 873c a860 d6bd 276b 583d
000001c0: cf9b 0d3c 12c8 fbbc 8587 a43c 669c e9bc
000001d0: 32f5 13bd 88f0 993c 5dbd 63bd ffa8 86bd
000001e0: cd1c 3fbd dbf5 afbc 20ea 8cbc 6dd0 1f3c
000001f0: be8f 913d 4758 71bb 7046 2b3d b52b 9a3c
00000200: 65f4 8bbd 76ba 0c3d e389 993d e1a4 643b
00000210: 15f1 a2bc acc9 babc 5b11 693d 9a75 813d
00000220: 3dea 9c3d 66e1 39bd 9057 cdbc ab2a 983c
00000230: f924 a33c eacd 98bd 9568 823d 7382 433d
00000240: 45c6 4bba 8118 abbc 4ca2 f3bc fe72 13bd
00000250: 55a7 86bd 6b49 19bc 6404 2e3d a578 45bd
00000260: bcc5 3abd 0f09 c0bc 4c5b 9d3d 9c21 a33d
00000270: 3555 0ebc 4fcc d93c 5cd5 403d 2c09 1d3c
00000280: 6d7f 2a3b dda9 353c 520c 933d 9ed6 6e3d
00000290: 06cb 25bd 8edb 0abb 7756 6ebb 4d19 83bd
000002a0: a970 c9bd 6886 5d3d 25da a6bd 72ce 2d3c
000002b0: af28 713d 4cd9 783c 171e 363d 361a 0c3c
000002c0: 963a 9ebb bfda 97bd ef35 933d 7220 bb3b
000002d0: 4f15 efbc 77fd df3c 85eb 373d 3749 b3bd
000002e0: 2b96 31bd 9008 1e3c 1310 a5bc 8c7c 7abd
000002f0: 3573 563d 67c3 763d 8d44 803d c1d5 5dbd
00000300: 8f6b a73d 39c1 acbd 4ff2 40bd 5323 283d
00000310: 3cce 55bd 2e40 e23c bcde cdbd aebd e3bd
00000320: d379 403d b855 1ebc 1248 6ebb 62d5 64bd
00000330: 1304 193d b92c b93c 5ac0 37bd baac 97bc
00000340: 4ffa 953d e33b 1c3c 872a cd3c eece d7bc
00000350: 8808 fabc 7559 cdbc c5da 843d f58c 163d
00000360: 05e3 0ebd 011d 7ebd 12f7 163d bc24 453d
00000370: 85c2 fabb a90b 153d 8dbe dbb9 d635 3ebb
00000380: d96a 253d 95c1 d33b cab7 59bd 10de 17bd
00000390: 32d1 0cbd 42af 8f3d 782c 28bd 3bb0 83bd
000003a0: 13ff 44bd 9f90 293d 7d84 9cbc b228 18bd
000003b0: 1cce 28bd f963 723c 5747 a03d 454e 99bd
000003c0: 65e6 bd3c 231e a43d 2349 733d 47ba 313d
000003d0: 2ec9 803b 4a3f e5bd 79e8 3cbd 2729 de3c
000003e0: c25d c9bd 25fd ecbc de45 f13b 0706 61bd
000003f0: c532 a23d fa65 613d dd43 383d bde7 823b

fc1.bias f4 [30]
-0.079345666 -0.02394881 -0.06464637 -0.0894354 0.04083273 -0.09914196 -0.072410285 0.03886855
0.06330236 0.004692386 -0.09808152 -0.045378987 0.063651316 0.057448547 -0.04858146 0.043559622
-0.04722305 -0.082563914 0.036581505 -0.038296595 -0.07185519 -0.1083371 -0.02781065 -0.013185211
0.023191081 0.024218189 -0.06919248 -0.007858954 -0.015441022 0.06741485
00000000: fb7f a2bd 4b30 c4bc 5165 84bd e829 b7bd
00000010: 3840 273d f10a cbbd d84b 94bd a134 1f3d
00000020: aba4 813d 96c2 993b f7de c8bd 51df 39bd
00000030: 9f5b 823d 2b4f 6b3d 5afd 46bd 936b 323d
00000040: f56c 41bd 4517 a9bd 7dd6 153d e4dc 1cbd
00000050: d028 93bd d7df ddbd 29d3 e3bc c906 58bc
00000060: 39fb bd3c 3965 c63c c9b4 8dbd d8c2 00bc
00000070: 57fc 7cbc cc10 8a3d

fc2.weight f4 [10, 30]
-0.14360553 0.08883051 -0.10425803 -0.13138342 -0.034352258 -0.016451437 0.0050463458 0.087389424
-0.08657492 0.123223335 0.351598 0.06988455 -0.044323307 0.1232057 0.078315236 0.080595136
0.036329783 -0.05947697 0.008929432 0.0962944 -0.07622448 -0.06407734 -0.026021935 -0.021264678
-0.105441 -0.048523135 0.05128219 0.0078054606 0.03800285 0.04354189 0.050685726 -0.10436877
-0.13754243 0.47278994 -0.04871106 -0.16661486 -0.033986382 0.088455476 -0.12842965 0.14206968
-0.019471833 0.035230767 -0.062493525 -0.030838223 -0.04108684 0.24708533 0.07597117 -0.042512488
0.16003548 0.0011047731 0.0045434 -0.29101557 0.030538782 0.035546537 -0.007578039 0.104202285
0.087330766 -0.026687264 -0.033758778 -0.012587796 0.03609106 0.04848438 -0.11728868 -0.035320334
-0.03795905 0.05651801 -0.04031029 -0.12931824 0.29514542 -0.004635808 -0.013593929 0.0557391
0.0077986484 0.15251648 -0.07318787 0.0037541976 -0.26003927 0.38362357 0.19122794 -0.16565296
-0.23753808 -0.11030204 -0.024327617 -0.086038776 -0.014064296 0.0091427695 0.020944685 -0.06301858
0.1512851 -0.19286968 0.022063768 0.19164401 0.15205343 0.091729335 -0.1163269 -0.19004594
-0.23251942 0.12127666 -0.20371129 -0.1696638 0.017012773 -0.24797189 0.09967373 -0.12718004
0.18969822 -0.20372763 -0.1373173 -0.102693856 -0.07341604 0.04811478 0.102678515 -0.23025116
0.2036169 0.016910031 0.035258807 -0.0902694 -0.26473984 -0.021623604 0.054685373 0.13109075
0.038364418 -0.1194997 -0.046675127 0.21081159 0.0041537182 0.18687293 -0.07067394 -0.004926106
0.098845884 -0.11405172 -0.021248272 0.04557665 0.23031066 -0.10652984 -0.19219206 -0.22037546
-0.0053261984 -0.06333182 0.039364938 -0.17596643 0.10406445 0.35717228 0.054670177 -0.03725109
-0.28886157 -0.31375426 0.15370402 -0.12730235 0.030490149 0.048490115 -0.1579019 -0.33940956
-0.12881656 -0.14841713 -0.041976985 0.1101918 0.14660454 -0.37321937 0.096057504 -0.22281814
-0.13958271 -0.21173987 -0.14604826 0.057424333 0.04959483 0.20322922 0.018580135 0.09746802
-0.054381933 0.10017473 0.046466246 -0.21397752 -0.27145168 -0.02907746 -0.1740534 0.0057851505
0.13135947 0.040200956 -0.026668118 0.17770419 -0.16994175 0.1677577 0.02104214 -0.066720374
-0.0026277574 -0.09028846 0.011575824 -0.08805716 0.07597163 0.1493962 -0.026484802 0.20026425
0.06107005 -0.10995561 -0.008548155 -0.01084037 0.28323933 -0.027318815 -0.0350239 -0.054234654
0.06886726 -0.01990945 0.07145764 -0.040211096 -0.14147443 0.020207722 -0.00019115634 0.39546484
-0.02830479 -0.021494225 -0.13370754 -0.011936829 -0.05791274 -0.06845345 0.37885007 0.0375708
0.05132785 0.035597097 0.03953291 -0.012101852 -0.012126636 -0.009954072 0.02295152 -0.044620004
0.07388456 0.033387296 0.1663251 -0.03413429 -0.2221489 0.010152546 0.0076032993 0.035729952
0.051767133 0.26090363 0.18263163 -0.070309594 -0.07393101 -0.030301401 0.06757604 0.11352953
0.24466775 0.10700322 0.298513 -0.12081777 0.00046620786 0.048192155 0.20799725 0.3028249
-0.07014176 0.06523313 -0.09585867 0.10083092 -0.009693722 0.071508095 -0.22219169 -0.22972779
00000000: 540d 13be c5ec b53d 3c85 d5bd 6089 06be
00000010: f4b4 0cbd 2ac5 86bc d15b a53b 3af9 b23d
00000020: 314e b1bd 845c fc3d a704 b43e a21f 8f3d
00000030: 5b8c 35bd 4553 fc3d bd63 a03d 100f a53d
00000040: 8ace 143d 209e 73bd c14c 123c 0036 c53d
00000050: 951b 9cbd fb3a 83bd f42b d5bc 4333 aebc
00000060: 73f1 d7bd 32c0 46bd 460d 523d f3c4 ff3b
00000070: e0a8 1b3d fb58 323d d69b 4f3d 4bbf d5bd
00000080: ecd7 0cbe 8611 f23e 4085 47bd 169d 2abe
00000090: 4e35 0bbd 2528 b53d 1083 03be b77a 113e
000000a0: 6583 9fbc 234e 103d 36f9 7fbd 71a0 fcbc
000000b0: ad4a 28bd f003 7d3e c696 9b3d 9321 2ebd
000000c0: 57e0 233e 09ce 903a cde0 943b feff 94be
000000d0: 782c fa3c 3f99 113d 3351 f8bb 0268 d53d
000000e0: 79da b23d 409f dabc a546 0abd 0b3d 4ebc
000000f0: 38d4 133d 8f97 463d 0c35 f0bd 0eac 10bd
00000100: f37a 1bbd 6e7f 673d 671c 25bd 006c 04be
00000110: 4d1d 973e fae7 97bb 12b9 5ebc af4e 643d
00000120: ce8b ff3b 482d 1c3e 86e3 95bd fc08 763b
00000130: de23 85be 4f6a c43e 42d1 433e eea0 29be
00000140: 2f3d 73be 09e6 e1bd b64a c7bc 1935 b0bd
00000150: ef6d 66bc 8ecb 153c 3094 ab3c e30f 81bd
00000160: 7bea 1a3e a17f 45be 13bf b43c 543e 443e
00000170: e5b3 1b3e 97dc bb3d cc3c eebd 679b 42be
00000180: 9219 6ebe e65f f83d b199 50be 59bc 2dbe
00000190: 5f5e 8b3c 58ec 7dbe be21 cc3d 7c3b 02be
000001a0: 4040 423e fa9d 50be e89c 0cbe 2851 d2bd
000001b0: 265b 96bd 0114 453d 1d49 d23d f6c6 6bbe
000001c0: f380 503e e886 8a3c 8a6b 103d 2adf b8bd
000001d0: fb8b 87be fc23 b1bc c5fd 5f3d a73c 063e
000001e0: 0224 1d3d 42bc f4bd 6b2e 3fbd fede 573e
000001f0: ea1b 883b 9e5b 3f3e 80bd 90bd 2c6b a1bb
00000200: b66f ca3d f393 e9bd db10 aebc 95ae 3a3d
00000210: 8fd6 6b3e 512c dabd ffcd 44be 1baa 61be
00000220: 6487 aebb 1db4 81bd 213d 213d 8b30 34be
00000230: be1f d53d 49df b63e d6ed 5f3d 9994 18bd
00000240: aae5 93be 66a4 a0be 9664 1d3e 8c5b 02be
00000250: 7ac6 f93c 929d 463d 09b1 21be 17c7 adbe
00000260: 7de8 03be a9fa 17be 0ff0 2bbd 3dac e13d
00000270: 801f 163e 9c16 bfbe ccb9 c43d 702a 64be
00000280: c5ee 0ebe 56d2 58be ad8d 15be c735 6b3d
00000290: f323 4b3d 521b 503e 5e35 983c 509d c73d
000002a0: 97bf 5ebd 6928 cd3d 6453 3e3d ec1c 5bbe
000002b0: b7fb 8abe da33 eebc 0e3b 32be 5c91 bd3b
000002c0: 1983 063e c2a9 243d 1977 dabc 16f8 353e
000002d0: 3605 2ebe adc8 2b3e 9160 ac3c b1a4 88bd
000002e0: 7436 2cbb 28e9 b8bd 86a8 3d3c 5057 b4bd
000002f0: 0497 9b3d 51fb 183e a8f6 d8bc 1212 4d3e
00000300: 9724 7a3d 6830 e1bd 900d 0cbc cf9b 31bc
00000310: bf04 913e b5cb dfbc 3975 0fbd 2825 5ebd
00000320: 470a 8d3d 2519 a3bc 6258 923d 64b4 24bd
00000330: acde 10be aa8a a53c 2471 48b9 5e7a ca3e
00000340: 72df e7bc a814 b0bc a1ea 08be b192 43bc
00000350: e935 6dbd 5331 8cbd a3f8 c13e d7e3 193d
00000360: 273d 523d 43ce 113d 43ed 213d d946 46bc
00000370: ccae 46bc 6716 23bc d304 bc3c 77c3 36bd
00000380: ca50 973d 1ec1 083d 2151 2a3e 66d0 0bbd
00000390: 007b 63be dd56 263c 1925 f93b 9259 123d
000003a0: c609 543d 2995 853e c903 3b3e 7afe 8fbd
000003b0: 2469 97bd a53a f8bc 4f65 8a3d 2c82 e83d
000003c0: 2f8a 7a3e 8124 db3d b2d6 983e 4f6f f7bd
000003d0: 5c6d f439 2365 453d 3bfd 543e de0b 9b3e
000003e0: 7ca6 8fbd f298 853d 8d51 c4bd 7180 ce3d
000003f0: 6bd2 1ebc d672 923d 3886 63be c33d 6bbe

fc2.bias f4 [10]
-0.026541501 0.0032752808 0.035955984 0.042206146 -0.053000562 0.12864892 -0.0518981 0.24164303
-0.051014 0.117879905
00000000: 906d d9bc 18a6 563b 9546 133d 5ae0 2c3d
00000010: 1e17 59bd 8bbc 033e 1a93 54bd 4571 773e
00000020: 0ef4 50bd 056b f13d
