LeNet/epoch-8_loss-0.026930_error-8.28%.pth (torch, 42575 bytes, 8 tensors)

conv1.weight f4 [12, 1, 5, 5]
000000 87 0b 1f 3d 54 ed 61 bd 88 cb 0f be e1 d7 8d bd
       0.038829353 -0.055157974 -0.14042485 -0.06925941
000010 e3 de 8f bd f3 48 d6 bc 54 c7 24 be d2 18 73 be
       -0.07024934 -0.026157832 -0.16091663 -0.23739937
000020 02 27 4f be 54 37 3e be c3 62 a7 3d d6 b4 f1 bc
       -0.20229724 -0.18575794 0.08173134 -0.029505175
000030 78 39 d3 bd f1 75 ba bd 1b b6 d6 bd 7f 81 0f 3e
       -0.10313696 -0.09104527 -0.104839526 0.14014243
000040 c1 94 bb 3d a8 ca 88 3d 57 a3 8b 3d b7 60 8e 3b
       0.09159232 0.066792786 0.06818264 0.0043450254
000050 1c 33 bb 3d ff a7 d5 3d 4b 66 d5 3d e0 e2 08 3e
       0.09140608 0.10432433 0.104199015 0.13367796
000060 ae 42 c5 3d e2 87 8d bc 90 a3 bd bd 2a 2a 83 be
       0.09631859 -0.017276708 -0.09259713 -0.25618106
000070 1d 20 f4 bd 54 97 23 bd 8b ba 5f bd 99 d1 1b be
       -0.119201876 -0.03993924 -0.05462126 -0.15216674
000080 0e 56 9d be 08 11 de bd b8 6e 13 bd e6 36 c1 3d
       -0.30729717 -0.10843092 -0.03599426 0.09434299
000090 32 10 78 3c ad e7 e6 bd a4 8a f8 3d 69 c9 d4 3d
       0.01514058 -0.112746574 0.121358186 0.103899784
0000a0 3e ee 56 3e 1b 83 1a 3e 51 47 f0 3d 11 92 87 3e
       0.2098932 0.15089075 0.117323525 0.26478627
0000b0 af 96 fa 3d ee 01 b2 3d 48 1f 4b 3d c8 f8 8c 3d
       0.12235772 0.08691774 0.04959038 0.06883389
0000c0 6b 4b f7 3d 56 ae f4 3c 35 2d 2e bc 57 a0 50 3d
       0.12074932 0.029868286 -0.010630895 0.050934162
0000d0 90 5b 8d 3d 5f 2b 50 3d 85 1c 41 3d bb 98 04 bd
       0.0690223 0.050822612 0.04714634 -0.032372218
0000e0 ed 12 55 3d d0 25 92 3d 94 eb fd 3d 23 76 ba 3d
       0.052020002 0.071361184 0.123984486 0.09104564
0000f0 f2 ea 2c bd d4 f7 3b 3d 4c 56 c5 3d 52 83 2e 3e
       -0.04221625 0.045890644 0.096356004 0.17042282
000100 f9 08 c3 3d a3 49 8f 3c 5e 2e ff 3c 29 72 0b 3d
       0.09523196 0.017491167 0.03115004 0.03404442
000110 a0 bf f9 3d 05 ae 9a 3d a9 ac 80 bd e8 c5 70 bd
       0.12194753 0.07552723 -0.06282932 -0.058782488
000120 92 5e 46 bd a2 b6 82 bc e6 22 40 bc 01 f3 b3 3d
       -0.048430033 -0.015956227 -0.01172707 0.08786584
000130 9e 0c 26 3e 93 6f 1b 3e c1 d7 0a 3e 02 1b 86 3d
       0.1621575 0.15179281 0.13558866 0.0654812
000140 47 14 02 3e df bf 23 3e 46 8f 2f 3e 17 01 59 3e
       0.12703048 0.15991162 0.17144498 0.21191822
000150 68 a4 f6 3d 62 a1 d6 bc 08 da f4 bc c6 e3 57 3d
       0.12043077 -0.0262 -0.029889122 0.052707456
000160 6c 08 92 3d 05 5c 19 3d 80 0c 19 be 45 fa 1f be
       0.071305126 0.037441272 -0.14946175 -0.15622814
000170 69 54 db bd 9a bf 7d bd 25 89 70 bc af d3 e8 bd
       -0.10709459 -0.061950304 -0.014681135 -0.113685004
000180 db ca 30 be f1 97 33 be 05 89 f0 bd f6 c0 1e bd
       -0.17264883 -0.1753843 -0.117448844 -0.03875824
000190 96 8a af bd 6a cd db bd ce 0d 07 be a7 29 1a bd
       -0.08571355 -0.10732539 -0.1318886 -0.03763738
0001a0 0c ca 9a 3d 7b 07 0f be 18 92 09 be 0e 3f 4d be
       0.07558069 -0.13967697 -0.13434637 -0.20043585
0001b0 67 05 c9 bd fa 02 75 3c 6f 83 47 bb 71 8f d0 3c
       -0.098154835 0.014954323 -0.003044333 0.025459023
0001c0 8b e6 58 bd d2 ac 90 3d c5 6d b8 3d b5 e9 12 3e
       -0.052954238 0.07064213 0.09005312 0.14346965
0001d0 f3 9f 15 3e bb bf ff 3d 2f f6 80 3e 63 80 3e 3e
       0.14611797 0.124877416 0.25187823 0.18603663
0001e0 e5 a6 b9 3c 79 55 ec 3c 43 17 82 3d 31 5a 08 3e
       0.02266259 0.02884935 0.06352093 0.13315655
0001f0 94 f5 8f 3d 13 70 5e bd 98 35 91 bd 57 55 b1 3c
       0.07029262 -0.0543061 -0.070903 0.021647139
000200 c7 94 3e 3e c5 ad 38 3e 27 30 e3 3b 44 c2 e4 bc
       0.18611442 0.18035038 0.0069332304 -0.027924664
000210 c7 41 6b 3d e8 76 4d 3e 03 c2 4a 3e f9 4b b6 bd
       0.057435777 0.2006489 0.19800572 -0.089012094
000220 32 a9 15 be c9 91 9d bd 02 5e d9 3b 9f c0 da 3d
       -0.14615324 -0.07693822 0.006633521 0.10681271
000230 60 ca 70 be 69 97 6b be ba c5 1d be 86 3a 18 be
       -0.235147 -0.23006977 -0.15407458 -0.14866075
000240 5d d7 26 bd 2b b7 40 be 0f af bc bd de 61 23 bb
       -0.04073273 -0.18819873 -0.09213077 -0.002493016
000250 99 d7 fa bc 79 02 78 3d d7 c4 45 3b 8e 5e 7a bb
       -0.030620383 0.060549233 0.003017714 -0.0038203332
000260 c3 25 00 bd 2c 47 f4 3c f7 26 4a 3d 40 cf 61 3c
       -0.031286012 0.029819094 0.049353566 0.013782322
000270 80 be 9d 3c b0 1e ff bc 24 90 30 3d 92 10 3d 3d
       0.019255877 -0.031142563 0.043106213 0.04615838
000280 b0 e1 8a 3d b8 d1 5a 3d 4c e3 fa bc 37 da 13 3d
       0.06781328 0.05342266 -0.030625962 0.036096778
000290 15 30 bb 3c 2b 7f cf 3c 94 c6 00 bd 80 18 be bd
       0.022850076 0.025329193 -0.03143938 -0.09282017
0002a0 3e 04 33 bd 62 9f 82 bc e5 80 e0 bc fe e8 c1 bd
       -0.043705218 -0.01594514 -0.027405212 -0.09468268
0002b0 20 72 e9 bd 07 f8 45 bd 92 5c ab 3c 8f 68 60 3c
       -0.11398721 -0.04833224 0.020918164 0.013696804
0002c0 8e f7 33 3c 87 b6 f4 bc 11 ec c2 bc ee b8 56 3c
       0.010984315 -0.029872192 -0.023794206 0.013105614
0002d0 ea 7a 9b bc 7e bf b4 bd 0a 11 1a be 99 eb b8 bd
       -0.018979508 -0.08825587 -0.15045562 -0.09029312
0002e0 cb 12 9d 3b 58 23 69 bd c6 b0 1f be 80 d8 3c be
       0.0047935 -0.056918472 -0.15594777 -0.18441963
0002f0 f4 f6 c8 bd 9b 64 65 3b 1c 2e b8 bd e0 bb 8b bd
       -0.098127276 0.0035002592 -0.0899317 -0.06822944
000300 c0 20 fd 39 45 f0 91 3d ab 42 b2 3d 09 ef 86 3b
       0.0004828032 0.07125906 0.08704122 0.0041178507
000310 fa 37 c1 3d 21 9d 38 3e 35 f7 72 3e 0c 81 52 3e
       0.09434505 0.1802869 0.23727114 0.2055704
000320 fd 38 64 3d d5 51 5d bd f8 d8 13 be d4 d6 d7 bd
       0.05571841 -0.05403312 -0.14438236 -0.10539022
000330 a7 73 a6 bd e3 dc 0f bc 50 95 3d be cd 68 87 be
       -0.08127528 -0.008780691 -0.1851399 -0.26447144
000340 45 4a 40 be b7 65 d5 bd 19 98 64 3d c5 cb 17 be
       -0.18778332 -0.10419791 0.055809114 -0.14823826
000350 99 93 5d be 4e 43 29 bd 59 08 7e 3d 36 98 8c 3d
       -0.21638335 -0.041323952 0.06201968 0.068649694
000360 27 19 9d bc 31 bd 62 3d 48 14 47 3e 65 83 2e 3e
       -0.019177033 0.05535621 0.1944133 0.1704231
000370 c4 6a 1b 3d b1 dc d8 3d 5f 6d 5d 3e d7 0f 86 3e
       0.037943617 0.105889685 0.21623753 0.2618396
000380 25 c4 42 3e 0e 6e 8e bc 9b 7c a4 bc f6 61 20 3d
       0.19020136 -0.017386463 -0.020078948 0.039155923
000390 57 a7 4d 3d 81 24 38 3d 3c d2 cd 3c a6 bf f0 ba
       0.050208416 0.044956688 0.025124662 -0.0018367663
0003a0 f7 88 f5 3c 78 31 64 bb 90 9a bf 3b 21 31 89 bd
       0.029972536 -0.0034819525 0.0058472827 -0.06698824
0003b0 a5 a8 ae bd 0e 85 6c bd f8 c5 04 be 34 84 a4 bd
       -0.0852826 -0.05774408 -0.12966144 -0.08033028
0003c0 4a c8 fb bd 1b 47 b3 bd a5 1a 9c bd 3f 7c 2f be
       -0.122940615 -0.08753797 -0.076222695 -0.1713724
0003d0 27 fc 08 be bf f8 30 3d c0 5e 9c 3d 9b 33 4a 3d
       -0.13377438 0.043205973 0.0763526 0.04936562
0003e0 66 7b 1c 3c e7 28 24 ba 29 61 0d 3b 6e 68 c7 bb
       0.009550905 -0.00062621984 0.0021572805 -0.006085447
0003f0 9c ed bc bc 41 bc 35 3d 4f ec 7b 3d dc 73 e8 bc
       -0.02306252 0.044368986 0.06150466 -0.028375559

conv1.bias f4 [12]
000000 ef e4 19 3e 0d 3f 89 3d a7 ba 7d bc b6 fc 2d bd
       0.15028737 0.06701479 -0.015486396 -0.042477332
000010 81 55 5f 3e 60 52 23 be 9e 2a 27 bd 0c f2 a5 bd
       0.21809961 -0.15949392 -0.040812127 -0.081028074
000020 24 8f e0 bd e2 dc 0c bd d1 b8 7a 3b 28 ac dc 3d
       -0.10964802 -0.034390338 0.0038257132 0.10775024

conv2.weight f4 [12, 12, 5, 5]
000000 af 3f 71 bc 0c 6b ae bc c8 7e 02 bd 11 66 a6 bb
       -0.014724656 -0.021291278 -0.03185919 -0.005078085
000010 4d f2 60 3d 1e 26 40 3d 16 1b 22 3d 27 c7 a7 3b
       0.054918576 0.04691135 0.039576612 0.0051201764
000020 b2 96 3b bc e7 43 94 3c f3 53 7e bb 9f c2 1f 3c
       -0.011449503 0.018098785 -0.0038807362 0.009750991
000030 5e 48 42 bc f5 75 05 bc c0 21 0e ba 61 90 38 bb
       -0.011858074 -0.008145799 -0.0005421899 -0.0028162228
000040 8a f5 45 bb 16 9f 52 3d f1 29 e0 3a e9 e0 c8 bc
       -0.0030206167 0.051421247 0.0017102343 -0.024521308
000050 c0 88 7e bb 60 4a 83 bb ae 5d 90 3c 0d a0 78 bc
       -0.0038838834 -0.004006669 0.017622795 -0.015174878
000060 5f bb 23 bc 87 6a da bc e6 75 1c bc 70 64 c7 bc
       -0.009993403 -0.026662124 -0.009549594 -0.024339885
000070 62 14 0d bd 46 63 11 3c 36 90 da ba 4e 46 1b bc
       -0.034443267 0.008873766 -0.0016675058 -0.009477211
000080 5e 39 61 bd dd 74 3a 3c e3 11 88 3c 95 6a 04 3b
       -0.05498635 0.011380401 0.016610092 0.002020513
000090 88 56 67 3d 2c 0c ad bc 18 28 06 bd bc bf 2a 3d
       0.056479007 -0.021123968 -0.03275308 0.04168676
0000a0 90 06 9e bc b7 f1 7b bc 5b 18 39 3d 10 ed 62 bc
       -0.019290239 -0.0153774535 0.045189243 -0.013850465
0000b0 5d b2 74 bd d9 3b 00 3d 0a 49 2d 3d 35 13 e7 3c
       -0.059740413 0.031307075 0.042305984 0.0282074
0000c0 fe 35 b4 bc 7f a7 1a bd a9 b9 c2 bc c4 9a cf ba
       -0.021998402 -0.037757393 -0.02377017 -0.001583897
0000d0 df 85 2b 3a b2 e3 e2 bb 8d 20 42 bd ea ee 04 bd
       0.00065430807 -0.006924116 -0.047394324 -0.03245441
0000e0 8e 69 cf bc d5 02 e8 bc 2c 8e 25 3b 8c 41 0e bc
       -0.025318887 -0.028321663 0.0025261743 -0.00868262
0000f0 4b 08 79 bc 25 71 4f bc 47 90 e2 bc a7 c1 69 3b
       -0.015199731 -0.012661253 -0.027656687 0.0035668404
000100 b3 a5 dd ba 3d 26 c8 bb 49 f1 0c bc 67 d3 8d bc
       -0.0016910344 -0.006108074 -0.008602449 -0.017312719
000110 0d fb 78 bc 2b 31 7a bc 63 53 c9 3c 75 e6 ea 3c
       -0.015196574 -0.015270512 0.024575895 0.028674344
000120 8b cf 65 3c a5 c7 7d bb 0d b0 d1 3b 76 e8 14 3d
       0.014026533 -0.0038723734 0.0063991607 0.036354505
000130 61 d8 cc 3c d5 77 e0 3c 97 08 27 3c c5 fa 60 bc
       0.025005521 0.02740089 0.010194919 -0.013731663
000140 08 97 1b bd 3b ef 82 bc 6a 81 26 3c de 1e 7e 3c
       -0.03798583 -0.015983215 0.010162691 0.015510289
000150 cd 30 19 bc 38 86 99 bb 8b ca e0 bc 8d 75 ed bb
       -0.009350014 -0.0046851896 -0.02744033 -0.007246679
000160 df b6 83 3d ff 7e 56 3c 32 3f 8f bc 7a 5f 94 bb
       0.06431364 0.013091802 -0.017486189 -0.0045279833
000170 24 24 4b bd be 8c 24 bc 2b 7c 38 3d 82 36 a2 3c
       -0.049595013 -0.010043321 0.04504029 0.019801382
000180 c2 aa b0 bc cb 8f f2 bc 13 7e e2 3c fe cd 34 3b
       -0.021565799 -0.029609581 0.027648007 0.0027588601
000190 86 7a 07 bd fe f2 c9 bc 6c 15 a5 bc 31 32 9b bc
       -0.03307583 -0.024652 -0.020151816 -0.018944832
0001a0 52 d6 36 bc 06 a9 89 bb 4e 34 e9 3b d4 08 bd bc
       -0.011159496 -0.0042010574 0.007116831 -0.023075499
0001b0 27 20 99 b9 a2 18 bc 39 86 4b d3 bc 1f d3 16 3d
       -0.0002920639 0.00035876507 -0.025792848 0.036822435
0001c0 a4 14 87 bc a4 8f cd bc c4 02 f9 3c 8b 2b 17 bc
       -0.016489334 -0.025092907 0.030396827 -0.00922669
0001d0 3b 55 16 bc e2 6c b3 3c 21 ac ab b9 78 75 41 bd
       -0.009175594 0.021902505 -0.00032743908 -0.047231168
0001e0 70 f4 e9 3c 45 b6 0c 3d c7 0f 56 bc a9 92 36 ba
       0.02855894 0.034353513 -0.013065285 -0.0006964603
0001f0 f7 2e 5e bc 71 a4 43 3d db 3f 23 3d 71 df bc 3c
       -0.013561002 0.047764245 0.03985582 0.023055764
000200 7b e1 00 bb 0c 84 e7 bc e5 85 03 bd 9b 7d 9f 3d
       -0.0019665647 -0.028261207 -0.032110114 0.07787629
000210 6e a7 32 3d 19 45 9b 3b eb 25 2d bd 8b 83 cf 3b
       0.043616705 0.0047384617 -0.04227249 0.00633282
000220 8f 21 b8 bb a2 f0 8f bb 25 30 88 3d c6 ae 64 3b
       -0.005619235 -0.0043926993 0.06649808 0.0034894212
000230 6e f0 06 3d 30 80 21 3b f8 ad d0 39 a5 56 3c 3d
       0.032944135 0.0024643056 0.00039802468 0.04598107
000240 a3 c6 8e 3d ce a2 8e 3c 99 b0 a5 bc f1 fa 2d bd
       0.06971481 0.017411616 -0.02022581 -0.042475644
000250 a7 01 37 3c de 19 b8 3c 71 ca 9e 3b 9c 47 7c 3c
       0.011169828 0.022473272 0.0048459102 0.015397932
000260 80 02 94 3c 52 5b 38 bc 96 63 5f bc 58 3f 31 3c
       0.018067598 -0.011252241 -0.013634583 0.010818325
000270 fd 37 50 3c 2a c1 6f bc ed 1f e6 bb 66 bb b7 3c
       0.012708661 -0.014633456 -0.007022849 0.022428226
000280 ca b5 5c bc 62 63 96 3b 81 47 0c 3a bb 3d 4a 3b
       -0.013471076 0.004589484 0.0005351231 0.0030859548
000290 46 a5 27 3c 42 3f 6f bc 43 73 f8 bb f4 a7 49 bc
       0.010232275 -0.014602484 -0.0075820996 -0.01230811
0002a0 8a 19 30 bc 88 15 7e 3b 61 0f 4f 3c 04 0d 52 bc
       -0.0107482765 0.0038770158 0.012637944 -0.012820486
0002b0 97 e3 b6 bb 21 c8 26 3d f1 54 7c bc 7a 09 1d 3c
       -0.00558133 0.0407182 -0.015401111 0.009584779
0002c0 28 4c 27 b8 9c ee 13 bd a3 09 e2 39 8d 9a 20 3d
       -3.988683e-05 -0.036116228 0.0004311326 0.03920989
0002d0 25 b1 d7 bc d8 6e a0 3c e5 c4 ad 3c 43 2c 8c 3c
       -0.026329586 0.019584104 0.02121205 0.01711095
0002e0 0c ca e5 bc 3b 00 68 3c 69 29 bd bb 95 00 e6 bc
       -0.028050445 0.014160211 -0.0057727587 -0.02807645
0002f0 3a a0 b3 3b 98 e7 27 3c c6 f7 64 3c 57 0b 80 3c
       0.005481747 0.010248087 0.013975089 0.015630407
000300 83 56 35 3d 90 59 a8 3b 63 d0 1e bc 45 3f a6 3c
       0.044271957 0.00513763 -0.009693238 0.020293841
000310 45 f0 3b bc eb f8 61 bd ea d2 5e bc 19 b3 1e 3d
       -0.011470859 -0.055169027 -0.0136000905 0.03874502
000320 b0 10 c5 bc da 0e 7e bc 72 8f 10 bd 0f 06 b1 bc
       -0.024055809 -0.015506471 -0.03529305 -0.021609334
000330 58 51 03 3d 0a 07 9e bc c3 89 47 3c 7b b6 82 bc
       0.032059997 -0.019290466 0.012178841 -0.015956154
000340 3a 25 e2 3c c6 51 85 bc 08 30 41 3c 6d f5 78 3c
       0.027605642 -0.016274344 0.011791237 0.015195233
000350 4a d3 b9 bc 93 f4 89 3c f4 21 8a 3c 6a 4c 1a 3c
       -0.022683758 0.016840255 0.016861893 0.009417633
000360 79 50 72 3b 2b 21 3e 3d 9b 95 20 3c e0 02 26 bd
       0.0036974235 0.04641835 0.009801294 -0.040530086
000370 22 3b 2e 3d de 55 d4 3c 7e 9c b3 bc 92 fd f4 bc
       0.042536862 0.02591985 -0.021925207 -0.029906068
000380 56 c1 a9 3c a6 8e e7 3c cc 3b ed bb 10 7f ad 3b
       0.020722073 0.028266262 -0.0072397944 0.005294688
000390 b5 40 96 3c 89 17 6e 3c d5 d4 66 3c 19 4c fa 3c
       0.018341402 0.014531978 0.014088829 0.030553864
0003a0 30 59 27 3d d2 d9 d4 ba 64 bb 99 bc 08 8f 21 3c
       0.04085654 -0.0016239232 -0.018766113 0.009860761
0003b0 e9 7f be b9 92 b3 4e 3c 0b d1 d9 bb 4a 54 bc bc
       -0.00036334925 0.012616055 -0.0066472343 -0.02298941
0003c0 25 49 aa 3c 50 f4 ad 3c 35 75 93 3c 47 cf ab 3c
       0.020786831 0.021234661 0.018000225 0.020972861
0003d0 3a 8f 6a 3c fb 04 03 bd 93 a6 d0 bc 56 fc 4a bb
       0.014316374 -0.03198717 -0.025470054 -0.0030973158
0003e0 64 87 ba 3b 33 4b 0a bb 80 f9 9b bc 6a 7c 42 3b
       0.0056924094 -0.002110195 -0.01903987 0.0029676207
0003f0 f8 25 8c bb 3d cc 8e bc 65 14 01 bd 70 40 c3 bc
       -0.004276987 -0.017431373 -0.03151359 -0.023834437

conv2.bias f4 [12]
000000 f9 3b 88 3d ae 20 58 3d 26 4d 9c 3c 8d 4d 8e 3d
       0.06652064 0.05276554 0.019079756 0.069483854
000010 0b 2a cd 3d 55 54 e5 3b 51 b0 b9 bd 38 d5 db bc
       0.10017785 0.0069985786 -0.09066833 -0.026835069
000020 e9 d7 bf 3c 3a 1d 34 3d 42 5d 14 bd 43 25 b4 3d
       0.023418384 0.043973185 -0.03622175 0.087961696

fc1.weight f4 [30, 192]
000000 70 d7 93 bd c6 94 40 3b 9e 44 9d 3d 14 d4 85 bd
       -0.07218826 0.002938555 0.07679103 -0.06534591
000010 54 5f bb 3c b7 91 a9 bd 7a 54 ba bd 18 6e c3 bd
       0.022872604 -0.08279746 -0.09098144 -0.09542483
000020 ba 5a 2f bd 5a d3 c3 bc a2 84 5e 3d bb bf 45 bd
       -0.042811133 -0.023904491 0.054325707 -0.04827855
000030 a8 49 10 bd 66 be 4c 3c 60 a4 a9 bb 07 c5 99 bd
       -0.035226494 0.012496566 -0.0051770657 -0.07508283
000040 27 02 b6 3b 50 11 8d 3c 7a 15 0e 3c 36 0c 1c bd
       0.005554456 0.01722017 0.008672113 -0.038097583
000050 65 cb 93 bd f7 0b b9 bb 37 d5 80 3d 2e af 90 bd
       -0.07216529 -0.0056471783 0.062906675 -0.07064663
000060 22 8e 7e bd 14 8a 94 3c 37 9b f8 3c 2b 6b bd bc
       -0.062147267 0.018132247 0.03034745 -0.02312239
000070 e9 c1 c3 bb 95 e4 2b bd 31 82 de 3c 00 2b 2d 3c
       -0.0059740436 -0.04196604 0.02716169 0.010569334
000080 ef 15 a9 bc ac 30 93 bd c7 0b 7e bd 95 7b ec bc
       -0.020640342 -0.07187018 -0.06202295 -0.028867522
000090 22 ee fa 3c 33 3b b6 bd d1 f3 59 3c 9c f0 ab bd
       0.030631129 -0.0889801 0.013302759 -0.08395502
0000a0 d4 17 61 bc 18 21 14 bd 9b 13 25 3d fc 84 5a bd
       -0.013738591 -0.036164373 0.0403019 -0.05334948
0000b0 34 c6 4a 3c 06 4e 8c 3c ac 5a 88 3d 8d 29 9e bd
       0.012376357 0.017127048 0.06657919 -0.07722769
0000c0 66 e7 95 3d 68 53 0f bd af af 45 bd a1 17 0f bd
       0.073195264 -0.03499165 -0.048263248 -0.034934644
0000d0 e9 e0 6a 3d 04 6a 78 bd 5c db 99 bd 01 df ea bc
       0.057343397 -0.06064798 -0.075125426 -0.02867079
0000e0 85 ee da bc 4c 5a 8e bb 78 c5 8e 3d 76 43 89 3d
       -0.026725063 -0.0043442603 0.06971258 0.0670232
0000f0 38 99 af bc 0a fa e7 3c 3c 16 b1 bd a3 45 14 3d
       -0.021435365 0.02831747 -0.08646819 0.036199223
000100 6e 3d 02 bd 71 6d 2c 3d 60 d2 55 bd c8 a2 87 bd
       -0.031796865 0.04209656 -0.052202582 -0.06622845
000110 8a 13 68 bd 0e 71 98 3d e2 c4 b9 bc ba 19 18 bc
       -0.05665926 0.074434385 -0.022676889 -0.009283477
000120 47 16 94 3d 89 72 8f b9 8e 0f 86 bd a4 a2 f6 bc
       0.072308116 -0.0002736042 -0.065459356 -0.03010685
000130 4e 4d 82 bc 09 87 9c bc 2e 0e 0e 3d 63 65 7d bd
       -0.015906002 -0.019107359 0.03468149 -0.061864268
000140 8b 05 35 bd 3a 71 04 bd ce 69 80 bd 99 3f 74 bd
       -0.04419474 -0.032334544 -0.06270181 -0.059630964
000150 64 55 b6 3c 2a 26 93 3d 8e 81 6b 3d dc f4 83 3c
       0.022257514 0.071850136 0.0574966 0.016107969
000160 cd 8a 99 3d 5d 41 ce 3c 24 80 23 3c 6c 47 ef bc
       0.07497177 0.025177652 0.009979282 -0.029208861
000170 18 3b 55 3d 28 f8 bc bd 9e 00 7a 3a 6d af 10 bd
       0.05205831 -0.092270195 0.0009536835 -0.03532355
000180 fb 2f 75 3d c0 5c a4 3c f6 91 e2 3c 80 e5 31 3d
       0.05986021 0.020063758 0.02765749 0.04343176
000190 73 ee b8 3c ca 99 90 3c be 35 2f bd 33 be 93 3c
       0.022574639 0.017651457 -0.042775862 0.01803503
0001a0 08 12 11 bd 4f ed 19 bd c0 17 39 bd d0 f7 1c bd
       -0.035417587 -0.03757983 -0.045188665 -0.03832227
0001b0 2c b3 fe bc 2e 7b ec 3c 7f 03 9a bd 54 6f aa 3b
       -0.031091295 0.02886733 -0.07520198 0.0052012596
0001c0 01 88 a3 3c 9e 83 85 bc 33 cc fe bb 6c a3 b9 bc
       0.019962313 -0.016298112 -0.0077758073 -0.022660933
0001d0 a9 b5 84 bd 63 f6 04 3c 0f 2a 46 bc 9d bd 8a bd
       -0.064799614 0.008115384 -0.0120949885 -0.06774447
0001e0 92 0f 1b bd 13 77 a4 ba 1e b3 b1 3c 03 fc f7 3c
       -0.037856646 -0.0012547694 0.021691855 0.030271536
0001f0 43 e8 3e 3d be f8 c1 bb c2 da 87 3d 28 11 f6 bb
       0.04660822 -0.005919545 0.066335216 -0.0075093694
000200 c7 b0 ab bd 15 81 20 3d 0a 61 98 3d 13 9e 91 bc
       -0.08383327 0.039185602 0.07440384 -0.017775571
000210 36 65 57 bc b1 14 9d 3c ac 9a c4 3d c8 09 c0 3d
       -0.013146689 0.019174905 0.09599814 0.093768656
000220 9e 5c 89 3d e8 8b 0d bb 0c ff 33 bd a5 89 bd 3c
       0.067071185 -0.0021598283 -0.043944404 0.023136923
000230 cf 62 0b 3d b6 81 bd bc 6a b5 ac 3c 06 60 c6 bb
       0.034029778 -0.02313314 0.021082599 -0.0060539274
000240 4f 8a 81 3c eb 9f bc bc 05 32 fe bb 74 71 7e bd
       0.015813021 -0.023025474 -0.0077574276 -0.062119916
000250 6f 1c 54 bd 8b 89 c4 bc 05 75 08 3d 96 9f 2f bd
       -0.05178493 -0.023991367 0.033314724 -0.042876802
000260 c3 bc ad bc 91 c0 0c bd 2a 48 34 3d 7b 0d 86 3d
       -0.021208173 -0.034363333 0.044014134 0.0654554
000270 b5 85 e0 bb 17 c2 f7 3c 87 09 68 3d 33 5b 57 3a
       -0.0068518766 0.030243916 0.05664971 0.0008215189
000280 7c 3a 07 3d c5 70 72 3c e5 1b af 3d d0 7a 80 3d
       0.03301476 0.014797394 0.08550242 0.062734246
000290 23 54 6d bd 57 3e 41 3c b5 f4 2c bd 4f 8b ae bd
       -0.057941567 0.011794648 -0.04222556 -0.08522665
0002a0 86 df c9 bd 2b 76 8f 3d a1 3e 9e bd 4f cb b6 3c
       -0.09857087 0.070049606 -0.07726789 0.022313742
0002b0 9b 4a 45 3d 91 de 11 3d c1 de 17 3d 18 ef 07 bc
       0.048166852 0.035612646 0.03707767 -0.0082967505
0002c0 7b 42 71 bc 56 61 a9 bd 93 ce 79 3d b9 85 59 bc
       -0.014725323 -0.082705185 0.06098802 -0.013276511
0002d0 8b 6b db bc fc 77 21 bb 53 a6 6b 3d 18 55 9d bd
       -0.026784679 -0.0024638167 0.057531666 -0.07682246
0002e0 f1 46 3e bd 55 62 f2 bc ed a4 1b bd bc 06 ae bc
       -0.046454374 -0.029587904 -0.037999082 -0.021243446
0002f0 e1 4d 7c 3d 89 34 51 3d 8e 6d fa 3c 90 6f 6e bd
       0.06159771 0.051075492 0.030569818 -0.058211863
000300 fd fc a0 3d ef 30 9e bd 44 54 c9 bc c3 20 8e 3d
       0.07860754 -0.07724177 -0.024576314 0.069398426
000310 37 3f 39 bd fb b9 99 3c 15 60 7b bd 84 5e af bd
       -0.045226302 0.01876544 -0.061370928 -0.08562949
000320 7c 13 82 3d 9d bf bb bc f7 d2 a3 3c 03 e8 a4 bd
       0.063513726 -0.022918517 0.019998057 -0.08052065
000330 4f 95 14 3d 38 2e c7 3c 0b fa 4b bd 6a 49 39 bd
       0.036275204 0.024314031 -0.049799006 -0.04523603
000340 2c cd 8d 3d 0e a4 ca 3c 8e 7d 86 3c 75 63 e4 ba
       0.06923899 0.02473643 0.016417291 -0.001742466
000350 bc f7 42 bd 6e a2 0b 3d d7 cd 12 3d b7 c8 56 3d
       -0.04759954 0.034090452 0.035840835 0.05243751
000360 bf 5b 6e bd 41 7d 68 bd e5 c2 87 3c 8e 8f 2e 3d
       -0.058192965 -0.056760076 0.016572425 0.042617373
000370 03 5e b5 bc 76 b2 a6 3d f4 49 95 3c 82 f1 70 3b
       -0.022139555 0.081395075 0.01822374 0.0036765044
000380 7c af 86 3d 5a ff 1a 3d cd 5b 96 bd e2 1d 7f bc
       0.0657644 0.03784118 -0.07341728 -0.015571089
000390 cd 0d 79 3b 94 fc 73 3d 10 19 6e bd 20 8b 73 bd
       0.003800261 0.05956705 -0.05812937 -0.05945885
0003a0 92 7f 7c bd 71 1a 0b bd 93 bd 4a bd 79 c1 a7 3c
       -0.061645098 -0.033960763 -0.0494972 0.020477997
0003b0 26 89 54 bd 0b 19 63 3d 85 5f 9a 3d e0 64 ad bd
       -0.051888607 0.055443805 0.0753775 -0.08466506
0003c0 2a df b2 3c 35 63 68 3d d8 f5 89 3d a0 71 08 3d
       0.021834929 0.056735236 0.06736344 0.033311486
0003d0 3d ad c4 bc 46 bb bd bd 2c d5 53 3c 12 86 cd 3c
       -0.024008388 -0.09264235 0.012929242 0.025088344
0003e0 64 48 68 bd 65 b2 22 3d eb 87 84 3c 25 0f ad bd
       -0.056709662 0.03972091 0.016178092 -0.08450154
0003f0 53 6d 9b 3d a5 b1 5d bc bc ee 28 3c b6 7c 0d 3d
       0.07589211 -0.013531123 0.010310825 0.03454276

fc1.bias f4 [30]
000000 b7 74 63 bd d7 0a 8d bc 6d ed 05 bd 38 d7 8c bd
       -0.05553123 -0.017217083 -0.03269713 -0.06876987
000010 6b 62 41 3d 54 a1 bc bd 5e a6 3d bd e4 af de 3c
       0.047213 -0.092104584 -0.04630124 0.02718348
000020 38 22 5f 3d 5c ee 41 3c 80 78 82 bd de 7f 71 bd
       0.054475993 0.011836614 -0.0637064 -0.058959834
000030 e1 3a 8c 3d 56 9f 6c 3d 2d 8c 6a bd 80 c4 29 3d
       0.06847168 0.057769142 -0.05726259 0.041447163
000040 e3 4b 5a bd 7a 9b 98 bd fc 76 cc 3c 71 b2 04 bd
       -0.053295027 -0.0745153 0.02495908 -0.032396737
000050 99 0d a0 bd f3 c9 95 bd ea e1 22 bd 73 70 dd bb
       -0.078150935 -0.073139094 -0.03976623 -0.0067577898
000060 6c bd 83 3c 12 d6 7d 3d b7 11 8d bd 13 32 b7 3c
       0.016081534 0.06197173 -0.068881445 0.022362744
000070 f3 9d a2 bc 18 35 46 3d
       -0.019850707 0.048390478

fc2.weight f4 [10, 30]
000000 c3 12 09 be 00 66 46 3e 2f 7e c2 bd c5 79 e4 bd
       -0.13386063 0.19374847 -0.09496724 -0.11156038
000010 36 dc 01 be 83 db a5 bd 46 83 c2 bb 25 46 5e 3e
       -0.1268166 -0.08098509 -0.005936059 0.21706446
000020 cc dc d8 bd cb 32 f9 3d 70 08 ab 3e 7b b1 80 3e
       -0.10588989 0.12167891 0.33404875 0.25135407
000030 eb c2 45 bd 66 7b 1f 3e 05 40 6e 3e 6c 65 fb 3d
       -0.04828159 0.15574417 0.23266609 0.12275204
000040 50 a4 49 3d ef c3 28 be e6 c8 03 bd b4 f5 64 3e
       0.049228966 -0.16480993 -0.032174014 0.22359353
000050 bd 74 5e be 38 ff 9f bd 14 6e 3f bd fb 7e e7 bc
       -0.2172422 -0.07812351 -0.046735838 -0.028258791
000060 17 c8 31 be 4d 81 54 be 2b d9 53 3d 33 7b b1 3d
       -0.17361484 -0.2075245 0.05172078 0.086660765
000070 1e 4f 4c bd 6b 7a c1 3d 4f 5e d7 3d c5 0c aa bd
       -0.04988014 0.094471775 0.10516035 -0.08303217
000080 8c 79 e0 bd 02 81 b6 3e 49 d8 f0 bd 0a 77 3c be
       -0.10960683 0.356453 -0.11760003 -0.18404785
000090 93 84 9d 3c 2e e3 47 3e 4c 74 4b be d2 b1 40 3e
       0.019228255 0.19520256 -0.19868582 0.18817833
0000a0 9f 79 53 bd 2a 9e 45 3e bb a4 3a be b1 c0 04 be
       -0.05162966 0.19298616 -0.18226902 -0.12964131
0000b0 16 3a 23 be 93 87 a3 3e fb 72 2f 3d 8b 03 2f bd
       -0.15940127 0.31939372 0.042834263 -0.04272799
0000c0 87 16 46 3e e3 4d a8 3d c3 11 99 bd 34 4e a2 be
       0.19344531 0.08217981 -0.07474091 -0.3170029
0000d0 aa f3 0e 3b b3 32 81 bc 54 2c 7d 3d 61 8e 1b 3e
       0.0021812716 -0.015771246 0.061809853 0.15191032
0000e0 4c 95 00 3e d7 4f b9 3c ca 7d dd bd 6b e7 a4 bd
       0.12556952 0.022621078 -0.10815008 -0.08051952
0000f0 d5 97 a8 3c 09 97 56 3d b3 4f 63 be c0 11 06 be
       0.020580212 0.052390132 -0.22198372 -0.13092709
000100 24 c8 c4 3d 13 29 01 3e 2b 71 f3 bd e0 be 65 be
       0.09608486 0.12613325 -0.118868195 -0.22436094
000110 89 4f 93 3e f9 b0 0d 3d b2 74 6d 3d 92 42 e0 3b
       0.28771618 0.034592602 0.057972617 0.0068438733
000120 25 95 0f bd 35 cb 50 3e 38 5e 06 be 62 51 3e bd
       -0.035054345 0.20390017 -0.13121879 -0.04646433
000130 df 22 81 be 34 d9 a4 3e e0 07 38 3e b5 96 c8 bd
       -0.25221917 0.32196963 0.17971754 -0.0979437
000140 61 78 79 be 2b da 51 be 30 1c ef bd e6 c2 86 bd
       -0.24362327 -0.2049338 -0.11675298 -0.06580143
000150 4a e4 c3 bc de fb 99 bd f4 b8 87 3d ca e5 01 be
       -0.023912568 -0.07518743 0.06627074 -0.12685314
000160 09 f0 14 3e 7b 54 62 be c8 98 4c 3d 2a 7f 1b 3e
       0.14544691 -0.22102539 0.04995039 0.15185228
000170 08 d1 85 3d 95 e3 45 3e 36 b7 21 be 2c cc 60 be
       0.0653401 0.19325097 -0.15792546 -0.21952885
000180 29 46 8b be 95 27 df 3d 33 8f 6a be d9 d6 2e be
       -0.27201965 0.108962215 -0.22906189 -0.17074145
000190 63 f6 30 be d6 95 41 be 17 ab 14 3e 59 94 a7 bd
       -0.17281489 -0.18904814 0.1451839 -0.08182592
0001a0 7c 7c 60 3e e0 04 24 be df 5c 03 be 6e 0f bd bd
       0.21922487 -0.16017485 -0.12828396 -0.092314586
0001b0 30 f3 b4 bd ba 8e 11 3e f2 3d 55 3e bd f5 33 be
       -0.08835447 0.14214602 0.20824412 -0.1757421
0001c0 b5 a4 fb 3d 41 5d 1d bd eb 0d 30 3c 72 1b 91 3d
       0.12287275 -0.038419012 0.010745506 0.07085313
0001d0 f1 52 81 be 02 66 66 bd cb 2e 07 bd 2c a7 22 3e
       -0.25258592 -0.056249626 -0.03300361 0.15884084
0001e0 68 10 5d bb 82 4e 7f be 89 47 b6 bd ca 90 85 3e
       -0.0033731703 -0.24932292 -0.08900363 0.26087028
0001f0 f7 53 34 3e 4f b2 7b 3e 0e 1c 25 bc 1f 78 61 3d
       0.17610155 0.24579738 -0.01007749 0.055046197
000200 25 41 ca 3d d7 f5 4d be 30 53 eb 3c c9 59 02 3e
       0.098757066 -0.20113312 0.02872619 0.12729563
000210 24 eb 7a 3e 8e 42 23 bd 04 7d 2e be ba 88 0c be
       0.24503762 -0.039858393 -0.17039877 -0.13724032
000220 78 52 89 bc c4 0d 2a be 5b db 9b 3d d3 91 3f be
       -0.016762957 -0.16606814 0.07610198 -0.18707971
000230 6d a9 0a 3e 02 e7 63 3e 13 e9 c3 3d 8e 8a 21 3d
       0.13541193 0.22256091 0.0956594 0.039438777
000240 46 1e 8b be fb 06 50 be f7 db 4c 3e 9e 4f 4e be
       -0.27171534 -0.20315163 0.20005785 -0.20147559
000250 b7 6e 52 3d a5 2b eb 3c fa 4f f4 bd a1 52 8f be
       0.051375117 0.028707335 -0.11929317 -0.27992728
000260 1d 00 02 be 4f bc 02 be 17 1e db bd c8 e3 13 3e
       -0.12695356 -0.12767147 -0.106990986 0.1444236
000270 88 fc 09 3e f5 75 8b be 46 67 c0 3d e1 b7 a2 be
       0.1347524 -0.27238432 0.09394698 -0.31780913
000280 3c 73 36 bd 08 20 fa bd 0c e0 5f be d2 da 25 3d
       -0.04454349 -0.12213141 -0.21862811 0.040491886
000290 5b c1 82 3c 8c 75 16 3e 09 d1 96 3d 13 7d 4f 3e
       0.01596134 0.14693278 0.07364089 0.20262556
0002a0 3a 55 25 3d 29 b2 44 bc f4 52 e1 3d 8b 62 2d be
       0.04036448 -0.012005367 0.1100215 -0.16932122
0002b0 4e b3 78 be 76 66 d4 bb 29 24 2b be be 86 0a 3d
       -0.2428715 -0.006481941 -0.16713013 0.033819906
0002c0 65 c3 37 3e 31 92 1f 3e 7d cb eb 3c a6 92 4a 3e
       0.17945631 0.15583111 0.028783554 0.19782504
0002d0 4e 3e 3c be 99 d4 15 3e 91 34 90 3c 63 8a 5c be
       -0.18383142 0.14631881 0.01760319 -0.21537165
0002e0 9d 03 e6 3d 32 d7 f4 bd 04 cf d8 bc e4 bb 30 be
       0.11231158 -0.11955108 -0.0264659 -0.17259175
0002f0 b9 1d d9 3d 4e 60 27 3e 06 87 07 be 9d 7b 70 3e
       0.10601372 0.16345331 -0.13235101 0.23484655
000300 df 0b c1 3d 8c b7 52 be 73 1e f9 bd 41 81 1d be
       0.09426092 -0.2057783 -0.12164011 -0.15381338
000310 4c 8b 62 3e 9e 6d 43 be 45 f1 82 bc 0c d5 e5 bd
       0.2212345 -0.19084784 -0.015984187 -0.11222276
000320 e4 24 7d 3d 9a d7 c7 bc 11 9a 44 3d b8 a9 f2 3c
       0.06180276 -0.024394799 0.04799849 0.029621944
000330 38 b6 46 be f5 48 a3 3d bf e2 2f bd 08 be 87 3e
       -0.19405448 0.079729 -0.04294085 0.2651217
000340 7f 23 34 be b3 89 64 3d 37 ca 96 bd c8 b3 8b bb
       -0.17591666 0.055795383 -0.07362788 -0.004263375
000350 da c3 3d bd 59 58 6d 3b 8d e2 a2 3e 0d 74 53 bc
       -0.046329357 0.003621599 0.3181347 -0.012906087
000360 3d 2f 5e 3e f8 de ea 39 10 7f 06 bd 31 06 1b 3d
       0.21697707 0.00044798083 -0.03283602 0.0378477
000370 cd 51 1e be c2 cf da bd 93 57 52 3c 65 4f b2 bd
       -0.15460892 -0.10684158 0.012838262 -0.087065496
000380 4b 87 a0 3d e6 23 0e 3e 07 88 40 3e e5 d5 e2 bc
       0.07838305 0.13880882 0.1880189 -0.027689883
000390 59 46 76 be 26 ab 28 3c 7f b6 96 3d 8a 6d bb 3c
       -0.24050273 0.010294711 0.07359027 0.02287938
0003a0 72 86 f6 3d 9d 45 38 3e 87 2a 27 3e 78 88 1a be
       0.12037362 0.17995305 0.16324817 -0.15091121
0003b0 6b 8e d7 bd 74 4f 62 be 72 7b 95 3d 1e 57 42 3e
       -0.10525211 -0.22100621 0.07298936 0.18978545
0003c0 b5 c6 7c 3e b2 ef 08 3e 9c c4 69 3e e8 11 1c be
       0.24685176 0.13372687 0.22828907 -0.15241206
0003d0 a0 75 c6 3d 4a 60 92 3d 28 00 72 3e 50 b6 61 3e
       0.09690404 0.07147272 0.23632872 0.22042203
0003e0 22 a0 38 be d6 e5 15 3c e4 7a 08 be 19 e0 78 3d
       -0.18029836 0.009149035 -0.13328129 0.06076059
0003f0 c4 59 cd bc 20 78 c3 bb e2 b7 87 be 60 99 86 be
       -0.025067218 -0.0059652478 -0.2650748 -0.2628889

fc2.bias f4 [10]
000000 c0 8a b4 bd e4 30 49 bd da d2 25 3b 0a 14 b9 3c
       -0.08815527 -0.04911889 0.002530268 0.022592563
000010 11 18 f6 bc b0 71 f6 3d 45 58 22 bd 4a 11 32 3e
       -0.030040773 0.12033403 -0.03963496 0.17389408
000020 42 37 95 bc da c2 e3 3d
       -0.018214826 0.11121149
