LeNet/epoch-0_loss-0.069553_error-19.55%.pth (torch, 42575 bytes, 8 tensors)

conv1.weight f4 [12, 1, 5, 5]
000000 fd d8 8f 3b 0a c8 14 bd 36 11 83 bd bf c2 4e bd
       0.0043898807 -0.036323585 -0.06399767 -0.050478693
000010 e0 be 09 bd 9d 1a 9d bc 16 8b 9e bd 8d 0b db bd
       -0.0336293 -0.01917773 -0.07741372 -0.106955625
000020 46 f2 d1 bd 16 fc 8a bd 3d e0 6d 3c c3 26 fd bc
       -0.10251288 -0.06786363 0.014518795 -0.030902272
000030 fe 76 78 bd f7 23 73 bd 39 01 2e bd 9c 6b 2b 3d
       -0.060660355 -0.05936047 -0.042481635 0.04185067
000040 be 0f 2b 3c 61 76 1c bc 92 0a 08 bb 4b 4e 11 bc
       0.010440765 -0.009549708 -0.0020758254 -0.008868764
000050 b6 8e f4 3c 84 4f c0 3c ab dd a0 3c a3 83 d6 3c
       0.029853206 0.023475416 0.01963695 0.026185816
000060 3d e1 c6 3c 92 fe 22 3c 9d 06 38 bd 35 ca d1 bd
       0.024277324 0.00994839 -0.044928182 -0.10243646
000070 e4 8d 84 bd 2c 3f 63 bc 88 7f d9 ba ec 03 a2 bd
       -0.06472376 -0.013870042 -0.0016593793 -0.07910904
000080 a3 0e e4 bd e3 34 41 bd 2a a2 1f 3c 73 f0 3f 3c
       -0.11135604 -0.047169577 0.009743253 0.011715042
000090 e0 65 f9 bc 2c 8e 5b bd a2 d3 ac 3c 3d 57 55 3d
       -0.030444086 -0.053602383 0.021097008 0.05208515
0000a0 f1 30 1e 3d 24 e8 7a 3c af 3c 7e 3c 49 78 a4 3d
       0.038620893 0.015314136 0.015517398 0.08030755
0000b0 09 90 84 3d b7 75 ba 3c d5 87 20 3c b2 d5 c3 3c
       0.06472785 0.022761209 0.00979801 0.023905609
0000c0 49 2c 5c 3d 0c f9 12 3d e5 a9 42 3c 56 17 e4 3c
       0.05375317 0.03588204 0.011881326 0.027843159
0000d0 64 cf de 3c 1c c1 d6 3c 36 41 af 3c a9 12 5f 3c
       0.0271985 0.026215129 0.0213934 0.013615289
0000e0 b1 29 45 3d e5 eb 57 3d bd 90 95 3d f8 53 4f 3d
       0.048135463 0.0527152 0.07302997 0.05061719
0000f0 92 72 02 bb 61 06 0b 3d 9b 97 87 3d 71 0f a4 3d
       -0.0019904715 0.03394163 0.06620713 0.08010758
000100 81 7d 62 3d 7e f0 a8 3b 26 0b b9 3c ab 88 25 3d
       0.05529547 0.005155622 0.022588324 0.04041354
000110 2e f7 90 3d 1b 5a 50 3d a7 c9 bd bc eb 47 b5 bb
       0.07078396 0.05086718 -0.023167444 -0.005532255
000120 05 5c 23 3c 41 58 b1 3c 58 70 a0 3c 0e 80 c9 3c
       0.00997067 0.021648528 0.01958482 0.024597194
000130 60 64 58 3d fb 53 75 3d 79 e4 57 3d 06 86 d4 3c
       0.0528301 0.059894543 0.052708123 0.025942814
000140 fa a6 1c 3d ff 19 84 3d 9e 39 9b 3d 06 31 9c 3d
       0.03824518 0.06450271 0.07579349 0.07626538
000150 f3 92 fc 3c 23 f6 09 bc 27 a8 09 b8 00 2a f9 3c
       0.03083179 -0.0084205 -3.281995e-05 0.030415535
000160 28 c7 f1 3c c0 ed a0 3c 3f c2 4e bd d7 82 1b bd
       0.02951391 0.019644618 -0.050478216 -0.037966575
000170 6b c7 d2 bc 41 63 7e bb 2f 27 d8 3b 96 e1 1e bd
       -0.025729856 -0.0038816484 0.006596468 -0.038789354
000180 20 a8 6d bd 3e f1 33 bd 38 61 de bc 07 8d 40 bc
       -0.058021665 -0.04393124 -0.027145967 -0.011752374
000190 87 d5 95 bc 60 a1 5c bd 4a 82 69 bd 3d 17 f5 bc
       -0.018290294 -0.053864837 -0.05700902 -0.029918307
0001a0 a6 53 5c 3c 42 7d 0f bd 41 d0 85 bd 4e a2 88 bd
       0.013447678 -0.035031565 -0.06533862 -0.06671582
0001b0 34 8b 09 bd 4a 6e 6a 3c e1 1b 21 bc af bc 35 bc
       -0.03358002 0.0143085215 -0.009833307 -0.011092349
0001c0 cd 6f 1e bc 38 d2 9e 3c 84 8c 15 3d 32 c6 1f 3d
       -0.00967021 0.01938735 0.03651096 0.039007373
0001d0 d9 a7 dc 3c 86 82 27 3d 12 63 9c 3d 38 8a 89 3d
       0.026935505 0.04089596 0.07636084 0.06715816
0001e0 52 01 fb 3c b8 9e 79 3c e4 a9 15 3d 50 f6 61 3d
       0.030640278 0.015235595 0.036538973 0.055166543
0001f0 38 48 2a 3d e2 79 60 bc e4 a0 ca bc 48 b0 98 3b
       0.04157278 -0.013700934 -0.024734922 0.0046596862
000200 00 1f 96 3d e1 e2 88 3d 64 9d e5 bc fa 87 e2 bc
       0.073301315 0.06683899 -0.028029151 -0.02765273
000210 42 30 68 3c 83 b3 90 3d 0b 3b 78 3d 30 4e 3c bd
       0.014171662 0.07065489 0.060603183 -0.045973003
000220 ee d9 6b bd 79 e3 f1 bc ed 26 5e 3c 6b 99 13 3d
       -0.05758088 -0.029527413 0.013559085 0.036034983
000230 c9 a0 ad bd 54 30 ab bd 94 95 4f bd cc 3d db bc
       -0.08477933 -0.08358827 -0.05067976 -0.026762865
000240 5a 4e aa bb de 3c 8a bd 40 b8 19 bd 33 23 45 bc
       -0.0051973285 -0.06749891 -0.03752923 -0.012032318
000250 29 84 63 bc 0d 54 26 3a c3 c5 c1 3b 62 5e ee 3a
       -0.01388649 0.0006344922 0.0059134676 0.0018186087
000260 48 ca ce ba 70 86 0f 3c f7 64 c9 3c f2 63 2f 3c
       -0.0015776837 0.00876008 0.024584277 0.010704981
000270 57 3d cf 3b 71 37 8b 3b 02 27 87 3c fc c0 93 3c
       0.006324451 0.0042485525 0.016498093 0.018036358
000280 7b 1b d3 3c ac 1d 54 3c d1 8f 2f bc 0e 20 61 3c
       0.02576994 0.012946527 -0.010715441 0.013740553
000290 55 e2 65 3c db 99 6e 3c 68 88 17 bc 8c 93 f1 bc
       0.014031013 0.014563049 -0.00924883 -0.029489301
0002a0 e5 d7 95 bc cd ec 31 3a 36 6a 22 bc b9 3b fe bc
       -0.018291423 0.00067873 -0.009913018 -0.031034337
0002b0 0c 9a 06 bd b1 83 5b bc 3a e4 32 3c c3 42 30 3b
       -0.032861754 -0.013398097 0.010918671 0.0026895262
0002c0 cc 4c 02 bc f6 32 c9 bc 05 da a5 bc 4b 5c f7 3a
       -0.00795288 -0.024560433 -0.020245561 0.001887211
0002d0 f5 2f ec bc d0 09 81 bd 30 03 ae bd a4 87 53 bd
       -0.028831461 -0.063007 -0.08496702 -0.05164303
0002e0 c9 ac 0c bc e7 20 61 bd 73 6b a2 bd 27 2e ad bd
       -0.008586117 -0.05496302 -0.079306506 -0.084560685
0002f0 73 af 1d bd 43 28 b3 3b 61 01 78 bd b8 8f 57 bd
       -0.0384974 0.005467446 -0.06054819 -0.052627295
000300 5e 71 10 bd 45 77 b3 3c fa c6 2f 3d 13 88 63 bc
       -0.035264365 0.021907458 0.04291437 -0.013887423
000310 8a 6e e6 3b 44 7d cf 3c 56 3a 60 3d fa 2b 56 3d
       0.0070322203 0.025328286 0.054743133 0.052288033
000320 75 55 51 3c d3 a8 2c bd 50 89 9b bd 95 76 65 bd
       0.012776722 -0.04215319 -0.0759455 -0.05602129
000330 47 3a 8d bc c7 77 90 bc 0f 93 c3 bd c1 3a ed bd
       -0.017239703 -0.01763524 -0.095495336 -0.11583472
000340 6c 96 a1 bd 91 50 a1 bc 75 54 b3 bc 94 dc a0 bd
       -0.07890019 -0.019691737 -0.021890858 -0.07854572
000350 95 e8 b4 bd 66 0a cc bc bc 62 14 3d 56 46 02 bc
       -0.08833424 -0.024907302 0.036226973 -0.00795134
000360 c1 e9 26 bd 54 28 95 bc 7c f9 45 3d e9 77 96 3d
       -0.04075027 -0.018207707 0.04833363 0.0734709
000370 fe be 4b 3b 80 a1 6b 3c 39 0d 1d 3d ff 3c 93 3d
       0.0031089182 0.014381766 0.03834269 0.071893685
000380 9b 78 5e 3d cf 87 66 bc 07 a5 96 bb 39 3f b7 3c
       0.054314237 -0.014070465 -0.0045973095 0.022369014
000390 a4 0e d9 3c 8f ae 9e 3c 28 3b a0 bc 02 77 6d bc
       0.026496239 0.019370345 -0.019559458 -0.014493706
0003a0 66 cf 3c bc 8c 0e a1 bc c3 5e 5a bc 20 8d 01 bd
       -0.011524057 -0.019660257 -0.013328257 -0.031628728
0003b0 14 1a 04 bd ac d1 2f bd 75 2b 51 bd ea 58 29 bd
       -0.032251433 -0.042924568 -0.051066834 -0.04134456
0003c0 15 88 00 bd 3b 94 0e bd 07 5f 45 bd 1a 11 93 bd
       -0.031379778 -0.034809332 -0.04818633 -0.07180996
0003d0 53 f7 8f bd ea 4f 98 3b dd c7 1f 3c a2 dc 6f bc
       -0.07029595 0.0046481984 0.009752241 -0.014640005
0003e0 8f 61 db bc 23 dd 07 bd 9d 2c a0 3c 68 49 f8 bb
       -0.026779918 -0.033169877 0.019552523 -0.00757711
0003f0 2b aa 1f bc 37 a5 76 3c 48 f7 97 3c 57 68 f6 3a
       -0.009745161 0.015054039 0.01855053 0.0018799406

conv1.bias f4 [12]
000000 1e 5f f0 3d 5d aa cf 3c 20 b0 ec bc 8d 61 23 bc
       0.11736892 0.02534979 -0.028892577 -0.009971988
000010 94 f1 0e 3e 3f af db bd df 6c 25 bd 7c 52 c6 bc
       0.13959342 -0.10726785 -0.04038703 -0.024209253
000020 47 b4 78 bd 61 ac 27 bc 5d 75 ad bc c6 bb d7 3d
       -0.0607188 -0.010233969 -0.021174127 0.10533862

conv2.weight f4 [12, 12, 5, 5]
000000 ae 8b 2a 3c 68 f8 8a bc 6c d4 d9 bc 16 e7 d5 3c
       0.010409279 -0.016964152 -0.026590548 0.026111167
000010 ea 0b 4a 3d b2 bb 12 3d dc 8c 75 3c da 95 a1 bc
       0.04932777 0.03582353 0.014987197 -0.019724775
000020 51 a4 3a 3a 8e fb c9 3c b1 c9 ad bb 3a 94 87 3b
       0.0007119822 0.024656083 -0.0053035845 0.004137543
000030 1a 86 8b 3b be 33 54 3b 3e a8 51 bc 81 ed e5 ba
       0.0042579295 0.0032379474 -0.01279646 -0.0017542095
000040 f0 73 4d bc 04 87 8b 3c c9 95 9d 3c 4a 31 53 bc
       -0.012539849 0.017032154 0.019236462 -0.012890169
000050 90 59 2e bc 73 a8 73 bc 0e 94 89 3a 3a e2 3e 3b
       -0.010641471 -0.014871704 0.0010496394 0.002912654
000060 7c 69 eb 3b 8b 91 d8 bb 4c 1e 61 3c cc 84 cf bc
       0.0071842056 -0.006609147 0.0137401335 -0.025331877
000070 e1 04 79 3c 58 11 52 3c 9a 6f d9 3b 00 a7 4a bb
       0.015198917 0.012821518 0.0066356184 -0.0030922294
000080 c5 6e d8 bc 6c 99 a6 bb 67 f1 3b 3c 1d 9b 07 3c
       -0.026420007 -0.0050842073 0.011471129 0.008276728
000090 df d7 95 3c ff 02 7a bc 0f 7e b1 ba bd 11 6c 39
       0.018291412 -0.015259503 -0.0013541597 0.00022513322
0000a0 10 09 2a ba 9d d1 7f bc b0 eb b7 3b c6 83 0b 3c
       -0.0006486336 -0.015613941 0.005612813 0.008515304
0000b0 ef 2e 03 bd 95 50 de 3b ae 37 bd 3b 00 26 0c 3c
       -0.03202718 0.0067845085 0.00577446 0.008553982
0000c0 09 2e 87 3a 9d 64 ff 39 58 56 ec bc 58 a0 47 3c
       0.0010313402 0.00048712353 -0.028849766 0.012184225
0000d0 2d 2a cf 3c 04 32 5a bc db de 34 bd cd a8 9d bc
       0.025288666 -0.013317589 -0.044157844 -0.01924553
0000e0 36 a8 ab bb 4d e8 04 3c d8 f4 3d 3b 6b fd 32 bc
       -0.005238558 0.008112025 0.002898505 -0.010924677
0000f0 01 b1 12 3c 01 96 f2 bb 21 c2 b7 bc 67 68 fe 3a
       0.008953334 -0.0074031358 -0.022431435 0.0019409776
000100 84 aa 52 3c 48 5e 30 3c 3e 2a fe 3b bb 3d 0e bc
       0.012858037 0.010764666 0.0077565005 -0.00868171
000110 b2 b7 98 bc 14 b8 c7 ba 27 17 01 3c a0 9f ad 3c
       -0.01864228 -0.0015237355 0.007879055 0.02119428
000120 26 ef 2d 3c 56 2c 16 bc 69 42 31 bc 18 84 bd 3b
       0.010616099 -0.009165844 -0.010819056 0.005783569
000130 94 88 56 3c a5 6d c9 3c 06 d2 8c bc ed 1f fa bc
       0.013094086 0.024588415 -0.01718999 -0.030532802
000140 a4 c7 c8 bc ad 59 5b bc dc 97 9b 3c 3f 89 51 3c
       -0.024509259 -0.01338808 0.01899331 0.01278907
000150 bc c4 43 bc 0d 93 dc ba 64 10 9f ba 14 e1 79 bb
       -0.011948761 -0.0016828493 -0.0012135622 -0.0038128542
000160 25 e7 25 3c 93 b5 a8 3b 23 60 b9 ba ab f0 0b 3c
       0.01012591 0.0051485985 -0.0014143031 0.008541266
000170 3d e2 59 bc 97 66 a5 bc 49 fa b5 3c 6c a1 1e 3c
       -0.013298568 -0.02019052 0.022214072 0.009682041
000180 be a5 17 3b 06 a2 55 bc eb 81 56 bb 25 b3 ef bb
       0.0023139562 -0.013039118 -0.0032731246 -0.007315057
000190 c9 1a 0e bc 57 bf 66 3b e0 20 2e bc 60 0b f8 3b
       -0.008673378 0.0035209262 -0.010627955 0.0075697154
0001a0 97 f6 f6 3a 8f 3b 1f 3c dd b8 91 3c 5e fa 23 bc
       0.00188418 0.00971879 0.017788345 -0.010008423
0001b0 9b 53 ce ba 71 f0 4f 3b ca 77 b2 bb 7c 91 fa 3b
       -0.0015741469 0.0031729008 -0.005446409 0.0076467376
0001c0 33 91 25 bc 2e 15 04 bc e2 a7 1a 3c 1c 7b ee ba
       -0.010105419 -0.00806169 0.00943944 -0.0018194648
0001d0 da a4 29 ba c3 22 85 b9 d9 02 90 3c 66 8d a0 bc
       -0.0006471403 -0.00025393636 0.017579483 -0.019598674
0001e0 2c 82 8e bb fa d8 da 3b be 8b d2 ba 90 b3 26 3c
       -0.004349014 0.0066786977 -0.0016063375 0.010174647
0001f0 93 46 93 ba ea 5a 37 3b 02 d9 d8 3c 6b d9 43 bc
       -0.0011236243 0.0027977773 0.026470665 -0.011953692
000200 5f 2b 0b bd c2 4d 6e bc fa e1 90 bc ad 36 f2 3c
       -0.03397691 -0.014544906 -0.017685879 0.029567087
000210 74 5a 6d 3c a0 47 27 bb d7 ae 5a bc 1e ae e6 bb
       0.014486898 -0.002552487 -0.013347349 -0.0070397994
000220 77 06 a0 bb 84 43 fd bb 09 5d dc 3c db 94 a5 3b
       -0.004883583 -0.0077289958 0.026899831 0.0050531453
000230 c3 53 f6 3b 22 d8 25 bc 3a 71 a5 bc bb c7 d4 3b
       0.0075173094 -0.010122331 -0.020195592 0.0064935363
000240 94 5e b9 3c b9 4d 71 3c 06 c5 0c bb a5 c8 0c bc
       0.022628106 0.014728003 -0.002147974 -0.008592759
000250 fc fd 2e bb f5 e1 43 bb 90 64 b4 bb ef cc df 3b
       -0.002670168 -0.002988932 -0.005505152 0.00682985
000260 74 2b 9b b9 92 6d da bb 96 74 9c bb e6 c9 91 3b
       -0.0002959628 -0.006665894 -0.0047746403 0.004449117
000270 10 16 8e 3b 20 96 16 bc 8c 6c 54 3b 52 9e 50 b8
       0.004336126 -0.009191066 0.0032413332 -4.973851e-05
000280 a1 30 69 bb 85 ce 44 3b cb f4 47 bb c9 a7 36 3b
       -0.0035581964 0.0030030322 -0.0030510898 0.0027871004
000290 7b 9f 17 bc fd d0 ce bb 80 b4 52 bb 1e 65 38 bc
       -0.009254332 -0.0063115344 -0.0032151043 -0.011254577
0002a0 0b 7c 06 bc 76 24 87 ba fb e8 71 3b da b8 94 3b
       -0.008208285 -0.0010310549 0.0036912549 0.0045386376
0002b0 e5 eb a3 bb b6 62 1a 3c 84 b2 96 bb a8 0c 5c 3c
       -0.005002486 0.009422949 -0.0045989174 0.013430752
0002c0 ec 8c 17 3c 42 e0 e0 bc 60 5e 9f bb 4d e4 b1 3c
       0.009249907 -0.027450684 -0.0048635453 0.021715308
0002d0 fe 28 e9 39 1e 2c 2b 3c 8b 85 dc bb 18 53 3f 3b
       0.00044471765 0.01044753 -0.0067297867 0.0029193815
0002e0 84 dd 01 3c 5b d2 b3 bb c5 71 f6 bb cc 23 4a bc
       0.007926349 -0.005487723 -0.0075208866 -0.012337636
0002f0 db d9 02 3c 7c 7b ef bb 7d fd 81 3b c7 14 97 3b
       0.007986511 -0.0073084217 0.0039669857 0.004610631
000300 03 e0 80 3c b1 a3 13 3c a2 92 2e bc eb 1f 79 bb
       0.015731817 0.009011195 -0.010655077 -0.003801341
000310 68 1e 40 bc e1 87 5e bc 80 c1 ec bb 45 42 99 3c
       -0.011725999 -0.013582201 -0.0072252154 0.018708358
000320 9c 10 8c 39 f7 fd f2 3b bb ed bc bc eb 37 2f 39
       0.00026715256 0.007415529 -0.023062577 0.00016710132
000330 12 3f ae 3c 15 41 3c 3c cb bf 3e 3c ab bf a7 bc
       0.021270309 0.011490126 0.011642407 -0.020477137
000340 5e 38 34 3b 1b 45 56 3c 0e fe e7 3a 4c 15 04 ba
       0.0027499418 0.013077999 0.0017699616 -0.0005038574
000350 fc 4e 44 bc 61 ea 4a 3c 6f 10 70 ba ef 7b 24 ba
       -0.011981722 0.012384982 -0.0009157722 -0.0006274571
000360 d8 21 e0 bb 2d ac 13 3c 9e 87 d1 3c ac ce c2 bc
       -0.006839972 0.009013218 0.025577363 -0.02378019
000370 37 c8 27 ba 8f 41 84 bb ff 42 e6 bb e8 ca f7 39
       -0.0006400379 -0.0040361355 -0.0070270295 0.00047262688
000380 55 fa 87 3c cb bc 3b 3c 12 6d c5 bb 2d 87 86 bc
       0.01659886 0.011458586 -0.006024965 -0.016421879
000390 57 61 a9 bb 62 8c 2b 3c 67 6e 06 3c cc ad 89 3c
       -0.0051690745 0.010470482 0.008205033 0.016806506
0003a0 c5 64 48 3c 2a 59 39 bc d4 41 8c bb 90 15 2f bc
       0.012231057 -0.011312762 -0.0042803083 -0.010686293
0003b0 53 21 88 bb 0a bc 22 3c 4c 5a 4a bb 71 4c 52 bc
       -0.004154363 0.009932527 -0.0030876575 -0.012835608
0003c0 d9 5b 72 3b b9 6e da 3a 0e ca be 3b 77 14 4d 3c
       0.0036981015 0.0016665078 0.0058224266 0.012517086
0003d0 03 23 47 3c a0 eb f3 bb ed 20 67 bc 09 8c 36 bb
       0.012154344 -0.00744386 -0.014106971 -0.0027854464
0003e0 7e 1e c7 bb a9 31 39 3b 6f d5 95 bc 10 e6 a0 3c
       -0.006076633 0.002825836 -0.01829025 0.019640952
0003f0 05 da 12 3c 3a 33 54 bb 2e 74 ed bc 5a 1a 46 bc
       0.008963113 -0.0032379166 -0.028986063 -0.012091244

conv2.bias f4 [12]
000000 e9 be 53 3d bd 08 84 3d cb 68 ee 3c 7b 6e 93 3c
       0.051695738 0.06446979 0.029102704 0.017997017
000010 93 0c 80 3d 50 16 19 3d 69 50 39 bd dd eb 1d 3d
       0.06252398 0.037374794 -0.0452427 0.038555015
000020 8e cf 87 3c 57 17 ac 3c 9b c4 f0 bc 0c 73 9f 3d
       0.016578462 0.021007223 -0.029390624 0.07785615

fc1.weight f4 [30, 192]
000000 01 71 95 bd ce 45 36 3c 6b 4e a2 3d ed d0 85 bd
       -0.072969444 0.011125041 0.07925113 -0.0653399
000010 01 89 6b 3c ee d3 95 bd 95 bc 9d bd 41 ce a1 bd
       0.014375926 -0.07315813 -0.07701985 -0.07900668
000020 18 59 2b bd cd 1e d9 bc 27 1d 67 3d 37 2f 23 bd
       -0.041833013 -0.026503945 0.056424286 -0.03983995
000030 9c c4 fa bc 85 f5 93 bb 1e 6c 2e 3c a0 5e 94 bd
       -0.030611329 -0.004515352 0.010645894 -0.07244611
000040 7a a2 33 bb c8 a8 b7 3c 9e 00 3d 3c 5b 26 10 bd
       -0.0027410076 0.022419348 0.011535792 -0.03519283
000050 40 21 95 bd fd 6e a8 3c 31 b5 40 3d b9 88 70 bd
       -0.072817326 0.020560736 0.047047798 -0.05872414
000060 0e 90 80 bd 33 61 e4 3b 5d de 4a 3d ef 6b 0c 3a
       -0.06277476 0.006969595 0.04952847 0.00053566595
000070 00 ab 43 bc 36 d2 c0 bc ee 08 47 3d f4 8e 7a 3c
       -0.011942625 -0.023537736 0.0485925 0.015292872
000080 74 3f b9 ba 17 f1 33 bd 49 56 1d bd b3 45 b7 bc
       -0.001413329 -0.043931093 -0.038412366 -0.022372102
000090 9a a6 2f 3d 12 a0 94 bd c5 c0 a2 ba 92 b9 a8 bd
       0.042883493 -0.072570935 -0.0012417069 -0.0823852
0000a0 da e5 92 bc a3 fa 4b bd 3f da bc 3c 9f 31 97 bc
       -0.017931867 -0.049799573 0.023053287 -0.018456278
0000b0 69 ba 82 3c 77 7a 93 3c 48 55 70 3d ab 00 a2 bd
       0.015958028 0.018002732 0.05867508 -0.07910284
0000c0 66 08 8c 3d 01 ee 6a bd c1 a0 35 bd 7f 70 55 bd
       0.068375394 -0.057355884 -0.04434276 -0.052109238
0000d0 4e 64 79 3d 8d 8d 94 bd 5f f0 80 bd 0f e9 64 bd
       0.060886674 -0.07253561 -0.06295847 -0.055886324
0000e0 4f 29 fc bc 3b 3b 0d bd da 57 a4 3d c7 8d a1 3d
       -0.030781416 -0.034480315 0.08024569 0.0788837
0000f0 ef 2f 27 bd 0c b6 ab 3c 7a 06 a9 bd e5 80 8a 3d
       -0.040817197 0.02096083 -0.082531884 0.06762866
000100 ec 93 b9 bc 62 38 37 3d f3 45 a8 bd ce 1e 97 bd
       -0.022653542 0.044731505 -0.08216467 -0.073789224
000110 63 b8 32 bd c3 2d a2 3d 00 10 3a bd 01 25 15 bc
       -0.043632876 0.079188846 -0.045425415 -0.009103061
000120 e7 af 99 3d 12 68 10 bc 11 df 84 bd dd 93 23 bd
       0.07504254 -0.008813875 -0.06487859 -0.039935935
000130 9b 04 04 bc e6 d4 22 bd 0b f7 1a 3d bb da 04 bd
       -0.008057739 -0.039753817 0.037833255 -0.03243516
000140 23 5e 3c bd 7c d5 3d bd f1 8a 6a bd 22 0f 48 bd
       -0.045988213 -0.046346173 -0.05726141 -0.048842557
000150 32 07 af 3c 3d a7 65 3d 63 8c ac 3d 38 11 03 3c
       0.021365736 0.056067694 0.08425214 0.007999711
000160 29 2e 98 3d 06 3e bd 3c 95 05 b6 bb 2a 75 36 bd
       0.07430679 0.023100864 -0.0055548646 -0.04454533
000170 ce 07 6e 3d 74 83 ac bd a0 57 89 bb 9d 5b 2e bd
       0.058112912 -0.0842351 -0.004191354 -0.042567838
000180 63 26 5a 3d be 8d 93 3c 46 dd 48 3b 89 6f 3a 3d
       0.053259265 0.018011924 0.0030649467 0.045516524
000190 42 d8 bf 3c bd 98 ca bb f6 96 8c bd c7 d5 66 3c
       0.02341855 -0.0061827586 -0.06864731 0.014089054
0001a0 b1 e5 80 bd 3e f5 94 bc 66 f4 18 3a 0e 98 19 bd
       -0.0629381 -0.018183347 0.0005834758 -0.037498526
0001b0 60 c4 3b bd 99 52 91 3c 2f 41 26 bd 6c 4c bb 3c
       -0.045841575 0.017739581 -0.040589508 0.02286359
0001c0 10 7b e5 3c ef 9d 82 3b 74 a4 93 3c 37 1f 40 bd
       0.028012782 0.0039861123 0.018022753 -0.04690477
0001d0 2f 39 90 bd 1c fb 6e bc e5 5f 11 bc 33 93 25 bd
       -0.07042157 -0.014586236 -0.008872961 -0.040423583
0001e0 cb f6 ed bc 65 f9 16 bd c8 cb d0 3b a3 7a 63 3d
       -0.029048344 -0.036858935 0.006371949 0.055536877
0001f0 96 6f 69 3d 66 41 8c 3c da 77 01 3d 47 88 11 bd
       0.056991182 0.017121028 0.03160844 -0.035530355
000200 cd 09 98 bd 39 ee 17 3d c3 a5 6c 3d ce 04 8e bc
       -0.07423744 0.03709242 0.05777527 -0.017336275
000210 1e e6 71 3c 36 66 a3 3c 92 fb 78 3d aa a4 63 3d
       0.014764337 0.019946199 0.06078679 0.055576958
000220 f0 af 7a 3d d6 16 53 bc aa 37 94 bd ff f4 e4 3c
       0.061202943 -0.0128838625 -0.072371796 0.027948854
000230 96 d9 82 3d f0 f0 01 bd dd 21 eb bc 49 fb 62 bc
       0.063891575 -0.031723917 -0.02870267 -0.013853856
000240 d3 bc e5 3c f4 f4 01 bd 87 bc 50 bc 51 7b 86 bd
       0.02804414 -0.031727746 -0.012740261 -0.065664895
000250 3a c9 3c bd 6f b3 28 bd d6 2f 82 3c aa 88 5b bd
       -0.046090342 -0.041186746 0.01589195 -0.05359713
000260 b0 59 76 bc 41 7b 2f bd 0a e8 71 3d 70 20 98 3d
       -0.015036032 -0.042842153 0.05905918 0.07428062
000270 26 9e 31 bc 5f c9 82 3c c8 9b 52 3d 08 a3 49 3b
       -0.010840928 0.015965162 0.051418096 0.003076734
000280 97 90 29 3d a6 17 ea 3c d9 0b 8e 3d 4c 38 85 3d
       0.041397657 0.02857573 0.069358535 0.065048784
000290 b6 32 7a bd 3f 9d 95 bb f1 b6 8e bd 5f ee 7c bd
       -0.061083518 -0.0045658643 -0.06968487 -0.061750766
0002a0 b5 f5 9c bd 1a 46 9b 3d 09 05 b1 bd fd e8 ee bb
       -0.076640524 0.0758173 -0.086435385 -0.007290958
0002b0 6b 69 89 3d ed 95 61 3d d8 da 2e 3d 6e 33 ba bc
       0.0670956 0.05507462 0.042689174 -0.022729602
0002c0 a4 91 c5 bc 14 9b a9 bd a3 4e 11 3d fd 25 8b bc
       -0.024117298 -0.08281532 0.035475384 -0.016985888
0002d0 7c b0 01 bd 07 d3 a1 bc 27 3a 8f 3d 6e 07 90 bd
       -0.03166245 -0.019753946 0.069935136 -0.07032667
0002e0 90 97 86 bd 63 a6 a6 bc f6 73 23 bd 02 64 b9 bc
       -0.06571877 -0.020343011 -0.03990551 -0.022630695
0002f0 8a d3 7b 3d f3 86 80 3d c8 b6 3d 3d c5 fd 70 bd
       0.061481036 0.062757395 0.046316892 -0.058835763
000300 d5 9c 9a 3d 7f 89 98 bd 04 5d fd bc 69 df 92 3d
       0.075494446 -0.074481 -0.030928142 0.07171518
000310 d6 d2 f9 bc 40 3c df 3c b9 e4 1a bd 26 a2 93 bd
       -0.030496042 0.02725041 -0.037815783 -0.07208662
000320 82 88 81 3d c2 b7 28 bd 8f 29 67 3d 5b e0 8f bd
       0.06324865 -0.04119087 0.056436118 -0.07025214
000330 38 ad 29 3d b9 98 59 3d 97 17 1c bd 58 25 b6 bc
       0.04142496 0.053124163 -0.038108435 -0.022234604
000340 9c 49 89 3d b7 e2 d8 3c 82 fb 29 3c 97 92 73 bc
       0.06703493 0.026475294 0.010374906 -0.014866493
000350 3c 12 18 bd e2 86 0d 3d 85 d8 66 3d eb c3 38 3d
       -0.037126765 0.034552462 0.056358833 0.045108717
000360 55 45 ed bc e6 b0 47 bd 87 a0 60 3b 6d 19 29 3d
       -0.028963724 -0.048752688 0.003427537 0.041284014
000370 85 1b f5 bc a6 22 9f 3d 62 91 69 3d b9 7f a5 3c
       -0.029920349 0.077702805 0.057023413 0.020202504
000380 6d b4 98 3d 67 14 7f 3d 9c 84 79 bd 57 db 9f bb
       0.074562885 0.062275317 -0.06091748 -0.0048784423
000390 24 f5 7a 3a dc 5d 63 3d 25 65 30 bd 08 b3 b5 bd
       0.0009573272 0.055509433 -0.04306521 -0.08872038
0003a0 b2 ec 7a bd 01 c8 05 bd 06 ac d3 bc 18 9a 18 3d
       -0.061260886 -0.03266144 -0.025838863 0.03725633
0003b0 32 43 eb bc 24 3c 1f 3d 56 99 8f 3d 60 2c 7d bd
       -0.028718565 0.038875714 0.070116684 -0.061809897
0003c0 b4 14 70 3c a6 f3 1b 3d dc 07 f7 3c 6c 3f 9f 3c
       0.0146533735 0.038074158 0.030155115 0.019439422
0003d0 97 2f 32 bd b5 f2 98 bd 04 f3 0e 3d b8 e1 f6 bc
       -0.043502416 -0.07468168 0.034899727 -0.030136928
0003e0 d1 69 3c bd e2 78 87 3d 75 8f c0 ba 06 5e 81 bd
       -0.045999352 0.066148534 -0.0014691191 -0.06316762
0003f0 ec d4 48 3d 71 ce 77 bd bb ef f4 3b c6 a3 56 3d
       0.049031183 -0.060499612 0.007474867 0.05240228

fc1.bias f4 [30]
000000 8c 81 25 bd 84 96 d5 bb 9c 97 c2 bc b6 ba c0 bc
       -0.04040675 -0.006518187 -0.023753934 -0.02352653
000010 e5 c6 8b 3d 1d eb a8 bd f7 a2 36 bd 92 7e 62 3d
       0.068250455 -0.08247969 -0.04458901 0.055296488
000020 4e 20 14 3d 53 25 27 3b 14 b3 b6 3b 3f 84 53 bd
       0.03616362 0.0025504425 0.005575547 -0.05163979
000030 d4 80 99 3d a6 83 96 3d 47 5a 80 bd 10 19 3b 3d
       0.07495275 0.07349329 -0.06267219 0.0456782
000040 cc 70 a9 bd 42 b2 98 bd ab 92 42 3d 36 e5 bf bc
       -0.082734674 -0.07455875 0.047503155 -0.023424726
000050 b7 0c 96 bd a6 cc 0a bd 60 b1 6f bd db 2c ac bb
       -0.07326644 -0.033886574 -0.058518767 -0.0052543706
000060 71 f4 4c bc 40 f8 2e 3d e8 71 79 bd 20 7a 26 3d
       -0.012509451 0.04271722 -0.060899645 0.04064381
000070 19 6b f5 bc 38 4f d8 3c
       -0.029958295 0.026404962

fc2.weight f4 [10, 30]
000000 5d a9 47 be e8 c7 5f 3e e7 24 81 bd 7f f1 48 be
       -0.194982 0.21853602 -0.06305867 -0.19623373
000010 fd 6c 13 be 9c e4 ca bd 70 8f 86 bc b2 8e 61 3e
       -0.14397044 -0.09906885 -0.016425818 0.2202709
000020 51 61 ff bd 4a 51 ee 3d 0b 81 74 3e 7a 1a 79 3e
       -0.124697335 0.116365984 0.23877351 0.24326506
000030 b0 c4 b8 bd 89 35 ee 3d e5 36 69 3e d7 9d c7 3d
       -0.0902189 0.11631305 0.22774847 0.097469024
000040 a8 05 b2 3d 54 03 72 be c4 64 36 bd f8 17 71 3e
       0.08692485 -0.23634082 -0.04452969 0.235443
000050 9a e3 3d be 8d 06 21 be a6 83 0c bd 57 70 16 bd
       -0.18543854 -0.15725155 -0.034305237 -0.03672823
000060 b8 65 33 be e1 c6 51 be d3 ad 8a 3d fe 24 05 3e
       -0.17519271 -0.20486023 0.067714356 0.13002393
000070 41 a8 94 bd 29 23 e9 3d 5f 6d f6 3d 7f d7 2d bd
       -0.072586544 0.113836594 0.1203258 -0.04244184
000080 9f 4b e4 bd 8d f7 79 3e 9f 62 2f be 46 6e 21 be
       -0.11147236 0.2441084 -0.17127465 -0.15764722
000090 3f 4a 61 bc 62 ac 3a 3e f4 19 41 be ce d2 5f 3e
       -0.013750612 0.18229821 -0.18857557 0.2185776
0000a0 e9 83 9f bd 50 f5 5c 3e da e2 2c be 15 8b 1b be
       -0.07788832 0.21577954 -0.16883412 -0.15189774
0000b0 11 8e 2f be 81 0d 7a 3e 29 56 e5 3c 23 39 43 bd
       -0.17144038 0.24419214 0.027995186 -0.04766191
0000c0 8f 24 56 3e 13 6d d8 3d d4 38 5b bd e0 54 7d be
       0.20912383 0.10567679 -0.053520992 -0.24739408
0000d0 3c 48 fc 3b 2e 4f 8b bd f8 5e a8 3d f8 2f 02 3e
       0.0076990407 -0.06802212 0.08221239 0.12713611
0000e0 ec 27 f5 3d 32 6e e5 3c 12 10 f9 bd d4 cc f4 bd
       0.11970505 0.028006647 -0.12161268 -0.1195313
0000f0 7d c4 24 3d f8 fd c6 3d 53 17 53 be 4b 5d 4d be
       0.04022645 0.097164094 -0.20614366 -0.2005512
000100 4a 89 ae 3d 96 05 03 3e 7f d7 1f be e2 96 41 be
       0.085222796 0.127951 -0.15609549 -0.18905213
000110 be cd 70 3e 2d 84 56 bb 36 85 5e bc 68 96 e9 3c
       0.23515984 -0.0032732591 -0.013581565 0.028514102
000120 a2 45 fd bc f4 5c 2f 3e 5d f5 cc bd a5 99 c7 bc
       -0.030916993 0.17125303 -0.10007737 -0.024365256
000130 5f fe 72 be 62 9e 54 3e 99 4c 75 3e c4 79 ab bd
       -0.23729847 0.20763543 0.23955001 -0.08372834
000140 dd 46 53 be 19 91 80 be be 65 06 be 93 7a 04 be
       -0.20632501 -0.251107 -0.13124749 -0.12937383
000150 f4 6a 62 bb a5 31 21 be a8 f3 17 3d fe c5 77 bd
       -0.0034548612 -0.15741594 0.037097603 -0.060491554
000160 17 f9 d6 3d 7f 12 51 be cc df ba 3d 10 95 17 3e
       0.10496729 -0.20417212 0.09124717 0.14802957
000170 50 78 a4 3d 63 72 84 3e 0b 57 31 be 46 42 67 be
       0.0803076 0.2586852 -0.1731836 -0.22583875
000180 75 06 83 be a1 6e 0f 3e e2 13 7d be 9b d2 26 be
       -0.25590864 0.14007045 -0.24714616 -0.16291277
000190 01 d9 1b be a8 7c f8 bd 4c 0c 19 3e fc 2c 7d bc
       -0.15219499 -0.12133151 0.14946097 -0.01545262
0001a0 15 9e 5a 3e f7 80 27 be f9 41 15 be e1 1b a3 bd
       0.21349366 -0.1635779 -0.14575948 -0.07964302
0001b0 d2 19 89 bd 8f ee 33 3e 41 83 51 3e f4 87 62 be
       -0.06694378 0.17571472 0.20460226 -0.22122175
0001c0 c5 9d bf 3d 9b 78 12 bd 62 ca f7 3b 07 52 ba 3d
       0.09356264 -0.03575955 0.0075619677 0.09097677
0001d0 7d 62 77 be f3 f2 d1 bd 84 26 08 bd d2 fa 11 3e
       -0.24158664 -0.10251417 -0.033239856 0.14255837
0001e0 7d 8c 46 bd 05 4f 73 be 1a 6f 9d bd f3 6b 25 3e
       -0.048473824 -0.23760612 -0.076872066 0.1615446
0001f0 38 42 12 3e 7f df 75 3e 73 23 d1 bc 97 87 18 3d
       0.14283073 0.24011038 -0.025529599 0.037238684
000200 7a 7d 9f 3d e5 2b 67 be 78 3e 90 3d 4d b2 3a 3e
       0.07787605 -0.22575338 0.07043165 0.18232079
000210 6b 53 57 3e 8f 02 31 bd 7f 6b 2b be 10 a1 21 be
       0.21027915 -0.04321533 -0.16740225 -0.15784097
000220 69 83 8b 3c ca a4 41 be b4 8d ad 3d c8 96 43 be
       0.017030435 -0.18910518 0.08474293 -0.19100487
000230 09 9b 0b 3e d3 8b 24 3e 5d 1d 6a 3d 94 2c b8 3c
       0.1363336 0.16068964 0.05715691 0.022482194
000240 b0 33 6b be 37 e0 22 be fa 80 47 3e b4 a2 09 be
       -0.22968936 -0.15905844 0.19482794 -0.13440973
000250 9c 14 4b 3d 20 7d ea 3b bc 93 12 be 4b 0c 5e be
       0.0495802 0.0071560293 -0.14314169 -0.21684377
000260 5d f4 f9 bd 30 51 98 bd 93 c2 8a bd 2a 74 06 3e
       -0.12204812 -0.0743736 -0.06775393 0.1313025
000270 d3 7f 10 3e 8c 0d 62 be 61 50 b2 3d 71 6a 81 be
       0.14111261 -0.2207548 0.08706737 -0.2527652
000280 7e 82 d6 bc 5a 0c 9e bd c2 2e 40 be 9a 47 4e 3d
       -0.02618527 -0.077171996 -0.18767837 0.050361253
000290 cd 48 5d 3d bc 5e 16 3e 03 46 01 3e c0 9a dc 3d
       0.054024506 0.14684576 0.12624364 0.10771704
0002a0 4c 26 af bb ac 4c 14 3c 83 26 ab 3d ae df 2d be
       -0.0053451415 0.009051483 0.08356955 -0.16979858
0002b0 90 13 28 be af c5 aa 3b d5 b6 31 be 2c 57 83 bc
       -0.16413713 0.005211554 -0.17354901 -0.016032778
0002c0 c4 12 2f 3e 5a 5e da 3d 4e ba 35 3d 5c 3f 37 3e
       0.17097002 0.106625274 0.044367127 0.17895263
0002d0 01 fc 1c be 4c 65 f8 3d 4b 99 08 bc 71 53 53 be
       -0.15330507 0.12128696 -0.008337329 -0.20637299
0002e0 bc d6 bc 3d dc c8 89 bd a6 2b 00 bd 53 cb 3e be
       0.09220645 -0.06727764 -0.031291626 -0.1863225
0002f0 31 18 00 3e 16 2b 14 3e fd 65 20 be c6 95 6d 3e
       0.12509228 0.14469561 -0.15663905 0.23201665
000300 f1 f0 b5 3d 8f 2b 31 be 22 f5 26 be da e3 35 be
       0.088838466 -0.17301773 -0.16304448 -0.177627
000310 70 ea 5c 3e 48 ee 44 be db 46 07 3d 49 fa fd bd
       0.21573806 -0.19231522 0.033026557 -0.12401254
000320 24 5a 06 bd 97 b7 9d 3c 05 d5 63 3d 7f 69 29 3d
       -0.03280081 0.019252582 0.055623073 0.041360375
000330 99 47 71 be d5 f3 bc 3d 0b 2a 03 3c 00 77 60 3e
       -0.23562469 0.09226195 0.008005629 0.21920395
000340 82 38 15 be 9b 38 c2 3c cf b9 dc bc 1a 72 44 3d
       -0.14572337 0.023708632 -0.02694407 0.04796038
000350 c8 87 1f bd 91 8b 50 3d 9a 48 3b 3e c6 2d 75 3b
       -0.03894785 0.05091435 0.18289414 0.0037411316
000360 e6 05 3e 3e 5c 8c 75 3d 0e e8 b9 bd dc a8 d0 3c
       0.18556938 0.05994831 -0.09077464 0.025471143
000370 43 05 5d be ec 0c 03 be 51 26 12 bc 83 b6 3f be
       -0.21584038 -0.12797898 -0.008920268 -0.18721966
000380 30 92 05 3e 93 4d 28 3e 7d 95 24 3e 99 e8 e2 bd
       0.13044047 0.16435842 0.1607265 -0.11079521
000390 84 2c 63 be 4f 74 00 bd c9 54 27 3e e9 25 0c 3e
       -0.2218495 -0.03136092 0.16340937 0.13686337
0003a0 13 13 09 3e eb cc 09 3e d0 98 56 3e 26 a0 33 be
       0.13386182 0.13457076 0.20956731 -0.1754156
0003b0 5b 19 96 bd e2 1d 69 be 4f a6 7b 3d d1 b3 28 3e
       -0.07329055 -0.22765306 0.0614379 0.16474845
0003c0 4d 21 65 3e 3b ec 26 3e f9 a2 48 3e 84 61 2e be
       0.22375984 0.16301052 0.19593419 -0.17029387
0003d0 52 74 bc 3d 50 07 07 3c 29 6a 6e 3e 98 b0 5a 3e
       0.09201874 0.0082414895 0.23282684 0.21356428
0003e0 be d5 69 be ae 99 69 bc 9a e1 2b be 71 17 cf 3c
       -0.22835442 -0.0142578315 -0.16785279 0.025279732
0003f0 41 44 40 bc ad 35 96 bc fd f4 72 be 10 66 6f be
       -0.011735023 -0.018336141 -0.23726268 -0.23378778

fc2.bias f4 [10]
000000 22 61 07 bd ef f3 b7 bd b1 28 ff bb 1b e1 dc 3c
       -0.033051617 -0.089820735 -0.007786833 0.026962807
000010 2d 9a 8a 3c 34 2b bb 3d 0f 70 8a bd a5 39 c4 3d
       0.01691922 0.091391 -0.06759655 0.09581307
000020 3a 11 01 3d ea f8 02 3e
       0.03151057 0.12790266
