LeNet/lenet5-epoch-25_loss-5.223910_error-2.41%.pth (torch, 257377 bytes, 26 tensors)

C1.weight f4 [6, 1, 5, 5]
0	0x3f72ad26	0.94795454
1	0xbf838edf	-1.0277976
2	0xbfc15042	-1.5102618
3	0xbfaffa43	-1.3748249
4	0xc0074dc9	-2.1141226
5	0x3f662102	0.89894116
6	0x3de730ba	0.11288591
7	0x3ed94142	0.424326
8	0xbe632d2c	-0.221852
9	0xbfee2c58	-1.8607283
10	0x3f59867c	0.8497083
11	0x3efdf6ef	0.49602458
12	0x3f2e7208	0.6814275
13	0xbe8ee9ea	-0.27912837
14	0xbfd7b83f	-1.6853102
15	0x3d106aa6	0.035257958
16	0x3f15155a	0.58235705
17	0x3e97ee58	0.2967403
18	0xbf2178d0	-0.6307497
19	0xbf8da34e	-1.1065462
20	0x3db1a912	0.08674826
21	0xbd9ec267	-0.07751923
22	0xbf84c862	-1.0373652
23	0xbf85d777	-1.045638
24	0xbed99089	-0.42493084
25	0x3f4e5caf	0.80610174
26	0x4011fea1	2.2811663
27	0x3f9dae71	1.231886
28	0x3c832442	0.0160085
29	0x400ac479	2.1682417
30	0xc08b68f4	-4.3565617
31	0xbf0905ee	-0.53524673
32	0x3d3d68eb	0.046242636
33	0x3e5b33c1	0.21406461
34	0x3e84eb99	0.25960997
35	0xc02befd8	-2.686514
36	0xbf8a67f5	-1.0812975
37	0xbfb91c0d	-1.4461685
38	0xbf818a57	-1.0120343
39	0xc027e4c1	-2.623337
40	0xbf0a0dfc	-0.5392759
41	0xbfd26840	-1.6438065
42	0xc01149e8	-2.2701359
43	0xbfd14400	-1.6348877
44	0xc0474810	-3.1137733
45	0x40019c6b	2.025172
46	0x3e356661	0.17714836
47	0x3f45fb77	0.7733683
48	0x3fbb4daa	1.4633076
49	0x3fcf3267	1.6187257
50	0xbf497218	-0.7868972
51	0xbf163a02	-0.5868226
52	0xbec27b3c	-0.37984645
53	0xbeedf0b5	-0.46472707
54	0xbf17d140	-0.59303665
55	0xbee0d6aa	-0.43913776
56	0xbe3136d8	-0.17306077
57	0xbec89a53	-0.3918024
58	0xbf76d0ed	-0.96412545
59	0xbe41dd8c	-0.1893217
60	0xbf6851c3	-0.9074976
61	0xbf196b38	-0.5992923
62	0xbede8a9e	-0.43465132
63	0xbf13e768	-0.5777497
64	0x3f369ff5	0.71337825
65	0xbfa0ffda	-1.257808
66	0xbefb4af8	-0.49080634
67	0x3f5ba48e	0.85797966
68	0x3f16a073	0.58838576
69	0x3f969f24	1.1767316
70	0x3f9c53bb	1.2213053
71	0x3f96aaab	1.1770834
72	0x3f8f491c	1.1194186
73	0x3ec024dd	0.37528124
74	0x4004ca7a	2.0748582
75	0x3ee3c214	0.44484007
76	0x3e34a78a	0.17642036
77	0xbf8f753c	-1.1207652
78	0xc0066466	-2.0998778
79	0xbfb0296a	-1.3762639
80	0x3e80da55	0.25166574
81	0xbf213da8	-0.62984705
82	0xbffcbb10	-1.9744587
83	0xbf0f7395	-0.5603574
84	0x3f1b7d9b	0.60738534
85	0x3e970f51	0.29503873
86	0xc01f2d93	-2.4871566
87	0xbff714d3	-1.930323
88	0x3f216ccb	0.6305663
89	0x3f56c9ba	0.8390156
90	0xbeb1272a	-0.34600192
91	0xbfdd95da	-1.7311356
92	0x3ea080bd	0.3134822
93	0x3e4827b0	0.1954639
94	0xbdd86aa6	-0.105672166
95	0xc027ff73	-2.6249664
96	0xbfb5a168	-1.4189882
97	0x3efafb62	0.49019915
98	0xbf2de4b2	-0.67927086
99	0x401560f2	2.334042
100	0xbdff7272	-0.124730006
101	0x3f05d1d1	0.5227328
102	0x3f0c5a51	0.5482531
103	0x3efd2889	0.49444988
104	0x3efdc36e	0.49563164
105	0xbdb20e01	-0.08694077
106	0x3e929d12	0.2863546
107	0xbe2fcb1f	-0.17167328
108	0xbf16739d	-0.5877016
109	0xbe81635c	-0.25271118
110	0x3e86ad97	0.26304314
111	0x3eaafa6d	0.33394185
112	0xbe90430e	-0.2817616
113	0xbe7bc0fe	-0.2458534
114	0x3dfa802c	0.12231478
115	0x3e9ca2b9	0.30592898
116	0x3dccde5c	0.10003349
117	0xbef1ff74	-0.47265208
118	0xbe274aa2	-0.16337064
119	0x3ed45fc4	0.41479313
120	0x3e294e8f	0.16533874
121	0x3df49ae6	0.11943607
122	0xbe1aee46	-0.15129957
123	0x3ef9fb26	0.48824424
124	0x3f65725c	0.89627624
125	0x3dfa7a60	0.122303724
126	0x3eb0bfbb	0.3452128
127	0x3e9b9b35	0.3039185
128	0x3f0794a1	0.52961165
129	0x3f1d7a2b	0.6151454
130	0xbe2497e2	-0.16073564
131	0xbe3ebec9	-0.18627466
132	0xbe16faf7	-0.14744173
133	0xbddc6347	-0.10761123
134	0xbd35ce8f	-0.044386443
135	0xbdf416ed	-0.11918435
136	0xbd9d1521	-0.07670046
137	0xbe34d0cc	-0.17657775
138	0xbe8b0fc5	-0.2716047
139	0xbe48293a	-0.19546977
140	0xbc7dbc26	-0.015486753
141	0xbde30422	-0.11084773
142	0xbec37baa	-0.38180286
143	0xbf097ebd	-0.5370901
144	0xbeb89c90	-0.36056948
145	0x3dea7468	0.11447984
146	0x3dcd0436	0.10010569
147	0xbe60bc9a	-0.21946946
148	0xbf00531f	-0.5012683
149	0xbea3d4a5	-0.31998172

C1.bias f4 [6]
0	0xbf6f76da	-0.9354073
1	0xbf9e4373	-1.2364334
2	0x3e732eb2	0.23748282
3	0xbf97fb46	-1.1873558
4	0xbf193d7c	-0.5985944
5	0x3f2da788	0.6783376

S2.weight f4 [6]
0	0xbf2778fd	-0.6541899
1	0x3f1b82a2	0.60746205
2	0x3f04516c	0.5168674
3	0x3ef14696	0.47124165
4	0x3f766275	0.96243984
5	0xbf822999	-1.0168945

S2.bias f4 [6]
0	0x3f9456ea	1.1589024
1	0xbee44112	-0.44580895
2	0x3e75be78	0.2399844
3	0xbd0814a8	-0.033222824
4	0xbd86af7a	-0.06576438
5	0xbf7054d3	-0.9387943

C3.conv0.weight f4 [1, 3, 5, 5]
0	0xbcab73c1	-0.02092922
1	0x3c40236f	0.011727198
2	0xbcdcc3ff	-0.026948927
3	0x3cd81734	0.026378252
4	0xbd019f1a	-0.03164587
5	0xbc5c11dd	-0.013431993
6	0x3c86ee78	0.016471133
7	0x3cd022cd	0.02540722
8	0xbc84cd62	-0.016211215
9	0xbcb301e0	-0.02185148
10	0xbc0b9964	-0.008520458
11	0x3bab43ce	0.005226589
12	0x3c8b4617	0.017001195
13	0xbc0707ee	-0.008241637
14	0xbcc4399e	-0.023953255
15	0x3c5ce14c	0.013481449
16	0x3ce99864	0.028515048
17	0x3bc5e26f	0.006038956
18	0x3cbb75b6	0.022883277
19	0xb979e90e	-0.0002383331
20	0xbae7e04c	-0.0017690747
21	0x3c3003f9	0.010743135
22	0xbcb4c3bc	-0.02206599
23	0x3cbf714b	0.023369452
24	0xbce3349a	-0.027735043
25	0xbcfeec39	-0.0311185
26	0x3b83840e	0.004013545
27	0xbc89a311	-0.016801389
28	0xbade9cca	-0.0016983983
29	0x3c86d466	0.016458701
30	0x3bd0d311	0.0063728173
31	0x3c75bf19	0.0149991745
32	0x3cb74eaa	0.022376377
33	0x3ceeeff9	0.029167162
34	0xbb3a31a8	-0.0028410945
35	0xbb8e9fbb	-0.0043525374
36	0x3c44e41d	0.012017277
37	0x3cea686d	0.028614247
38	0x3ab7f31c	0.0014034244
39	0x3c53283b	0.01288801
40	0xbae931e1	-0.0017791354
41	0xbc8be02d	-0.017074669
42	0x3cae2015	0.021255532
43	0x3abf68de	0.0014603396
44	0x3ab60c3a	0.0013889142
45	0x3ccf9fb4	0.025344707
46	0x3c9b6069	0.01896687
47	0xbc963b83	-0.018338924
48	0xbcf8ffeb	-0.030395469
49	0xbc837c5f	-0.016050516
50	0xbcb2b85d	-0.021816427
51	0x3cc371a5	0.0238579
52	0xbce4f393	-0.027948176
53	0xbbb1371b	-0.0054081804
54	0x3c17cc93	0.009265083
55	0x3ce25a92	0.027631078
56	0xbbd9e9e1	-0.006650195
57	0xbccba713	-0.02485994
58	0x3c45ccf5	0.012072791
59	0x3bd88c0e	0.0066084927
60	0xbd02c670	-0.031927526
61	0x3caad414	0.02085308
62	0xbc729d4f	-0.014808013
63	0xbcf79b7e	-0.030225512
64	0xbd07abba	-0.033122756
65	0x3ca9149a	0.020639706
66	0xbc44c40b	-0.012009631
67	0x3a00aa9c	0.0004908235
68	0x3b970cdb	0.004609687
69	0xbca3ce8f	-0.019995956
70	0xbcd93460	-0.026514232
71	0xbba1bf84	-0.0049361605
72	0xbcfa2799	-0.03053646
73	0x3ceb857a	0.02875017
74	0x3c66788f	0.014066829

C3.conv1.weight f4 [1, 3, 5, 5]
0	0x3e138aa0	0.1440835
1	0xbea00036	-0.3125016
2	0xbf1268d4	-0.57191205
3	0xbf975d52	-1.1825354
4	0x3f43e158	0.7651572
5	0xbe7cbbad	-0.24680968
6	0x3e7e1664	0.24813229
7	0x3ed48845	0.41510215
8	0xbf3e2c7b	-0.7428662
9	0x3e49042a	0.19630495
10	0xbf8b473a	-1.0881112
11	0xbb045e4d	-0.002019781
12	0x3e81b39a	0.25332338
13	0x3f003881	0.5008622
14	0x3fbef7d4	1.4919381
15	0xbf46035b	-0.7734887
16	0x3f4c301e	0.7976092
17	0x3e56bad3	0.20969705
18	0x3f762f4a	0.9616591
19	0x3fa0f9d6	1.2576244
20	0x3e836959	0.2566631
21	0x3e705816	0.23471102
22	0xbda3a238	-0.07989925
23	0x3f87ea3a	1.0618355
24	0x3f995503	1.1979069
25	0x4016a011	2.3535197
26	0xbebf049e	-0.3730821
27	0xbc570e18	-0.013125919
28	0xbec6cae5	-0.3882667
29	0xbebd6f80	-0.3699913
30	0xbf1000d0	-0.5625124
31	0xbed350a4	-0.4127246
32	0x3f9f91d0	1.2466373
33	0x3d7dec2a	0.0619928
34	0x3ffdd70b	1.9831251
35	0x3de50439	0.11182446
36	0xbf95a224	-1.1690106
37	0xbf30664c	-0.6890609
38	0xbfdc3b96	-1.7205684
39	0x3f2a7ba9	0.6659494
40	0x3f0a173e	0.53941715
41	0xbd581435	-0.052753646
42	0xbf06d721	-0.5267201
43	0xbf241d02	-0.6410676
44	0x3f731675	0.9495614
45	0xbfd0783a	-1.628669
46	0xbe4d55be	-0.2005224
47	0xbdd9fabc	-0.10643527
48	0xbf9fa471	-1.2472059
49	0xbe675c4c	-0.22593802
50	0x3fc3bca3	1.5291942
51	0x3d1e9435	0.03871556
52	0x3fa45d1c	1.2840915
53	0x3f1b7e03	0.60739154
54	0xbbf4f2e7	-0.0074752453
55	0xbec64c4f	-0.38730094
56	0x3f4f6c83	0.8102495
57	0xbf08ad6c	-0.5338962
58	0xbf41515e	-0.7551478
59	0xbf191bc4	-0.5980799
60	0xbef3b80b	-0.4760135
61	0x3f3ec533	0.7451965
62	0xbd35387a	-0.044243313
63	0xbeaac41c	-0.33352745
64	0xbf28a671	-0.6587897
65	0xbe95aeef	-0.29235026
66	0x3df2a0c4	0.1184707
67	0xbe9c01cf	-0.3047013
68	0xbed6e72e	-0.4197325
69	0xbfa31655	-1.274119
70	0x3e694340	0.2277956
71	0xbec28aa7	-0.37996408
72	0xbf8329f1	-1.0247175
73	0xbf8849d0	-1.0647526
74	0xbfb117de	-1.3835409

C3.conv2.weight f4 [1, 3, 5, 5]
0	0xbdb30c38	-0.08742565
1	0xbd813b35	-0.06310121
2	0xbd85bf97	-0.065306835
3	0xbe8d872c	-0.2764219
4	0xbeb79906	-0.35858935
5	0xbdb3746e	-0.087624416
6	0xbd155be6	-0.036464594
7	0xbd837173	-0.06418123
8	0xbe62ddaa	-0.2215487
9	0x3dbeab5a	0.093100265
10	0xbe9c57d2	-0.30535752
11	0xbe874547	-0.26420042
12	0xbde19ffa	-0.11016841
13	0x3e495fb3	0.19665413
14	0x3f02316f	0.5085668
15	0xbe804698	-0.2505386
16	0xbd1cd89c	-0.038292512
17	0x3e65ecd5	0.22453626
18	0x3e8a8031	0.27050927
19	0x3e1cdeb6	0.15319332
20	0x3d933bd8	0.07189149
21	0x3e84049b	0.25784764
22	0x3eb959ee	0.36201423
23	0x3e585c49	0.21128954
24	0x3e71c393	0.23609762
25	0xbd8ddab0	-0.06926477
26	0x3dc506d5	0.09620444
27	0xbb330f11	-0.0027322213
28	0x3de4ed72	0.111781016
29	0xbd18e0b8	-0.037323684
30	0xbe1e1bc7	-0.15440284
31	0xbcc80959	-0.02441852
32	0xbe30de13	-0.17272215
33	0xbe1ca39d	-0.15296789
34	0xbd957b9a	-0.07298966
35	0xbdbd44cb	-0.09241637
36	0xbdc06f40	-0.09396219
37	0xbe47a9a6	-0.1949831
38	0xbe2a42c9	-0.16627039
39	0x3caab685	0.020838985
40	0xbd251e8f	-0.040312346
41	0x3cc3989e	0.023876484
42	0xbd83dcff	-0.06438636
43	0xbdcc01f7	-0.09961312
44	0xbe0069e8	-0.125404
45	0xbbeef079	-0.00729185
46	0xbc8f9e17	-0.017531438
47	0xbd9af338	-0.075659215
48	0x3d846fc3	0.06466629
49	0xbe34e7a6	-0.17666492
50	0xbcb006ee	-0.02148768
51	0x3e043b53	0.12913255
52	0x3b55301a	0.0032529891
53	0x3d3a4f7f	0.04548597
54	0x3d340121	0.04394639
55	0x3e07b3cb	0.1325218
56	0x3e103012	0.14080837
57	0x3d1552eb	0.03645603
58	0x3de74782	0.11292936
59	0x3db685e1	0.08912254
60	0x3dcda233	0.10040703
61	0x3d6bcf71	0.05757088
62	0x3d74661f	0.059667703
63	0x3cbf8fc6	0.023383986
64	0xbd9e0597	-0.0771591
65	0x3d6eb699	0.058279607
66	0x3c17e124	0.009269986
67	0xbca89765	-0.020580003
68	0xbe32fdf8	-0.17479694
69	0xbe115478	-0.14192379
70	0xbc64a213	-0.013954657
71	0xbd394633	-0.045232963
72	0xbca00f11	-0.019538434
73	0xbcc5bdea	-0.02413841
74	0x3dc5d346	0.09659438

C3.conv3.weight f4 [1, 3, 5, 5]
0	0xbcf0b79d	-0.029384429
1	0x3f5940a9	0.8486429
2	0x3f240d1d	0.6408251
3	0x3f576387	0.8413624
4	0xbfad2684	-1.3527379
5	0x3f144a3b	0.57925767
6	0x3f419929	0.7562433
7	0x3f14b7e4	0.58093095
8	0x3f3507d0	0.70715046
9	0x3de03cac	0.10949072
10	0x3f022df5	0.50851375
11	0xbebadeb6	-0.3649804
12	0x3e1c7c60	0.1528182
13	0x3f19909c	0.5998628
14	0xbe2de1fd	-0.16980739
15	0x3f243301	0.64140326
16	0x3e58b907	0.21164332
17	0x3f524926	0.82142866
18	0xbe4a3c27	-0.19749509
19	0x3eae172a	0.34002048
20	0x3f754132	0.95802605
21	0x3f3ee11b	0.74562234
22	0x3fcc5dad	1.5966088
23	0x3f199571	0.59993654
24	0x3fb13bc9	1.384637
25	0x3ec2c45c	0.38040435
26	0x3f4b0bf4	0.79315114
27	0x3ecc2b82	0.39876944
28	0xbd7bdd9e	-0.061490647
29	0x3f3fe43b	0.7495763
30	0xbd3ccd8d	-0.046094466
31	0x3e914920	0.28376102
32	0xbe9ed219	-0.31019667
33	0xbdac38f6	-0.08409302
34	0x3e465e2a	0.19371858
35	0xbe39ce52	-0.18145111
36	0x3f0bfe6f	0.5468511
37	0x3e8d3b22	0.27584177
38	0x3e92eb42	0.28695112
39	0x3bb25eae	0.0054434156
40	0xbecbd10c	-0.39807928
41	0xbd10b8ec	-0.035332605
42	0x3d9ae4dc	0.07563183
43	0x3e42ad1f	0.19011353
44	0xbe30f748	-0.1728183
45	0x3d4b3527	0.049611237
46	0x3e50989d	0.20370717
47	0x3e4f78cd	0.20260926
48	0x3e144929	0.14481033
49	0xbea2e119	-0.3181236
50	0x3d6ebd2b	0.058285873
51	0xbf38645c	-0.72028136
52	0xbf0857f4	-0.53259206
53	0xbe8574b5	-0.26065603
54	0xbeb0d0a4	-0.3453418
55	0x3dae762c	0.08518633
56	0x3ea580ea	0.32324916
57	0x3ea1ba51	0.3158746
58	0x3e5c4648	0.21511185
59	0xbe42e3db	-0.19032232
60	0xbe91dc29	-0.2848828
61	0x3e4aca8a	0.19803825
62	0x3e50e982	0.20401576
63	0x3e680d78	0.22661388
64	0xbe1c84f9	-0.152851
65	0x3d4b9f06	0.049712203
66	0x3dbe4399	0.09290237
67	0x3e880249	0.26564243
68	0x3ec06cdc	0.37583053
69	0xbb9c565c	-0.004771037
70	0x3ef52391	0.47878698
71	0xbe8b08d6	-0.2715518
72	0xbe17f085	-0.14837845
73	0x3d6bf84f	0.057609852
74	0xbeea122b	-0.45716986

C3.conv4.weight f4 [1, 3, 5, 5]
0	0xbc16ee78	-0.009212129
1	0x3c8fe9e8	0.01756759
2	0xbc9b81aa	-0.018982727
3	0x3c471e25	0.012153183
4	0x3c94c90f	0.018162278
5	0x3d076f55	0.03306516
6	0xbc3b5493	-0.011433738
7	0xbbd0acf3	-0.0063682734
8	0x3d0432d0	0.03227502
9	0xbcc20a5e	-0.023686584
10	0x3cc6a66e	0.024249282
11	0xbb5e7797	-0.0033945793
12	0x3cae360f	0.021266012
13	0x3caf8403	0.021425253
14	0x3ccaf814	0.024776496
15	0xbcd37148	-0.025810853
16	0xbcbaa3d1	-0.022783192
17	0xbb1e4204	-0.0024148235
18	0x3cd940c4	0.02652014
19	0x3c8d5ec4	0.017257102
20	0x39da45ff	0.0004163235
21	0xbd03f950	-0.032220185
22	0x3cf6cbcc	0.030126475
23	0xbc6fce3e	-0.014636574
24	0x3cb8c554	0.02255503
25	0x3ce62a67	0.02809639
26	0xbc84dbfb	-0.016218176
27	0xbbd4a6e0	-0.0064896196
28	0x3c9a5802	0.018840794
29	0x3c2057f7	0.009786597
30	0xbad25535	-0.0016047122
31	0xbb3b70c0	-0.002860114
32	0x3b8412c8	0.004030559
33	0xbcb2009d	-0.021728808
34	0xbc292185	-0.010322933
35	0x3c371d47	0.011176414
36	0x39ab1556	0.00032631558
37	0x3bf84f49	0.007577811
38	0xbcce1d0c	-0.025160335
39	0x3cc00225	0.023438523
40	0x3c3211f9	0.010868543
41	0xbcdff9e9	-0.027340846
42	0xbad10441	-0.0015946702
43	0xbbd86c8a	-0.0066047357
44	0x3c41eb50	0.011835888
45	0x3cc5b05d	0.024131948
46	0xbcc0696f	-0.023487775
47	0xbcd67386	-0.026178133
48	0x3cd80120	0.026367724
49	0xbcc6fe76	-0.024291258
50	0x3bd5de00	0.0065267086
51	0xbac43e3c	-0.001497216
52	0x3b736d3f	0.0037143973
53	0x3bf9b60f	0.00762058
54	0x3b4c51a8	0.00311766
55	0x3c9e9fab	0.019363245
56	0x3caf453e	0.021395322
57	0xbce1c763	-0.027560895
58	0x3c74f0e8	0.014950015
59	0x3c952517	0.018206162
60	0xbb8671b1	-0.0041029085
61	0x3c9b5cc3	0.01896513
62	0x3cb046cc	0.021518134
63	0xbcf7c75c	-0.03024643
64	0x3b18de9e	0.002332605
65	0x3ca1c874	0.019748904
66	0xbb3be0a2	-0.0028667827
67	0xbcd2accb	-0.02571716
68	0xbc212cb0	-0.0098373145
69	0x3cc4dd61	0.024031343
70	0xbbc782a3	-0.006088571
71	0x3c0584c2	0.008149328
72	0xbc754862	-0.014970871
73	0xbcc05311	-0.02347711
74	0x3b112343	0.0022146262

C3.conv5.weight f4 [1, 3, 5, 5]
0	0x3d888695	0.066662945
1	0xbe4dfaca	-0.201152
2	0x3f16cb8f	0.58904356
3	0x3f9c9d99	1.2235595
4	0x3f08d704	0.5345309
5	0x3cf0a048	0.029373303
6	0x3e9a4686	0.3013193
7	0x3f1e1b93	0.61760825
8	0x3d959c06	0.0730515
9	0x3f2450dc	0.6418588
10	0x3e8f9fb4	0.2805153
11	0x3ea46ce3	0.32114324
12	0x3ec7367b	0.38908753
13	0xbddc6f81	-0.10763455
14	0x3f1e6b34	0.6188233
15	0x3f2474b5	0.6424058
16	0x3f2207b7	0.6329302
17	0x3f4cabf8	0.79949903
18	0x3e1fdc1e	0.15611312
19	0x3ea88c24	0.3291942
20	0x3f67493f	0.9034614
21	0x3f475af3	0.7787315
22	0x3ef706fd	0.4824752
23	0x3e22c7b5	0.15896495
24	0x3f10483a	0.5636021
25	0x3f106ddf	0.5641765
26	0x3f190316	0.59770334
27	0x3f86a306	1.0518501
28	0x3f8d3f8d	1.1035019
29	0x3e1c65af	0.15273164
30	0xbd6dadd5	-0.058027107
31	0x3e18b6ab	0.14913432
32	0x3f253e89	0.64548546
33	0x3f2c4493	0.67292136
34	0xbf47a1aa	-0.77981055
35	0x3eee0842	0.46490675
36	0x3f68f867	0.9100403
37	0x3f333919	0.70009
38	0x3f0af4cc	0.5427978
39	0x3e8c2150	0.27369165
40	0xbe0c93f2	-0.13728312
41	0x3e8d8be7	0.276458
42	0x3e912aa0	0.28352833
43	0x3ea2678d	0.31719628
44	0xbe490e96	-0.1963447
45	0x3f405710	0.75132847
46	0x3fa1341e	1.259403
47	0x3f823adf	1.0174216
48	0x3f59cd65	0.8507903
49	0x3e7d4d1b	0.24736445
50	0x3ede937d	0.434719
51	0x3e08fc48	0.13377488
52	0x3dfe3b7b	0.12413689
53	0xbe885d1f	-0.26633546
54	0x3ea22325	0.31667438
55	0x3e1eda2e	0.15512916
56	0xbe919775	-0.28435865
57	0xbe7acc0f	-0.24491905
58	0xbe38838e	-0.18018934
59	0x3f1424e9	0.5786882
60	0x3e1189d3	0.14212732
61	0xbea896d4	-0.32927573
62	0x3b5de064	0.003385567
63	0x3d4d3aaf	0.050104793
64	0x3da3301c	0.079681605
65	0x3edc9258	0.430804
66	0x3e346eea	0.17620435
67	0x3e9c7755	0.30559793
68	0x3df4f9e7	0.119617276
69	0xbdf8b1f8	-0.1214332
70	0x3e423f08	0.18969357
71	0x3d040ed0	0.03224069
72	0xbe542cf2	-0.2072027
73	0xbeaf37f9	-0.3422239
74	0xbd6ce3ec	-0.05783455

C3.conv6.weight f4 [1, 4, 5, 5]
0	0x3f72922d	0.94754297
1	0x3fc1c56b	1.5138372
2	0x3fa915c3	1.3209766
3	0x3fc291ff	1.5200804
4	0x3f80f23e	1.0073926
5	0x3f9c67e5	1.2219206
6	0x3f7ebb8b	0.9950492
7	0x3f5a9caf	0.8539533
8	0x3e4401b0	0.19141269
9	0x3ed5678e	0.41680568
10	0x3f4a4528	0.79011774
11	0x3f19bc2c	0.6005275
12	0x3d0ba41b	0.03409205
13	0xbe6f5af2	-0.23374537
14	0x3f40785b	0.7518365
15	0x3e44e98d	0.19229718
16	0x3e67b230	0.22626567
17	0xbf005713	-0.50132865
18	0xbe765525	-0.24055918
19	0xbf5bb9aa	-0.85830176
20	0x3d944a96	0.07240789
21	0x3dd9fd7d	0.10644052
22	0xbe503c83	-0.20335583
23	0x3d0b9449	0.034076963
24	0xbfd49ac7	-1.6609734
25	0x3fb8358b	1.439134
26	0x3fd7fed5	1.6874644
27	0x3e2e4320	0.17017794
28	0x3ee77c9b	0.45212254
29	0xbe1b1699	-0.15145339
30	0xbf5523a1	-0.8325749
31	0x3f7fb846	0.99890554
32	0x3fef5b3c	1.8699718
33	0x3f8bfa87	1.093583
34	0x3ea251e5	0.31703106
35	0x3f28aeff	0.6589202
36	0x3fc078cc	1.5036864
37	0x3f8faca4	1.1224561
38	0x3ec118fd	0.37714377
39	0xbe66d4af	-0.2254207
40	0x3f73e577	0.9527201
41	0x3dc6a57e	0.09699534
42	0x3f0d04d1	0.55085474
43	0x3f10664f	0.5640611
44	0xbe21e794	-0.15810996
45	0x3ff0065f	1.8751944
46	0xbe2716e0	-0.1631732
47	0xbeafe9d4	-0.34358084
48	0xbfb37681	-1.402054
49	0xbfa2f852	-1.2732031
50	0xbf2efb9f	-0.68352693
51	0xbf2295b4	-0.6350968
52	0xbf58721e	-0.8454913
53	0x3e8723bb	0.26394448
54	0x3faab245	1.3335654
55	0x3e8c7b0f	0.27437636
56	0x3f17224b	0.590367
57	0xbf2cdbc5	-0.6752284
58	0x3e574dba	0.21025744
59	0x3f8cb41c	1.0992465
60	0xbec5cf84	-0.38634884
61	0x3f9c7e07	1.222596
62	0x3d345b3c	0.04403232
63	0x3fdad633	1.7096618
64	0x3de61b41	0.11235667
65	0xbef2c119	-0.47412947
66	0x3f4f9a51	0.81094843
67	0xbef06d1a	-0.46958238
68	0x3f874b11	1.0569783
69	0xbfd88ff2	-1.6918929
70	0xbee85015	-0.45373598
71	0x3f8c8395	1.0977656
72	0xbf6c3c85	-0.92279845
73	0x3dcf7163	0.10129049
74	0xbf6c2dd7	-0.92257446
75	0xbeeb768e	-0.45988888
76	0x3daa1b24	0.08305958
77	0xbe25d09d	-0.16192861
78	0xbfa4f9ee	-1.2888772
79	0xc01867c3	-2.381333
80	0xbf4da254	-0.8032582
81	0x3e13ca8f	0.14432739
82	0x3c821e9e	0.01588374
83	0xbf4a0ed6	-0.7892889
84	0xbf282840	-0.65686417
85	0xbfae7ca5	-1.3631788
86	0xbe893004	-0.26794446
87	0xbee22c3b	-0.4417437
88	0x3e684e74	0.22686177
89	0x3f4ca31a	0.79936373
90	0xbf335dde	-0.70065105
91	0xbf9210ff	-1.1411437
92	0xbed5ae63	-0.4173461
93	0x3f892afe	1.0716245
94	0x3f053d32	0.520465
95	0xbe66bcd9	-0.22532977
96	0xbf451a4d	-0.76993257
97	0x3f2e5958	0.6810508
98	0x3f6552d2	0.895795
99	0x3feaa848	1.8332605

C3.conv7.weight f4 [1, 4, 5, 5]
0	0x3f1ab54e	0.604329
1	0x3d999219	0.07498569
2	0xbef9f444	-0.48819172
3	0xbe8d3b99	-0.27584532
4	0x3e9fe301	0.31227878
5	0x3eff2e6e	0.4984011
6	0xbf05ea61	-0.5231076
7	0xbf6a03e4	-0.91412187
8	0xbf1d9eca	-0.6157042
9	0xbf1bcc57	-0.6085867
10	0xbd17225a	-0.036897995
11	0xbf456c61	-0.771185
12	0xbf36dac4	-0.7142756
13	0xbf79993b	-0.97499436
14	0xbed8111c	-0.42200553
15	0xbf8b4915	-1.0881678
16	0xbd24a523	-0.04019655
17	0xbf06beb9	-0.5263477
18	0xbf0646a1	-0.5245152
19	0x3f03d242	0.514927
20	0xbfcf5316	-1.6197231
21	0x3f47ea58	0.78091955
22	0xbc52b981	-0.01286161
23	0xbdc1504f	-0.09439146
24	0xbd951e1a	-0.07281132
25	0xbed4b7e5	-0.4154655
26	0xbf09a11f	-0.53761476
27	0xbf162165	-0.58644706
28	0x3ecb0f09	0.39659908
29	0xbfaa26e7	-1.3293122
30	0x3e452b57	0.19254814
31	0xbf138791	-0.5762873
32	0xbe90ecd4	-0.28305686
33	0x3e818ba0	0.25301838
34	0xbf714f45	-0.9426158
35	0x3f92b2da	1.1460831
36	0x3f2f2b8d	0.6842583
37	0x3e8dcd0b	0.27695498
38	0x3ecce931	0.4002166
39	0xbebd79da	-0.37007028
40	0x3f83c522	1.0294535
41	0x3dae5b42	0.085135
42	0xbee0165c	-0.4376706
43	0xbce1d917	-0.027569337
44	0xbf31169b	-0.6917512
45	0x3e99c74b	0.3003486
46	0x3f6826bd	0.9068411
47	0x3f007351	0.5017596
48	0x3ebbb85f	0.366641
49	0x3f9fc78d	1.2482773
50	0x3f1bc0cb	0.60841054
51	0x3cea3b2e	0.028592672
52	0x3ea51229	0.32240418
53	0x3eb64223	0.35597333
54	0x3f286012	0.6577159
55	0x3dc3f85c	0.09568855
56	0x3e115b95	0.14195092
57	0x3e40ac43	0.18815713
58	0x3eb3f62a	0.35148746
59	0x3fa4360d	1.2828995
60	0x3e83dbe0	0.2575369
61	0x3ecf7bb6	0.4052407
62	0x3ecd956d	0.40153065
63	0x3e68912d	0.2271163
64	0xbeac7f00	-0.33690643
65	0xbe16dede	-0.14733455
66	0x3fa04498	1.2520933
67	0x3f99c5a7	1.2013444
68	0x3f4fbbf2	0.81146157
69	0xbe2bd178	-0.16779125
70	0x3f3f0258	0.7461295
71	0x3fdd79e8	1.7302828
72	0x3ec78c67	0.38974306
73	0x3e05db64	0.13071972
74	0x3e4d675b	0.20058958
75	0x3e272a2e	0.16324684
76	0x3da32ac0	0.07967138
77	0x3cd46b18	0.025929973
78	0x3e9e92a1	0.30971244
79	0x3ed2590e	0.41083568
80	0xbe811bb1	-0.2521644
81	0x3e808e29	0.2510846
82	0x3e8b6721	0.2722712
83	0x3e78f771	0.24313141
84	0x3e001118	0.12506521
85	0x3d133589	0.035939727
86	0x3ea19395	0.3155791
87	0x3e96776e	0.29387993
88	0x3d99de4c	0.07513103
89	0xbea21bd4	-0.31661856
90	0xbdd6a29a	-0.104802325
91	0x3da3f2e4	0.08005312
92	0x3e675ef1	0.22594811
93	0xbe6bcba5	-0.23026903
94	0xbeea89af	-0.4580817
95	0x3e749283	0.23884015
96	0x3e742f3d	0.23846145
97	0x3d533529	0.05156437
98	0xbe2f93d8	-0.17146242
99	0x3e533877	0.20627008

C3.conv8.weight f4 [1, 4, 5, 5]
0	0xbd78442d	-0.060611892
1	0x3e26f7d7	0.16305481
2	0x3f0b16e2	0.5433179
3	0x3e5ab21c	0.21357006
4	0x3e634fc7	0.22198401
5	0x3ea724ed	0.3264536
6	0xbecb422d	-0.39698926
7	0xbe40cb7c	-0.18827623
8	0x3eccd90e	0.4000935
9	0x3e6d3c44	0.23167521
10	0xbe1e4b06	-0.15458307
11	0xbf07e9f9	-0.5309139
12	0xbe24e21b	-0.16101877
13	0x3e79c968	0.24393237
14	0xbec9696f	-0.39338252
15	0xbe0f5e72	-0.14000872
16	0xbe9addc7	-0.30247328
17	0xbe176efe	-0.14788434
18	0xbed48efb	-0.41515335
19	0xbf0c90b1	-0.5490828
20	0xbe2b10dc	-0.1670565
21	0xbdc0489f	-0.093888514
22	0xbe33b775	-0.17550452
23	0xbdaaf752	-0.08347954
24	0xbdd2554b	-0.102701746
25	0xbea8aad2	-0.32942826
26	0xbf0da1e5	-0.55325156
27	0xbe9195f5	-0.2843472
28	0xbf150658	-0.58212805
29	0xbe5f7bb1	-0.21824528
30	0x3f3f76f6	0.74790895
31	0xbe79fed3	-0.24413614
32	0x3d8619a9	0.06547863
33	0xbf5e67a6	-0.86876905
34	0xbe677195	-0.22601922
35	0x3f2c5a69	0.67325455
36	0x3f2d7593	0.6775753
37	0x3f59b15f	0.8503627
38	0x3f63a907	0.8892979
39	0x3f2468e8	0.64222574
40	0x3e6c7445	0.23091228
41	0x3f03ec44	0.5153239
42	0x3f21e2fd	0.6323698
43	0x3f8b2890	1.0871754
44	0x3f5012ea	0.8127886
45	0x3e0852fe	0.13312909
46	0xbf62eb29	-0.88640076
47	0xbf3366e6	-0.70078886
48	0xbf17d26b	-0.5930545
49	0xbf1453db	-0.57940453
50	0x3e4429e7	0.1915661
51	0xbe18fc33	-0.14939956
52	0xbe112ed3	-0.14178018
53	0xbe5a0540	-0.21291065
54	0xbec52595	-0.38505235
55	0x3d229ff6	0.039703332
56	0xbe0af74f	-0.13570903
57	0xbdc7a346	-0.09747939
58	0x3d468e00	0.048475266
59	0x3d3d903c	0.04628013
60	0x3e4f2111	0.20227458
61	0x3cb1e023	0.021713322
62	0xbc8f9d8c	-0.017531179
63	0x3e028be3	0.12748675
64	0xbd619474	-0.055073217
65	0x3da3ef7b	0.08004662
66	0x3d14bf19	0.036315057
67	0x3d8a60cb	0.06756743
68	0x3de69364	0.11258581
69	0x3ce39595	0.027781287
70	0x3eb726e0	0.35771847
71	0x3e50e39e	0.20399329
72	0x3d6be527	0.057591584
73	0xbc426bd4	-0.011866529
74	0xbca05e3f	-0.01957619
75	0xbc1ddf98	-0.009635828
76	0x3e004312	0.12525585
77	0x3dbc2f58	0.091887176
78	0x3e46261c	0.19350475
79	0xbcfbb386	-0.030725252
80	0xbedb7c9d	-0.4286851
81	0xbe788b5c	-0.24271911
82	0xbdad4612	-0.084606305
83	0x3d013f65	0.0315546
84	0x3dc37c6a	0.095452145
85	0x3c158c16	0.009127637
86	0xbd9b1d02	-0.07573892
87	0xbe503c7e	-0.20335576
88	0xbe9e2caf	-0.30893466
89	0xbd805547	-0.06266265
90	0x3ed8e7e5	0.4236442
91	0x3e8b948d	0.27261773
92	0x3dc4f8f1	0.09617794
93	0xbe0ed5ee	-0.13948795
94	0xbddb284d	-0.10701046
95	0x3e81f0a8	0.2537892
96	0xbd42db7b	-0.047572594
97	0xbcd50b73	-0.026006436
98	0x3da8a85f	0.08235239
99	0xbd9bb2ac	-0.07602438

C3.conv9.weight f4 [1, 4, 5, 5]
0	0x3e255af8	0.16147983
1	0x3e44b4ad	0.19209547
2	0x3e491cd1	0.19639899
3	0xbe21bf43	-0.15795617
4	0xbe50d361	-0.20393135
5	0x3ecebcc3	0.4037839
6	0x3f4962d4	0.78666425
7	0x3f115f45	0.56785995
8	0x3e8887de	0.26666158
9	0x3e5c1578	0.21492565
10	0x3e56ae07	0.20964824
11	0xbec00424	-0.3750316
12	0xbeba94c7	-0.36441633
13	0xbd88d0d7	-0.06680458
14	0x3dc9fa18	0.09862155
15	0xbd245314	-0.040118292
16	0xbf5c1874	-0.8597481
17	0xbe42565d	-0.18978257
18	0xbdfa9120	-0.12234712
19	0x3ca65f26	0.020309042
20	0xbf31e2cc	-0.6948669
21	0xbfc288f9	-1.5198051
22	0xbe84128b	-0.25795397
23	0xbf25688f	-0.6461267
24	0xbf11448f	-0.5674524
25	0xbf235f66	-0.6381744
26	0xbd65a6b9	-0.056067202
27	0x3ef95306	0.48696154
28	0x3ec5df0e	0.3864674
29	0xbdb044bc	-0.0860686
30	0xbdecc5b5	-0.11561147
31	0xbdb84323	-0.0899718
32	0x3e8ef2fd	0.2791976
33	0x3e89c28a	0.26906234
34	0x3c37ee37	0.011226228
35	0x3e56a65b	0.20961897
36	0xbcb46ab0	-0.022023529
37	0x3f377db9	0.7167621
38	0x3f0cd12d	0.55006677
39	0x3f09a1f3	0.5376274
40	0x3e7b28c7	0.24527274
41	0xbebd4fe1	-0.36975005
42	0x3dc7edd6	0.097621605
43	0xbdf2c2db	-0.11853572
44	0xbf0516f4	-0.5198815
45	0xbe0f3a58	-0.139871
46	0xbef5097a	-0.47858793
47	0xbf36b817	-0.7137465
48	0xbf533d72	-0.82515633
49	0xbf736f17	-0.95091385
50	0xbe3aaec6	-0.18230733
51	0xbe364d50	-0.1780293
52	0x3deeb9e9	0.11656553
53	0x3e3ed751	0.18636824
54	0x3e177d84	0.14793974
55	0x3cd6d1e2	0.026223127
56	0xbde6f28c	-0.11276731
57	0xbd960900	-0.07325935
58	0x3ab0390b	0.0013444735
59	0xbdf2e8df	-0.11860823
60	0x3dddf4a0	0.10837674
61	0x3e55491e	0.20828673
62	0x3db3da00	0.087818146
63	0x3e05ddf7	0.13072954
64	0x3c7cbf8d	0.015426529
65	0x3d0e4dba	0.034742095
66	0xbd43ab14	-0.047770575
67	0xbe1aba1b	-0.15110056
68	0x3ca38a94	0.01996354
69	0x3dce2970	0.10066497
70	0xbdbc7b09	-0.092031546
71	0xbe601947	-0.21884643
72	0xbd4a7d4d	-0.049435902
73	0x3d9fa791	0.07795633
74	0x3dca6fe8	0.09884626
75	0x3dd3e797	0.10346907
76	0x3d98bb17	0.074575596
77	0xbd63e219	-0.055635545
78	0xbd36b36d	-0.044604708
79	0xbe64a257	-0.22327553
80	0x3df4e90c	0.11958513
81	0x3c939d56	0.01801936
82	0x3cdb9e2a	0.026808817
83	0x3deffcad	0.11718116
84	0xbc4d5ae2	-0.012533875
85	0x3e094694	0.1340583
86	0xbdfdc329	-0.123907395
87	0x3c32488f	0.010881557
88	0x3e7859b6	0.24252972
89	0x3e4ce4a6	0.20009097
90	0xbe751609	-0.23934187
91	0xbe359ea8	-0.17736304
92	0x3d93dd0c	0.07219896
93	0x3ca717f2	0.02039716
94	0xbc998c33	-0.01874361
95	0xbef772a7	-0.4832966
96	0xbe7532ae	-0.23945114
97	0xbd0ac1f3	-0.03387637
98	0x3d58948c	0.05287604
99	0x3e3a6892	0.18203953

C3.conv10.weight f4 [1, 4, 5, 5]
0	0xbc30e7cb	-0.010797451
1	0x3cb56335	0.022142032
2	0xbccf6343	-0.025315886
3	0xbcd68b94	-0.026189603
4	0xbb9795b8	-0.004626002
5	0x3c796b94	0.0152234025
6	0x3cd3c197	0.025849147
7	0xba90ffa8	-0.001106252
8	0x3b5bf84b	0.0033564742
9	0xbc487160	-0.012234062
10	0x3b679e36	0.0035342104
11	0xbad37cd8	-0.0016135229
12	0x3bc4dfe5	0.0060081356
13	0x3c4ddc15	0.012564679
14	0x3bac1c3c	0.0052523892
15	0xbba67879	-0.0050802794
16	0xbcb23ba7	-0.02175696
17	0xbc692d47	-0.014231986
18	0xbcca628b	-0.024705192
19	0xba5ef2fa	-0.0008504834
20	0x3be92af3	0.0071157156
21	0xbbe5fb94	-0.007018516
22	0xbc1f7157	-0.009731612
23	0x3c806303	0.015672212
24	0xbcdc82ba	-0.026917804
25	0xbb3af587	-0.0028527693
26	0x3d0e1f60	0.03469789
27	0xbb8b061a	-0.0042426707
28	0x3d162cd5	0.03666385
29	0x3d0c2227	0.034212258
30	0x3c413b8f	0.011793985
31	0x3cef171a	0.02918582
32	0x3c9ec8cd	0.019382859
33	0x3d19c772	0.03754372
34	0x3cb41160	0.021980941
35	0xbb058df0	-0.002037879
36	0x3c3e3bd2	0.011610942
37	0x3d10066d	0.035162378
38	0x3ccca8b1	0.024982782
39	0x3c7ec485	0.015549784
40	0xbc610394	-0.013733763
41	0xbb5e0577	-0.003387777
42	0xbcb5642f	-0.022142498
43	0x3c896aa1	0.016774477
44	0x3b0f776a	0.0021891245
45	0x389d8271	7.51064e-05
46	0x3d22727c	0.039659962
47	0x3a804441	0.0009785966
48	0xbc24bb37	-0.010054401
49	0x3ce782a6	0.02826054
50	0x3c4435d8	0.011975728
51	0xbce5e869	-0.028064923
52	0xbbe6ebd5	-0.0070471563
53	0xb89e4315	-7.546522e-05
54	0xba8655ea	-0.0010248993
55	0x3b31acc0	0.0027111024
56	0x3a51cddd	0.00080033933
57	0x3b97f761	0.004637644
58	0xbced1c09	-0.028944032
59	0xbcc68fff	-0.024238585
60	0x3ac69383	0.0015150163
61	0xbc76b0c5	-0.015056794
62	0xbc9919d1	-0.018689068
63	0x3c284e9c	0.010272648
64	0xbcae9bcc	-0.021314524
65	0xbc8de1e2	-0.017319623
66	0xbc011bd2	-0.007880168
67	0xbca54614	-0.020175017
68	0x3c293d18	0.010329507
69	0xbc1d4067	-0.009597874
70	0xbc281151	-0.010258035
71	0xbbe7dbfd	-0.007075785
72	0x3bbbce32	0.0057313675
73	0xbc800565	-0.015627572
74	0x3ba04c04	0.0048918743
75	0xbcb41426	-0.021982264
76	0x3c6af4e1	0.01434061
77	0xbb9066e9	-0.004406799
78	0xbce9c389	-0.028535621
79	0xbc214571	-0.009843216
80	0x3b6adf3b	0.0035838622
81	0x3bb1499b	0.005410386
82	0x3c8f1454	0.017465748
83	0x3af88336	0.0018960002
84	0xbbbd7170	-0.005781345
85	0x3bfb6245	0.0076716268
86	0x38aaa2ff	8.136592e-05
87	0xba48dcf7	-0.0007662321
88	0xbc551065	-0.013004397
89	0x3bde731b	0.006788624
90	0x3c17d1cf	0.009266331
91	0x3c3ace90	0.011401787
92	0xbcae4e1c	-0.02127748
93	0xbafd1e98	-0.0019311486
94	0x3c8c7336	0.01714478
95	0x3a97b71f	0.001157496
96	0xbbccdaee	-0.0062516844
97	0xbcbc3141	-0.022972705
98	0x3c55e921	0.013056071
99	0x3bc50472	0.006012493

C3.conv11.weight f4 [1, 4, 5, 5]
0	0x4008b7bd	2.1362145
1	0x3f8026b2	1.0011809
2	0x3fe99704	1.8249211
3	0x3f3da309	0.74076897
4	0x3f35c25c	0.70999694
5	0x3ede0991	0.43366674
6	0x3de8e9d3	0.113727234
7	0x3f44fbb7	0.76946586
8	0x3ef06d16	0.46958226
9	0x3f3fa4cb	0.7486083
10	0xbef5bc7b	-0.47995362
11	0xbf22156b	-0.6331393
12	0xbef624e4	-0.4807502
13	0x3c3e215c	0.011604633
14	0x3f19829a	0.5996491
15	0xbf3261f9	-0.69680744
16	0xbf05a898	-0.5221038
17	0xbf7b71ae	-0.98220336
18	0xbf304e8e	-0.68869865
19	0xbe3193f5	-0.17341597
20	0xbf4aa9c5	-0.791653
21	0xbf3ed520	-0.7454395
22	0xbf4b651c	-0.79451156
23	0xbf79b655	-0.9754384
24	0xbf86dde2	-1.0536463
25	0x3fc50bb7	1.53942
26	0x3f0d6ad5	0.5524114
27	0x3fb8012e	1.437536
28	0x3f70f42f	0.94122595
29	0xbe648353	-0.22315721
30	0x3ed7e72c	0.42168558
31	0xbe8f60b6	-0.28003472
32	0x3f17317e	0.59059894
33	0x3e96a67f	0.294239
34	0xbcd3b880	-0.025844812
35	0x3f6b657b	0.9195172
36	0x3e6ca310	0.23109078
37	0x3f8b2679	1.0871116
38	0x3f0a432f	0.54008764
39	0x3dd82579	0.10554022
40	0x3f4efa84	0.80851007
41	0xbf15ee95	-0.5856717
42	0x3d8e3b8b	0.06944951
43	0xbebf7354	-0.37392676
44	0xbe59a854	-0.21255618
45	0x3f9eb3b5	1.2398592
46	0xbea27b20	-0.31734562
47	0x3da4f54e	0.08054601
48	0x3d3d2515	0.046177942
49	0xbe8e430b	-0.27785525
50	0xbe267e66	-0.16259155
51	0xbe5a0f83	-0.2129498
52	0xbe64ef87	-0.22356997
53	0x3f065c5b	0.52484673
54	0x3f08a14a	0.5337111
55	0xbf20ae45	-0.62765914
56	0x3bbc80bf	0.0057526524
57	0xbe296109	-0.16540922
58	0xbd94ba18	-0.07262057
59	0xb9df6721	-0.00042610712
60	0x3e85507d	0.2603797
61	0xbde40386	-0.111334845
62	0x3d060068	0.03271523
63	0x3f2f8095	0.68555576
64	0xbe23bbd8	-0.15989625
65	0x3f220e81	0.6330338
66	0xbf3d61a6	-0.73977125
67	0xbd14e6ab	-0.036352795
68	0xbf117f9b	-0.56835335
69	0xbf8c3020	-1.0952187
70	0x3f87804a	1.0586026
71	0xbf157718	-0.5838485
72	0x3f289290	0.65848637
73	0x3f0981be	0.53713596
74	0x3f4e782b	0.8065211
75	0x3f0a672f	0.54063696
76	0x3e627fdc	0.22119087
77	0x3db50e12	0.08840574
78	0xbe2c0659	-0.16799296
79	0xbdd454f5	-0.10367767
80	0xbe6d8c0b	-0.23197953
81	0xbd1e18da	-0.03859792
82	0x3de379a4	0.111071855
83	0x3c04a09b	0.008094932
84	0x3d4543bd	0.048160303
85	0xbeb6cdf6	-0.3570401
86	0xbd0261e3	-0.031831633
87	0x3e4c246b	0.19935767
88	0x3e6ba22e	0.23011085
89	0xbe31a3dd	-0.17347665
90	0xbe6cc2af	-0.23121141
91	0xbe4bd3ae	-0.19904968
92	0xbe12dc9c	-0.14341968
93	0x3b335c57	0.0027368271
94	0xbed5d984	-0.41767514
95	0xbd925651	-0.0714537
96	0x3c2b58b6	0.010458162
97	0x3e0e40ca	0.13891903
98	0x3ea4f3b1	0.32217172
99	0xbe88da9e	-0.26729292

C3.conv12.weight f4 [1, 4, 5, 5]
0	0x3eb9d26f	0.3629336
1	0x3e731116	0.23736987
2	0xbe294121	-0.16528751
3	0x3e1f758e	0.15572187
4	0x3e5040ea	0.20337263
5	0x3eb5437c	0.3540305
6	0xbe2d3f31	-0.16918637
7	0xbf1ae278	-0.60501814
8	0x3e189672	0.1490114
9	0xbde73913	-0.11290183
10	0xbf0adf22	-0.54246724
11	0xbf198e22	-0.599825
12	0xbf3f67c6	-0.7476772
13	0xbf1534dd	-0.5828379
14	0xbe80404d	-0.25049058
15	0xbf556784	-0.8336108
16	0xbc8e46ed	-0.017367804
17	0xbd8a26d6	-0.067456886
18	0xbec3c4a5	-0.38235965
19	0x3e809edb	0.25121197
20	0x3ee026d4	0.43779624
21	0x3f883753	1.0641884
22	0x3f5d602f	0.8647489
23	0x3ece77e5	0.40325847
24	0x3d0bca45	0.034128446
25	0x3e85e42b	0.2615064
26	0x3d843c26	0.06456785
27	0xbda67cbd	-0.08129261
28	0x3c276f22	0.010219367
29	0xbe3a5e2f	-0.1819999
30	0x3d58cc5f	0.05292928
31	0xbe7bfb2d	-0.24607535
32	0x3d1cb24f	0.038255986
33	0x3e585652	0.21126679
34	0x3e0667aa	0.13125482
35	0xbf1bdeb0	-0.6088667
36	0xbd951d3a	-0.07280965
37	0xbd59649b	-0.05307446
38	0xbe0119e3	-0.12607531
39	0xbe1b0ae4	-0.15140873
40	0xbe85cf11	-0.26134542
41	0xbe85e60c	-0.26152074
42	0xbeea9521	-0.458169
43	0xbed3bb92	-0.41354042
44	0xbd594b9e	-0.05305063
45	0xbd22c011	-0.03973395
46	0x3d9c2faf	0.076262824
47	0x3c36a733	0.011148262
48	0xbe549537	-0.20760046
49	0x3cff1996	0.03114013
50	0xbc9a81fc	-0.01886081
51	0x3e8c6873	0.27423438
52	0xbdf0bce3	-0.11754777
53	0x3e47e2bf	0.1952009
54	0xbcc67cf5	-0.024229506
55	0x3e7abf61	0.24487068
56	0x3da421f0	0.080142856
57	0xbe976321	-0.29567817
58	0x3ed45c62	0.41476732
59	0x3ebdb381	0.37051013
60	0x3eaa07a3	0.3320895
61	0x3df8fc81	0.12157536
62	0xbeb792ed	-0.35854283
63	0xbe8efb49	-0.2792609
64	0x3d98ec02	0.0746689
65	0x3f083cf8	0.5321803
66	0x3dc412e4	0.095739156
67	0x3cdf2dcd	0.02724352
68	0xbd5c3a4d	-0.053766537
69	0xbc737b27	-0.014860905
70	0x3ec4ff39	0.3847597
71	0x3e8fedb2	0.28111035
72	0x3f0baa51	0.5455676
73	0x3ebb0a50	0.36531305
74	0x3e583cd6	0.21116957
75	0xbd0c8e48	-0.034315377
76	0x3e35e3c4	0.17762667
77	0x3e34bfff	0.17651366
78	0xbea3f783	-0.32024774
79	0xbe90c4ce	-0.2827515
80	0xbd0e37d2	-0.034721203
81	0x3ea565e4	0.323043
82	0x3e8de577	0.2771413
83	0x3db35d9b	0.08758088
84	0x3d4632ca	0.04838828
85	0xbde0d49e	-0.109780535
86	0x3d7494d1	0.059712235
87	0x3dc1214f	0.09430181
88	0xbd9132ab	-0.07089742
89	0xbe70afed	-0.2350461
90	0xbe912007	-0.28344747
91	0xbc540a86	-0.012941962
92	0x3e2882ed	0.16456194
93	0x3e67d7c3	0.226409
94	0x3e02d81f	0.12777756
95	0xbbc6efc1	-0.0060710614
96	0x3e6ed627	0.2332388
97	0x3e6651b8	0.2249211
98	0x3ed16c02	0.40902716
99	0xbcadd0a9	-0.021217661

C3.conv13.weight f4 [1, 4, 5, 5]
0	0xbf5cad54	-0.8620198
1	0xbe8f8aaa	-0.2803548
2	0xbe29afb2	-0.16570929
3	0xbe166d5e	-0.14690158
4	0xbeab19fb	-0.3341826
5	0xbf4b2bfb	-0.79363984
6	0x3e8a3f8d	0.2700161
7	0x3e20a79c	0.15688938
8	0x3e8dd873	0.277042
9	0x3d33e942	0.043923624
10	0xbfbf15c3	-1.4928516
11	0x3e83d821	0.2575083
12	0x3f239711	0.63902384
13	0x3ed64cf8	0.41855597
14	0x3f7962bc	0.9741628
15	0xbdc6ac24	-0.09700802
16	0x3f3b6edb	0.7321603
17	0x3f8c5392	1.0963004
18	0x3ee51925	0.44745746
19	0x3ecd0862	0.40045458
20	0xbe5d6289	-0.2161962
21	0x3ec1ffda	0.37890512
22	0x3ededf59	0.43529776
23	0x3ee2048d	0.44144097
24	0x3e5cf521	0.21577884
25	0x3e08e952	0.13370255
26	0x3c3cd7c3	0.011526051
27	0xbf14c1b2	-0.58108056
28	0xbea71e53	-0.32640323
29	0xbe5db76f	-0.21652006
30	0xbebadb5c	-0.36495483
31	0x3e626fc8	0.22112954
32	0xbe7db5b2	-0.24776343
33	0x3ee67ea3	0.4501849
34	0x3d5e419f	0.0542618
35	0xbee79a1f	-0.45234773
36	0x3f1e950e	0.6194619
37	0x3df65aab	0.12029012
38	0x3e2f6377	0.17127787
39	0x3d924549	0.07142121
40	0x3f547bbb	0.830013
41	0x3f1d0573	0.6133644
42	0x3f23ecf3	0.6403343
43	0x3e6b96c7	0.23006736
44	0x3e7eab41	0.24870016
45	0x3f212aa1	0.6295567
46	0x3e0500f4	0.12988645
47	0x3ab2d47d	0.0013643649
48	0xbf062e5e	-0.524145
49	0xbedd1a4d	-0.43184128
50	0x3e789c07	0.2427827
51	0x3e1b9c95	0.1519645
52	0xbe08b2a4	-0.13349396
53	0x3d1aaf89	0.03776506
54	0x3f068013	0.52539176
55	0x3e2f7246	0.17133436
56	0xbc32bbba	-0.010909015
57	0xbe2ba1ef	-0.16760992
58	0xbe5b442a	-0.21412721
59	0x3e21ae09	0.15789045
60	0xbd63300e	-0.05546575
61	0xbe8e78e6	-0.27826613
62	0xbe9f10eb	-0.31067595
63	0xbe838ce6	-0.25693434
64	0x3e2bf5f8	0.16793048
65	0x3cfe5dea	0.031050641
66	0xbc5576ce	-0.0130288135
67	0x3b839921	0.004016057
68	0x3ce8ac9c	0.028402619
69	0x3dc025c5	0.09382204
70	0x3eaaf7d1	0.33392194
71	0x3ec0010c	0.375008
72	0x3e4ba03b	0.19885342
73	0x3e30f8f7	0.17282473
74	0x3e769177	0.24078928
75	0x3d855c17	0.06511705
76	0x3e66a877	0.22525202
77	0xbd4110dd	-0.047135223
78	0xbde5fc1e	-0.11229728
79	0x3d9aaa0b	0.07551964
80	0x3e2f7484	0.17134291
81	0x3d1ccedd	0.038283218
82	0x3c6aff75	0.014343132
83	0x3de98b3a	0.114035085
84	0xbeb7992f	-0.35859057
85	0x3e515603	0.20442967
86	0x3d9674da	0.073465064
87	0xbe9055f7	-0.28190586
88	0xbe14a2bd	-0.14515205
89	0xbd908710	-0.07057011
90	0xbd9e9a5c	-0.077442855
91	0xbd98b915	-0.074571766
92	0xbe406417	-0.18788181
93	0xbdbf2820	-0.09333825
94	0x3e72f4d6	0.2372621
95	0xbd521761	-0.051291827
96	0xbe7a2e6c	-0.24431771
97	0xbd92f9bc	-0.07176539
98	0x3e378505	0.17921837
99	0x3db3cf65	0.08779792

C3.conv14.weight f4 [1, 4, 5, 5]
0	0xbe0e0933	-0.13870697
1	0x3dd7bc9c	0.10534021
2	0x3dbb562c	0.09147295
3	0xbe19622f	-0.1497886
4	0x3e61184e	0.21981928
5	0xbef14f1d	-0.4713067
6	0xbeac471f	-0.3364801
7	0xbf01599a	-0.50527346
8	0xbf87687e	-1.0578763
9	0xbefe85ab	-0.49711356
10	0xbf94f6ba	-1.1637795
11	0xbf9092ff	-1.129486
12	0xbf1613c5	-0.58623916
13	0xbea40644	-0.3203603
14	0x3ee3148d	0.44351617
15	0xbf80debf	-1.0067977
16	0xbed6dbc8	-0.41964555
17	0x3ee7b3d0	0.45254374
18	0x3f62354e	0.88362586
19	0x3f8dd85c	1.1081653
20	0xbdd80639	-0.10548062
21	0x3e33ff30	0.17577815
22	0x3f2f0185	0.68361694
23	0x3f2fd1c4	0.6867945
24	0x3e44e3ac	0.19227475
25	0x3d312665	0.043249507
26	0x3d8d9de1	0.06914879
27	0x3efbf751	0.49212125
28	0x3c7a5ce2	0.015280934
29	0x3f4d52e8	0.8020463
30	0x3ea4b58c	0.3216976
31	0x3e4b4997	0.19852291
32	0x3f224579	0.63387257
33	0x3f00801b	0.50195473
34	0x3f4d2c40	0.80145645
35	0x3e627db0	0.22118258
36	0x3ebcef61	0.36901382
37	0x3f3bc78f	0.7335138
38	0x3db690a3	0.08914306
39	0xbe01ff83	-0.12695126
40	0x3d0c317e	0.034226887
41	0x3eb27c1d	0.34860316
42	0x3f302aa5	0.6881507
43	0x3e882cb1	0.26596597
44	0xbd22c381	-0.03973723
45	0xbe25b0a0	-0.16180658
46	0xbf82f911	-1.0232259
47	0xbf2bbbac	-0.6708324
48	0xbeae2cc6	-0.34018534
49	0xbf9a3dc5	-1.20501
50	0x3e2ffa9e	0.17185447
51	0xbd38a668	-0.045080572
52	0xbf2c216c	-0.672385
53	0xbf19b60d	-0.6004341
54	0xbf1d3bca	-0.61419356
55	0xbe91cd59	-0.2847698
56	0xbeb499fb	-0.35273728
57	0xbf5ab374	-0.85430074
58	0xbed5a95c	-0.41730773
59	0xbf1e2741	-0.61778647
60	0xbd1afbe5	-0.03783788
61	0xbe7a8bd5	-0.24467404
62	0xbf2c4b71	-0.67302614
63	0xbe12ab19	-0.14323081
64	0x3cb22e10	0.02175048
65	0x3d4386b0	0.04773587
66	0xbe87c432	-0.26516873
67	0xbf0bcfe7	-0.5461411
68	0xbdf46e83	-0.11935141
69	0x3f0cf23d	0.55057126
70	0x3e8f5e35	0.28001562
71	0x3edda8ad	0.43292752
72	0x3e90ec23	0.28305158
73	0x3f49f5fd	0.78890973
74	0x3f0a1ab8	0.5394702
75	0x3e24f06b	0.16107337
76	0x3bea6019	0.007152569
77	0xbc458dcc	-0.012057733
78	0xbe583d2a	-0.21117082
79	0xbf06fda2	-0.5273076
80	0x3ead3187	0.3382685
81	0x3de8f58a	0.11374958
82	0xbe404918	-0.18777883
83	0xbebab254	-0.3646418
84	0xbe918c27	-0.2842724
85	0xbc0a7343	-0.008450332
86	0xbccb72ff	-0.024835108
87	0xbe4bd177	-0.19904123
88	0xbe966be3	-0.29379186
89	0x3d48de55	0.049040157
90	0x3d6d7919	0.057976816
91	0x3e9fcb69	0.31209877
92	0x3e3ca265	0.18421324
93	0xbd81b4cb	-0.06333312
94	0x3eb86b05	0.3601915
95	0xbea123a5	-0.31472507
96	0xbcb7fa3a	-0.022458185
97	0x3de94909	0.113908835
98	0x3bab5b1e	0.005229368
99	0x3bc20c17	0.0059218514

C3.conv15.weight f4 [1, 6, 5, 5]
0	0xbddf4a11	-0.10902799
1	0xbb31a2f1	-0.0027105177
2	0xbcfaa71b	-0.03059726
3	0xbd0b759b	-0.034047704
4	0x3c4d8e13	0.01254608
5	0xbda85534	-0.08219376
6	0x3cfe351a	0.03103118
7	0x38d6b0b1	0.000102372265
8	0xbcc429ab	-0.02394565
9	0xbcf2f326	-0.029656958
10	0xbd40960f	-0.047018107
11	0x3d8bf226	0.068332955
12	0x3ddd6d98	0.10811919
13	0x3d2ac2a3	0.041689526
14	0xbd80efab	-0.06295713
15	0xbcbdcaa4	-0.023167916
16	0x3d9af45b	0.07566138
17	0x3e039f89	0.12853827
18	0xbd98c4c2	-0.074594036
19	0xbdfc0834	-0.12306252
20	0xbd6eadd3	-0.05827124
21	0xbd368df5	-0.044568975
22	0xbc3f4f22	-0.011676582
23	0xbe0598c2	-0.13046554
24	0xbdc72376	-0.097235605
25	0x3da0ac1a	0.07845326
26	0x3d77a7f7	0.060462918
27	0x3cae75fe	0.021296497
28	0xbd20acc4	-0.039227262
29	0xbe022bcc	-0.1271202
30	0xbdb35908	-0.08757216
31	0xbdbd081c	-0.09230062
32	0x3838e12f	4.4078737e-05
33	0x3de740a1	0.11291624
34	0x3dd2ad0d	0.10286913
35	0xbe5d6fdd	-0.21624704
36	0xbeb8b55f	-0.36075875
37	0xbe89c60b	-0.26908907
38	0x3c5804ee	0.013184769
39	0x3e7a2ccf	0.24431156
40	0xbcdf0933	-0.027226066
41	0xbe0ce4f8	-0.1375922
42	0xbda03378	-0.07822317
43	0x3da6694b	0.08125552
44	0x3e435aab	0.19077556
45	0xbd480448	-0.048832208
46	0x3dbcc6a9	0.09217579
47	0x3e51ad5c	0.20476288
48	0x3e382f91	0.17986895
49	0x3dca6c6c	0.09883961
50	0x3cfdc4e8	0.030977681
51	0xbca746ab	-0.02041944
52	0xbd8119d1	-0.06303752
53	0x3d4cd190	0.050004542
54	0xbd65539e	-0.055987947
55	0xbcdb3f59	-0.026763605
56	0x3b574f90	0.003285382
57	0x3cda16cb	0.026622197
58	0x3d4ca5ba	0.049962737
59	0xbdd81e05	-0.10552601
60	0xbdcbd8ac	-0.09953436
61	0x3b8f326c	0.0043700244
62	0x3def2885	0.1167765
63	0x3dd6ed60	0.104944944
64	0xbbdade27	-0.0066793147
65	0xbde2ca49	-0.11073739
66	0xbd1b180a	-0.037864722
67	0x3c8809b8	0.016606197
68	0xbd332beb	-0.043743055
69	0xbd1004c3	-0.03516079
70	0xbd84767a	-0.0646791
71	0xbda4199e	-0.080126986
72	0xbd443370	-0.047900617
73	0xbda8f6b9	-0.082501836
74	0xbe1197b9	-0.14218034
75	0x3d9b0971	0.0757016
76	0x3e150c75	0.14555533
77	0x3da8d850	0.08244383
78	0xbdfb4dd6	-0.122707054
79	0xbd1a9849	-0.037742887
80	0x3d517b25	0.05114283
81	0x3d06f0fa	0.032944657
82	0x3bd7c9f3	0.0065853535
83	0xbd903780	-0.07041836
84	0x3c159393	0.009129423
85	0xbd5d747a	-0.05406616
86	0xbce849d3	-0.028355515
87	0xbc6b19fc	-0.014349457
88	0xbe072698	-0.13198316
89	0xbdf1b4b7	-0.11802047
90	0xbd8f008b	-0.069825254
91	0xbc89b129	-0.01680811
92	0xbcc3b167	-0.023888303
93	0xbe0f5e70	-0.14000869
94	0xbde37e1e	-0.11108039
95	0xbc743257	-0.01490458
96	0xbd3b83f1	-0.045780126
97	0xbdf8b559	-0.12143964
98	0xbde63eee	-0.11242472
99	0xbd9997e1	-0.07499672
100	0xbd50696e	-0.050881796
101	0xbd83c407	-0.064338736
102	0xbcd97155	-0.026543299
103	0xbd81d4c8	-0.06339413
104	0xbdca9718	-0.098921
105	0xbcbc4ec2	-0.022986773
106	0xbceee9bd	-0.02916419
107	0xbd7914e1	-0.060810927
108	0xbd7fffe1	-0.062499885
109	0xbdc76409	-0.09735877
110	0xbdec1f8a	-0.11529453
111	0xbd92d340	-0.07169199
112	0xbc813466	-0.015772056
113	0x3c0ce73a	0.008600051
114	0xbca35c7f	-0.019941567
115	0xbd2c9a27	-0.0421392
116	0xbccac235	-0.024750808
117	0xbc94e5c2	-0.018175963
118	0x3cb94290	0.022614747
119	0x3cf19f74	0.029494978
120	0x3ce03c9b	0.027372649
121	0xbc7cdcaf	-0.015433474
122	0x3c93d77c	0.018047087
123	0x3d931cb4	0.07183209
124	0x3d1aec48	0.03782299
125	0xbd91350f	-0.07090198
126	0xbe19d67b	-0.15023224
127	0xbde49d53	-0.1116282
128	0xbd5c57c0	-0.053794622
129	0xbdd7c8e3	-0.10536363
130	0xbcfd5f93	-0.030929362
131	0xbc84cca4	-0.016210862
132	0x3a1901f6	0.0005836779
133	0xbd3939ac	-0.045221016
134	0xbdc762d5	-0.097356476
135	0xbc84804f	-0.016174464
136	0xbc85e9f8	-0.016346917
137	0x3e0d258d	0.13783856
138	0x3e104dad	0.14092131
139	0x3d69b9d1	0.057061974
140	0x3d03cd95	0.03217848
141	0xbd86df65	-0.06585578
142	0x3d5c7735	0.053824622
143	0x3e171626	0.14754543
144	0x3dd4f0de	0.10397504
145	0x3d9549bb	0.072894536
146	0x3d6e5e58	0.058195442
147	0xbbf8b833	-0.0075903176
148	0x3d480662	0.048834212
149	0x3d4ee034	0.050506786

S4.weight f4 [16]
0	0xbd0b19e7	-0.03396025
1	0x3ed908b6	0.42389458
2	0x3f900534	1.1251588
3	0xbf46042c	-0.77350116
4	0xbd446581	-0.047948364
5	0xbec4526f	-0.38344142
6	0x3ec6a92d	0.38800946
7	0xbf030c2c	-0.5119045
8	0xbf46d009	-0.77661186
9	0x3ece93eb	0.40347227
10	0xbdc7b258	-0.09750813
11	0xbf009227	-0.5022301
12	0x3ef43f12	0.4770437
13	0xbefdd3db	-0.49575695
14	0x3f119803	0.56872576
15	0x3f737fe8	0.95117044

S4.bias f4 [16]
0	0xbb3a41d6	-0.002842059
1	0x3fb0a838	1.3801336
2	0xbe5b0448	-0.21388352
3	0xbf27df67	-0.6557526
4	0x3b79c907	0.0038114206
5	0x3e996e5e	0.29967016
6	0xbe2a13d6	-0.1660913
7	0x3c2cfa1e	0.010557679
8	0xbe9ae345	-0.30251518
9	0x3f77886c	0.9669254
10	0xbd2d4d76	-0.0423102
11	0xbf2d5a46	-0.6771587
12	0x3e3fc95f	0.1872916
13	0xbf5cf699	-0.8631378
14	0x3c937860	0.018001735
15	0xbdd01074	-0.10159388
